backend/data/models_fixed_span_12ft/neural_v1.pt (torch, 55790 bytes, 48 tensors)

model.0.weight f4 [48, 16]
0	0xbd965890	-0.07341111
1	0x3df3b51f	0.118997805
2	0x3e225689	0.15853323
3	0xbd12f562	-0.035878547
4	0x3e3075c9	0.17232431
5	0x3ddfb571	0.10923279
6	0xbd238fbb	-0.039931994
7	0x3dec5488	0.115395606
8	0x3d41e8e5	0.047341246
9	0xbd40b740	-0.04704976
10	0xbe5db938	-0.21652687
11	0x3db0b564	0.086283475
12	0xbe44b773	-0.19210605
13	0x3d9fe99f	0.078082316
14	0x3e13e032	0.14440992
15	0x3c9605ad	0.018313253
16	0x3eaa219a	0.3322876
17	0x3e1cc180	0.1530819
18	0x3d880e39	0.06643338
19	0xbea07db0	-0.31345892
20	0xbd2ebb4f	-0.0426591
21	0xbe1c2ca9	-0.15251411
22	0x3e544583	0.20729642
23	0xbea11275	-0.31459394
24	0xbdf5e2c6	-0.12006144
25	0x3db4da42	0.08830692
26	0xbe3e79e2	-0.18601182
27	0xbdb6163d	-0.0889096
28	0xbcf72e18	-0.030173346
29	0xbeab014a	-0.3339942
30	0x3e3c8dfc	0.18413538
31	0xbcb24e28	-0.021765783
32	0xbe440aa4	-0.19144684
33	0xbda67a85	-0.081288375
34	0x3e30fbc8	0.17283547
35	0x3e3e6e41	0.18596746
36	0xbe7df134	-0.24799043
37	0xbe0e903a	-0.13922206
38	0xbe0af053	-0.13568239
39	0xbe0fddbb	-0.14049427
40	0xbdbfcc28	-0.093651116
41	0x3e666acb	0.22501676
42	0xbd9ee5c6	-0.077586696
43	0xbe280013	-0.16406278
44	0x3e5299e5	0.20566519
45	0xbe6e7e5f	-0.23290394
46	0xbdba6e47	-0.09103065
47	0xbe27dc37	-0.16392599
48	0x3eb86afc	0.36019123
49	0x3e3c27ca	0.18374553
50	0xbca0153b	-0.019541373
51	0xbd328e0c	-0.043592498
52	0x3e818490	0.2529645
53	0xbd8ecda5	-0.06972817
54	0xbe8e4f48	-0.27794862
55	0x3e7717e2	0.24130204
56	0xbe237d21	-0.15965702
57	0xbe5b5bb6	-0.21421704
58	0x3d967691	0.073468335
59	0xbce0272f	-0.027362434
60	0xbe7949e2	-0.2434459
61	0x3d0bcaef	0.03412908
62	0x3d9918ed	0.07475457
63	0xbcd0cda1	-0.025488677
64	0xbdc5b9d2	-0.09654583
65	0xbd78ac97	-0.06071147
66	0xbdd9d6da	-0.10636683
67	0xbeb3f3a9	-0.35146835
68	0x3d9e4ee6	0.077298924
69	0x3e106c26	0.14103755
70	0x3dd686a5	0.104749
71	0xbdc0e1f0	-0.09418094
72	0x3e987d99	0.29783323
73	0xbde18e58	-0.11013478
74	0xbe4c5dd5	-0.19957669
75	0xbddc122f	-0.10745656
76	0x3d96afca	0.07357748
77	0x3c5cfdb3	0.013488221
78	0x3def44e9	0.116830654
79	0x3dac1727	0.084028535
80	0xbe022cb6	-0.12712368
81	0xbcb3b94a	-0.021938939
82	0xbd9ba01f	-0.075989
83	0x3caa471e	0.020785864
84	0xbd68bd48	-0.056821138
85	0xbdc0827d	-0.09399889
86	0xbdbfdb98	-0.09368056
87	0xbd371913	-0.044701647
88	0x3d9473f2	0.07248677
89	0xbbcea74f	-0.006306566
90	0x3d540a78	0.051767796
91	0x3c631ea9	0.01386229
92	0x3bb550f8	0.005533334
93	0x3c8015df	0.015635429
94	0xbc851e3e	-0.016249772
95	0x3e1599d5	0.14609464
96	0x3ed1c037	0.4096696
97	0xbde0a3b2	-0.109687224
98	0x3d64eb86	0.055888675
99	0x3dea5398	0.114417255
100	0x3dd70a41	0.10500003
101	0xbe738054	-0.23779422
102	0x3e4fa42c	0.2027747
103	0x3ddeb172	0.10873689
104	0xbcafcc01	-0.021459581
105	0xbdd1cfab	-0.10244688
106	0x3ca594e6	0.020212602
107	0xbcc106d9	-0.023562836
108	0xbdb7809c	-0.08960077
109	0x3dde1ce1	0.10845352
110	0xbdd28cd7	-0.10280769
111	0xbd29ba04	-0.041437164
112	0x3eb923e1	0.36160186
113	0xbe8834a7	-0.2660267
114	0x3d93bda9	0.07213909
115	0xbd2236c0	-0.039602995
116	0x3e14af2a	0.14519945
117	0xbe6126d3	-0.21987467
118	0xbe8e7f54	-0.2783152
119	0x3dd1b3c0	0.10239363
120	0x3dd75999	0.10515136
121	0x3a2569d7	0.0006310022
122	0xbe517cb1	-0.20457722
123	0xbd1a806c	-0.03772013
124	0xbe40031f	-0.1875119
125	0x3de93c4a	0.11388452
126	0xbe81f447	-0.2538168
127	0xbdfc8b1e	-0.12331222
128	0x3cb5052a	0.022097189
129	0xbc6388e2	-0.013887616
130	0xbcb281b8	-0.02179037
131	0xba997f0c	-0.0011710837
132	0xbd18b7f4	-0.037284806
133	0x3c2e12da	0.010624612
134	0x3c3a03e4	0.011353467
135	0xbcebba2e	-0.0287753
136	0x3d95cd8f	0.07314598
137	0x3cc27bd9	0.023740696
138	0xbb441494	-0.0029919492
139	0xbd0c0f80	-0.03419447
140	0xbca25a32	-0.0198184
141	0x3b2b4749	0.0026135019
142	0x3ca8c117	0.020599885
143	0x3cfeff8e	0.031127717
144	0x3e8bffcd	0.27343598
145	0xbd021b95	-0.031764586
146	0xbd4f65b2	-0.050634094
147	0xbdd5464b	-0.10413798
148	0xbe30880a	-0.17239395
149	0xbe8f6e0b	-0.28013644
150	0x3d4795a6	0.0487267
151	0xbe09a500	-0.13441849
152	0xbdf7da3e	-0.12102173
153	0x3e26b22f	0.16278909
154	0xbceb7090	-0.028740197
155	0x3d6159f9	0.055017445
156	0x3e725a8d	0.23667355
157	0xbe2fff03	-0.17187123
158	0x3dae8fb6	0.085235044
159	0x3db3abd5	0.08773009
160	0x3ec7bc3d	0.39010802
161	0x3e4edf83	0.2020245
162	0x3e2aa572	0.16664675
163	0x3e2c1978	0.1680659
164	0xbc53604e	-0.012901379
165	0x3d0132f2	0.031542726
166	0xbe9e80da	-0.3095768
167	0x3e6c983a	0.23104945
168	0x3e384e81	0.17998697
169	0xbe352ac1	-0.1769209
170	0x3cffcef1	0.031226607
171	0xbd98dbd4	-0.07463804
172	0x3c6be4d1	0.014397816
173	0xbd22f718	-0.03978643
174	0xbe27ffe8	-0.16406214
175	0xbdf48f5a	-0.11941405
176	0xbecef45c	-0.40420806
177	0xbe341739	-0.17586984
178	0x3caf7209	0.02141668
179	0x3c5548aa	0.013017813
180	0xbd8eb9e2	-0.06969048
181	0xbe2084a9	-0.15675606
182	0x3dc418a9	0.09575016
183	0xbe772642	-0.24135688
184	0xbdf62f2f	-0.12020718
185	0xbdb3580a	-0.087570265
186	0x3c38ea26	0.011286294
187	0x3da30879	0.079606004
188	0xbd905419	-0.0704729
189	0xbda5d744	-0.08097699
190	0xbd49ac7e	-0.049236767
191	0x3e296ecf	0.16546176
192	0xbdf73c61	-0.12072063
193	0x3d5c7418	0.053821653
194	0xbe8bed7f	-0.27329633
195	0xbe51713d	-0.20453353
196	0x3ea22f8c	0.316769
197	0x3eb1d9a9	0.34736374
198	0xbe0a8ede	-0.13531062
199	0xbe911b2b	-0.2834104
200	0xbd4e7d58	-0.050412506
201	0x3cb6a750	0.022296578
202	0x3ddbde53	0.10735764
203	0x3e2c283c	0.16812223
204	0xbcd3537e	-0.025796648
205	0x3e1dd77e	0.15414235
206	0x3db8223b	0.08990904
207	0x3dbc8077	0.0920419
208	0x3d32e302	0.043673523
209	0x3e7cff76	0.24706826
210	0x3dd4f916	0.10399072
211	0xbdcd1d1b	-0.10015317
212	0xbcb249a8	-0.021763638
213	0xbec370d0	-0.38172007
214	0x3e154e86	0.14580736
215	0xbe39e485	-0.1815358
216	0x3d29ce4e	0.041456513
217	0xbdbfe59a	-0.09369965
218	0x3da86e9c	0.08224222
219	0xbd82c012	-0.06384291
220	0x3d9c8005	0.07641605
221	0x3d3b9a79	0.045801613
222	0xbd969aff	-0.07353782
223	0xbed2a5e8	-0.411422
224	0x3e09a3b7	0.13441359
225	0xbd7cb46d	-0.061695505
226	0xbe224f62	-0.15850595
227	0xbeb6ebaa	-0.35726672
228	0xbdd8584b	-0.105637155
229	0xbd5fc599	-0.054631803
230	0xbde4a89e	-0.11164974
231	0xbec12d18	-0.37729716
232	0xbdd8250b	-0.105539404
233	0xbe9072b7	-0.2821252
234	0x3dbe0415	0.09278122
235	0xbda0394b	-0.07823428
236	0x3df5b06a	0.11996539
237	0x3dd3ee10	0.10348141
238	0xbd3a3619	-0.045461748
239	0x3e6250f3	0.22101192
240	0x3dc7e039	0.09759564
241	0x3ed310e8	0.41223836
242	0xbe49395b	-0.19650786
243	0x3decaa3e	0.115559086
244	0xbe18fc09	-0.14939894
245	0x3e5fc56e	0.21852657
246	0x3e2d5d05	0.16930015
247	0xbebf9620	-0.37419224
248	0x3d222c3a	0.03959296
249	0x3e57acb6	0.21061978
250	0x3e233026	0.15936336
251	0xbd8c0e56	-0.06838672
252	0xbd1d2969	-0.03836957
253	0xbdc026f4	-0.0938243
254	0xbd2f48a5	-0.04279389
255	0xbbcb9f69	-0.0062140715

model.0.bias f4 [48]
0	0xbeff1f41	-0.49828532
1	0xbd7aaea9	-0.061201725
2	0x3e4ee288	0.20203602
3	0xbe862099	-0.26196745
4	0xbe969eb0	-0.29417944
5	0xbe85edf1	-0.26158097
6	0x3e7ccff5	0.24688704
7	0xbda324a0	-0.0796597
8	0xbe30360e	-0.1720812
9	0xbe1122ee	-0.14173481
10	0x3d129e62	0.035795577
11	0x3f2eb54a	0.68245375
12	0xbed9fede	-0.4257726
13	0xbe578c88	-0.21049702
14	0xbee757d9	-0.4518421
15	0xbed41005	-0.41418472
16	0x3e212169	0.15735401
17	0xbea723b8	-0.3264444
18	0xbdd12ef0	-0.10214031
19	0xbeaf3fdd	-0.3422841
20	0xbec03faa	-0.37548572
21	0x3dd2c3bf	0.10291242
22	0xbefe2cb6	-0.49643487
23	0xbe14823e	-0.14502808
24	0x3e84061d	0.25785914
25	0xbee704e2	-0.45120913
26	0x3e6ccc18	0.2312473
27	0xba436805	-0.000745416
28	0xbe131cbd	-0.14366432
29	0xbe05fc92	-0.13084629
30	0x3d9ea2eb	0.07745918
31	0xbcd99118	-0.026558444
32	0x3e9ae97c	0.3025626
33	0xbdc9c7f6	-0.09852593
34	0xbe97247a	-0.29520017
35	0xbf01d78b	-0.5071952
36	0x3ed22cdc	0.4104985
37	0xbe7ae70b	-0.24502198
38	0xbe33617a	-0.17517653
39	0x3e4b95f4	0.19881421
40	0xbdee087e	-0.116227135
41	0xbc92190f	-0.017834214
42	0xbc529b94	-0.0128544755
43	0xbe2c94d1	-0.16853644
44	0x3cd8a54d	0.026446009
45	0xbcbd4c23	-0.023107594
46	0xbcefaf9f	-0.029258547
47	0xbec27f2d	-0.37987652

model.2.weight f4 [48]
0	0x3f538ef4	0.82640004
1	0x3f6243c9	0.8838468
2	0x3f840cc8	1.03164
3	0x3f850e6b	1.0395025
4	0x3f3bbdec	0.7333667
5	0x3d894cc8	0.06704098
6	0x3f82fbbc	1.0233073
7	0x3f69a2cf	0.9126405
8	0x39a43ab3	0.00031324252
9	0x3f695631	0.9114714
10	0x3f82334c	1.0171905
11	0x3f3974e3	0.7244398
12	0x3f55d4c5	0.83527786
13	0x3f80db0b	1.0066847
14	0x3f5db44d	0.8660324
15	0x3f52cf04	0.8234713
16	0x3f311c50	0.69183826
17	0x3f87eddc	1.0619464
18	0x3f3c78fa	0.73622096
19	0x3f560aa0	0.8360996
20	0x3f6ce542	0.9253732
21	0x3f451035	0.76977855
22	0x3f53b2b5	0.8269456
23	0x3f42f977	0.76161903
24	0x3f865236	1.0493839
25	0x3f6f8a0a	0.93570006
26	0x3f5d72f2	0.8650352
27	0x3f314b89	0.6925588
28	0x3f804790	1.0021839
29	0x3f75fca0	0.960886
30	0x3f82a803	1.0207523
31	0x3f68fcd7	0.91010803
32	0x3f5ef23c	0.8708837
33	0x3f73d90a	0.9525305
34	0x3f5210f8	0.8205714
35	0x3f6dfe06	0.92965734
36	0x3f69efff	0.9138183
37	0x3f86f7dd	1.0544392
38	0x3f5e73ea	0.8689562
39	0x3f80fefd	1.0077816
40	0x3f4d1563	0.8011076
41	0x3f7be0d1	0.9838992
42	0x3f3eb71b	0.74498147
43	0x3f55d2ec	0.83524966
44	0x3f4aad4f	0.791707
45	0x3f5563e6	0.8335556
46	0x3f6803c7	0.90630764
47	0x3f619c92	0.8812953

model.2.bias f4 [48]
0	0xbec9a4f1	-0.39383653
1	0xbf3c7ddd	-0.7362955
2	0x3e773763	0.24142222
3	0xbda4fdcd	-0.08056221
4	0xbf0287dd	-0.5098856
5	0xbeb7a737	-0.35869762
6	0x3e27ab1e	0.1637387
7	0x3eb8afd0	0.36071634
8	0xbe914ac2	-0.28377348
9	0xbeed4dae	-0.46348327
10	0x3c14c6ca	0.009080598
11	0xbe58aab3	-0.21158867
12	0xbf0b752c	-0.54475665
13	0x3ebf7606	0.37394732
14	0xbf213917	-0.6297774
15	0xbe9b45d8	-0.30326724
16	0xbdca49ab	-0.09877332
17	0x3df10b3a	0.117697194
18	0x3e274154	0.16333514
19	0xbdae73e0	-0.08518195
20	0xbdbacf20	-0.09121537
21	0x3eabb574	0.33536875
22	0xbea636d5	-0.3246371
23	0x3c99094f	0.018681196
24	0x3df21ca4	0.11821869
25	0x3e20195f	0.15634678
26	0x3d70564d	0.058676053
27	0xbe4fa50d	-0.20277806
28	0x3e0f54bf	0.13997172
29	0x3df06d22	0.117395654
30	0x3e8fc26d	0.28078023
31	0x3e90821a	0.2822426
32	0x3de3ff88	0.11132723
33	0xbb7c0759	-0.0038456528
34	0xbef22863	-0.47296438
35	0xbe667b7a	-0.2250804
36	0x3e6eb8d9	0.23312701
37	0x3eb8a9f0	0.36067152
38	0x3e8ef6a4	0.27922547
39	0x3ecc0e3a	0.39854604
40	0xbe11506f	-0.14190839
41	0x3e2a3878	0.16623104
42	0x3e9d7534	0.3075348
43	0xbee07bb1	-0.4384437
44	0x3dab1881	0.08354283
45	0xbf149c43	-0.58050936
46	0x3eb7db2e	0.35909408
47	0x3cb0cecc	0.021582983

model.2.running_mean f4 [48]
0	0x00000004	6e-45
1	0x3e1a4742	0.15066245
2	0x3e60d7d6	0.21957335
3	0x3d8d1a08	0.06889731
4	0x3dd24622	0.10267283
5	0x00000004	6e-45
6	0x3e91c947	0.28473875
7	0x3e4395a8	0.19100058
8	0x00000004	6e-45
9	0x3d9c3dfd	0.07629011
10	0x3e59a385	0.21253784
11	0x3f35b7e2	0.7098371
12	0x3d703676	0.058645688
13	0x3daee411	0.08539594
14	0x3d4214da	0.047383167
15	0x3d195b2b	0.03744046
16	0x3ea5e975	0.32404676
17	0x3dc80ee3	0.097684644
18	0x3db7ff99	0.08984298
19	0x3bc8b0d6	0.006124596
20	0x3d544570	0.051824033
21	0x3e848eff	0.25890347
22	0x3ba6323c	0.0050719064
23	0x3e71a01a	0.2359623
24	0x3ea7c953	0.32770786
25	0x3c59a740	0.013284504
26	0x3e6e06e1	0.23244812
27	0x3e83e8b4	0.25763476
28	0x3de8c522	0.11365725
29	0x3e0e47da	0.13894597
30	0x3e6fa3e0	0.23402357
31	0x3e69f175	0.22846015
32	0x3ea0bbb4	0.31393206
33	0x3e22a409	0.15882887
34	0x3db7ca12	0.08974089
35	0x3a38c111	0.0007047812
36	0x3ec735a0	0.389081
37	0x3dbf9e7c	0.093564
38	0x3dbed6f0	0.0931834
39	0x3e75cda0	0.24004221
40	0x3e3372db	0.17524283
41	0x3e51264c	0.20424765
42	0x3e53032c	0.20606679
43	0x3e01f5b8	0.1269139
44	0x3e370560	0.17873144
45	0x3e669760	0.22518682
46	0x3e49d3f5	0.19709761
47	0x3d2a8de5	0.041639227

model.2.running_var f4 [48]
0	0x00000004	6e-45
1	0x3d1c7b5e	0.03820359
2	0x3d633924	0.055474415
3	0x3c96596a	0.018353183
4	0x3d2f02f3	0.042727422
5	0x00000004	6e-45
6	0x3d8b23ea	0.067939594
7	0x3da46475	0.08026973
8	0x00000004	6e-45
9	0x3c55746a	0.013028244
10	0x3daf31cd	0.085544206
11	0x3d8c5a51	0.06853164
12	0x3cd3b3be	0.025842544
13	0x3cd727f3	0.026264166
14	0x3c6bd346	0.014393633
15	0x3c03f212	0.0080533195
16	0x3dce3acd	0.10069809
17	0x3d00d50e	0.031453185
18	0x3ccce33e	0.025010701
19	0x3a2a42c9	0.0006494937
20	0x3c75e5b2	0.015008377
21	0x3dc91e8d	0.0982028
22	0x3a542ead	0.00080941134
23	0x3e051428	0.1299597
24	0x3dbc41c6	0.09192233
25	0x3af1db17	0.0018452135
26	0x3d7adff6	0.061248742
27	0x3de33cdf	0.110955946
28	0x3d1d1897	0.03835353
29	0x3d73f983	0.059564125
30	0x3dd48d46	0.10378508
31	0x3de07ac5	0.109609164
32	0x3db6034f	0.0888735
33	0x3d88e3ca	0.06684072
34	0x3cd17652	0.025569115
35	0x382775fe	3.992579e-05
36	0x3da13524	0.07871464
37	0x3d0f0b10	0.03492266
38	0x3d19c9f7	0.037546124
39	0x3d8aecee	0.06783472
40	0x3da9f684	0.08298972
41	0x3db28f30	0.08718717
42	0x3dcfbb28	0.10143119
43	0x3d513d48	0.051083833
44	0x3d302c5a	0.043011047
45	0x3dd1ec2c	0.10250124
46	0x3d8b5f5a	0.06805296
47	0x3c2d6580	0.0105832815

model.4.weight f4 [24, 48]
0	0xbcb8ebe7	-0.022573425
1	0xbdccbea3	-0.099972986
2	0x3d34e7d2	0.044166394
3	0xbe1b34fe	-0.15156934
4	0xbb90096b	-0.004395654
5	0xbd222885	-0.039589424
6	0xbe88c24a	-0.2671073
7	0xbe5010e3	-0.20318942
8	0xbc6a7f76	-0.014312616
9	0xbdb7e28d	-0.08978758
10	0xbdacb3cb	-0.0843273
11	0x3c0e3f43	0.008682075
12	0xbd09edfb	-0.03367422
13	0xbd2e0a04	-0.04249002
14	0xbdec3461	-0.11533428
15	0xbd06f213	-0.032945704
16	0x3be85320	0.0070899874
17	0xbd764252	-0.06012184
18	0x3c96ad74	0.018393256
19	0xbe112a11	-0.14176203
20	0xbe01d683	-0.12679486
21	0x3dfe2f56	0.12411372
22	0xbd46ff11	-0.048583094
23	0xbd7352d2	-0.059405155
24	0xbe092441	-0.13392736
25	0x3b275e3e	0.002553835
26	0x3bf47f6d	0.0074614794
27	0xbe3e01a1	-0.18555309
28	0xbe8ea8fa	-0.27863294
29	0xbce36527	-0.027758194
30	0x3d848e05	0.064724006
31	0xbdf41093	-0.11917224
32	0xbc071e84	-0.008247022
33	0xbd9e366b	-0.07725223
34	0xbca9dd67	-0.020735456
35	0xbe4a43ae	-0.1975238
36	0xbdbb1615	-0.09135071
37	0x3caf3af7	0.021390421
38	0x3e0fc6f8	0.14040744
39	0xbe87a635	-0.26493993
40	0x3d46a3a9	0.048495922
41	0xbd8f7aa2	-0.07005812
42	0x3d7bddc7	0.0614908
43	0x3c24eb2d	0.010065836
44	0xbdf23c04	-0.11827853
45	0xbd799137	-0.060929503
46	0x3d51366e	0.0510773
47	0xbe2c4131	-0.16821744
48	0x3d98dbac	0.07463774
49	0x3e319ab6	0.17344174
50	0xbe71baef	-0.23606466
51	0xbdb9cff2	-0.090728655
52	0x3ebe42ad	0.37160245
53	0x3ca3ca29	0.019993858
54	0x3c4af0f8	0.012386553
55	0xbcad40f4	-0.021149136
56	0x3e129e21	0.14318134
57	0xbc8beb0d	-0.017079854
58	0xbd8d8b6e	-0.0691136
59	0x3e1222ea	0.14271131
60	0x3dbcd80b	0.092208944
61	0x3d6b65bd	0.057470072
62	0x3e568cd0	0.20952153
63	0x3c1cea88	0.009577401
64	0xbd6597e5	-0.05605306
65	0x3d834f36	0.06411593
66	0x3d53f719	0.051749323
67	0xbdddb022	-0.1082461
68	0xbc89cb9f	-0.016820727
69	0xbebc1262	-0.36732775
70	0xbd9016ac	-0.07035574
71	0x3d9d8c52	0.076927796
72	0xbd9a3c70	-0.07531059
73	0x3d9a46bc	0.07533023
74	0xbdb6765d	-0.08909295
75	0x3d8bbc6d	0.06823049
76	0xbd32290e	-0.043496184
77	0xbe2abf1a	-0.16674462
78	0xbe704deb	-0.23467223
79	0xbd8ba2de	-0.06818174
80	0x3d60818c	0.054811046
81	0x3cb8d2ca	0.02256145
82	0x3bf492c2	0.007463784
83	0x3d88103b	0.06643721
84	0x3e4cf240	0.20014286
85	0x3c86be19	0.016448068
86	0xbe59a69e	-0.21254966
87	0x3b30e9f3	0.0026994913
88	0x3e38b938	0.18039405
89	0x3bb2e25d	0.0054591135
90	0xbdc447bd	-0.095839955
91	0x3d468cb6	0.048474036
92	0x3da38d3e	0.07985924
93	0x3d29bdc2	0.041440733
94	0x3e49cf60	0.19708014
95	0x3cb816e1	0.022471847
96	0xbcf92e5e	-0.030417617
97	0x3c420286	0.011841422
98	0xbd9ab1be	-0.07553433
99	0x3df6789a	0.12034722
100	0xbd2796b9	-0.040915225
101	0x3d497d17	0.04919156
102	0xbd49110c	-0.049088523
103	0xbe10eec1	-0.14153577
104	0xbe1764fd	-0.14784618
105	0x3d317387	0.043323066
106	0x3c35c572	0.011094438
107	0xbca4eb10	-0.020131618
108	0x3e1019f9	0.14072408
109	0xbe928a6e	-0.28621238
110	0xbd8e7570	-0.06955993
111	0x3ded5865	0.115891255
112	0x3dd581e2	0.10425164
113	0xbe869849	-0.2628806
114	0xbd87c8a3	-0.06630065
115	0xbd83fcac	-0.06444678
116	0x3dea917b	0.114535294
117	0x3da1c9ff	0.07899856
118	0xbc4935a4	-0.012280855
119	0xbcbe2a67	-0.023213578
120	0xbdbb7d23	-0.09154727
121	0xbca08586	-0.019594919
122	0xbd944d91	-0.07241357
123	0xbd60143f	-0.05470681
124	0xbddd0e9a	-0.10793801
125	0xbe305656	-0.17220435
126	0xbe016df9	-0.12639607
127	0xbe6ab376	-0.22920021
128	0x3cfbafce	0.030723479
129	0x3d493fd5	0.04913314
130	0x3e87354e	0.26407856
131	0x3dbda403	0.092597984
132	0xbe83bca7	-0.25729868
133	0xbe0bc90b	-0.1365091
134	0x3e020202	0.12696078
135	0xbe105b06	-0.14097223
136	0x3d00cefd	0.0314474
137	0xbeac2c53	-0.33627567
138	0xbddc258a	-0.107493475
139	0x3e385a10	0.18003106
140	0xbd1471bf	-0.03624129
141	0x3e0c798f	0.13718246
142	0xbcd38229	-0.025818901
143	0xbb2da4f8	-0.0026496034
144	0x3ccc47b1	0.024936529
145	0xbd929d9a	-0.07158966
146	0x3db34e5c	0.0875518
147	0xbd82ae35	-0.063808836
148	0x3c9a1c3d	0.018812293
149	0x3def2e0e	0.11678706
150	0x3ce4becf	0.027923016
151	0x3d048a98	0.032358736
152	0x3cd2a1c9	0.02571191
153	0x3bd97dba	0.006637302
154	0xbd8b5db7	-0.06804984
155	0x3df06b1c	0.117391795
156	0x3d0b5f72	0.03402657
157	0x3d4142aa	0.047182716
158	0xbdb8c7cb	-0.090224825
159	0x3e6be6c4	0.23037249
160	0x3d7a7c63	0.06115378
161	0xbdb5d795	-0.0887901
162	0xbe3767fd	-0.17910762
163	0x3e38cd95	0.18047173
164	0x3e28da04	0.16489416
165	0xbe42c34b	-0.19019811
166	0x3d1a5fa1	0.037688855
167	0x3d5a0549	0.053227697
168	0xbd0d1410	-0.03444296
169	0xbe9257d9	-0.28582647
170	0x3d988b02	0.07448389
171	0x3e82d8ba	0.25555974
172	0x3e439697	0.19100414
173	0x3c08fda9	0.008361259
174	0x3d97a823	0.074051164
175	0x3e0613aa	0.13093439
176	0xbca8ebd7	-0.02062027
177	0xbd7038c3	-0.058647882
178	0x3e09c8f9	0.13455571
179	0x3e027cbe	0.12742898
180	0xbd3c969d	-0.046042074
181	0x3ba9b3da	0.0051789107
182	0x3cc2e607	0.023791326
183	0x3d9da742	0.076979175
184	0xbc958fe0	-0.018257082
185	0x3dc4035d	0.09570954
186	0xbdb2c858	-0.08729619
187	0xbd51fb04	-0.051264778
188	0x3e04ae2b	0.12957065
189	0x3db01d06	0.08599286
190	0xbe066c71	-0.13127305
191	0x3e3fe71b	0.18740503
192	0x3d911340	0.0708375
193	0xbb8c0215	-0.004272709
194	0x3ca7f5f9	0.020503031
195	0xbbb33998	-0.005469512
196	0x3d903e13	0.0704309
197	0x3d41cb00	0.047312737
198	0xbd8785d0	-0.066173196
199	0xbf1ee3a2	-0.6206609
200	0xbd1fc275	-0.039003808
201	0x3db07da2	0.086177126
202	0x3cb6689d	0.02226668
203	0x3c44dd94	0.012015719
204	0x3da6b02c	0.08139071
205	0xbeb03364	-0.34414208
206	0x3e047872	0.12936571
207	0x3d6bba68	0.057550818
208	0x3dba57c6	0.09098773
209	0x3ca5b9fb	0.020230284
210	0x3ca71762	0.020396892
211	0xbdcfff6a	-0.10156138
212	0xbe86edc3	-0.26353273
213	0x3ce03940	0.027371049
214	0xbca233d9	-0.019800114
215	0xbe051cf9	-0.12999333
216	0xbce35dca	-0.027754683
217	0xbcc7884c	-0.024356984
218	0xbd0fe14f	-0.03512698
219	0xbd85e79d	-0.06538317
220	0x3d9841b2	0.074344054
221	0x3c93ef95	0.018058578
222	0xbe3522c1	-0.17689039
223	0xbe5af913	-0.21384077
224	0xbc21a312	-0.009865539
225	0x3d886ba5	0.066611566
226	0xbd301a38	-0.042993754
227	0x3d84e755	0.064894356
228	0x3bca9055	0.0061817565
229	0xbe8bac64	-0.2727996
230	0xbd84f7f2	-0.06492604
231	0xbebee998	-0.37287593
232	0x3dc7b402	0.09751131
233	0xbd6b5105	-0.057450313
234	0xbc0745d6	-0.008256396
235	0x3dfe65cd	0.12421761
236	0xbdc60814	-0.096695095
237	0xbc7b67b2	-0.015344547
238	0xbe36845c	-0.17823929
239	0xbd279282	-0.040911205
240	0xbd36d79d	-0.04463922
241	0xbdab4e4f	-0.083645456
242	0xbd302199	-0.04300079
243	0x3d1f5dec	0.03890793
244	0xbd71b53f	-0.05901074
245	0x3cbeb17a	0.023277987
246	0xbbe2c138	-0.006920006
247	0x3d595fb9	0.053069804
248	0xbd2fc081	-0.042908195
249	0xbe08613f	-0.13318346
250	0x3d6c8efd	0.05775355
251	0xbe501bf8	-0.20323169
252	0xbdc7bad9	-0.09752435
253	0x3e0861f4	0.13318616
254	0xbe0de1e3	-0.138557
255	0xbe3ef832	-0.18649366

model.4.bias f4 [24]
0	0x3ea2636e	0.31716484
1	0xbe1f8238	-0.15577018
2	0xbe05aac3	-0.13053422
3	0xbe5d41e7	-0.21607171
4	0x3df98dc8	0.12185246
5	0x3ecd25f4	0.40068018
6	0x3f25fd18	0.64839315
7	0xbd3e5092	-0.046463557
8	0x3e51c5ed	0.20485659
9	0xbe9a8295	-0.3017775
10	0xbee7fd39	-0.4531038
11	0x3de98784	0.11402801
12	0x3e281a85	0.16416366
13	0x3ea442d0	0.32082224
14	0x3de3fd1d	0.11132262
15	0x3f4bac02	0.7955934
16	0x3e7727a5	0.24136217
17	0xbe795488	-0.24348652
18	0x3d1c4ff4	0.038162187
19	0xbe9f7ba3	-0.31149015
20	0xbb41bea5	-0.0029563096
21	0x3ecbb06c	0.39783037
22	0x3c9d3ee5	0.01919503
23	0xbdb729f1	-0.089435466

model.6.weight f4 [24]
0	0x3f6d9261	0.9280148
1	0x3f4d7906	0.8026279
2	0x3f524dd1	0.8214999
3	0x3f4d928d	0.80301744
4	0x3f48c8a6	0.78431165
5	0x3f62e1cd	0.88625795
6	0x3f54ca9f	0.83121675
7	0x3f558929	0.83412415
8	0x3f595ca3	0.8490698
9	0x3f761b7a	0.96135676
10	0x3f543f46	0.8290905
11	0x3f61dc83	0.882271
12	0x3f645d51	0.8920489
13	0x3f4bfc37	0.79681724
14	0x3f4e07c5	0.80480605
15	0x3f6af619	0.91781765
16	0x3f643305	0.8914035
17	0x3f8927cb	1.0715269
18	0x3f3debfe	0.7418822
19	0x3f816f64	1.0112119
20	0x3f4c5cfb	0.79829377
21	0x3f412a3c	0.7545507
22	0x3f528266	0.8223022
23	0x3f700b95	0.9376767

model.6.bias f4 [24]
0	0xbdb1582a	-0.08659394
1	0xbe9567ac	-0.29180658
2	0x3db1d450	0.086830735
3	0xbd9e1f8d	-0.077208616
4	0xbda41030	-0.080109
5	0xbd38dc00	-0.045131683
6	0x3e68684d	0.22696038
7	0xbe35299f	-0.17691658
8	0x3dc348ea	0.09535392
9	0x3d509d21	0.0509311
10	0x3e5f8ace	0.21830294
11	0x3e54d1e5	0.20783193
12	0x3dd0559f	0.10172581
13	0x3eb17b74	0.346645
14	0xbe220fbe	-0.15826318
15	0x3cec6d7c	0.0288608
16	0xbc5e3c5a	-0.013564194
17	0x3e504c27	0.2034155
18	0xbc5bea78	-0.013422601
19	0x3e63db12	0.22251537
20	0x3e95cc2b	0.2925733
21	0xbe1d4614	-0.15358764
22	0x3d81b8ee	0.06334101
23	0xbe5718c6	-0.21005544

model.6.running_mean f4 [24]
0	0x3f460bcb	0.77361745
1	0x3df44796	0.119277164
2	0x3e38236c	0.17982262
3	0x3e9411cc	0.28919828
4	0x3e3a219d	0.18176885
5	0x3fb4089e	1.406513
6	0x3f9eb1bc	1.239799
7	0x3ea125d5	0.31474176
8	0x3f2a6141	0.6655465
9	0x3da103e3	0.078620695
10	0x3ee8d52d	0.4547514
11	0x3f8c949b	1.0982851
12	0x3f67dcf5	0.9057153
13	0x3f2898f7	0.65858406
14	0x3f261d27	0.6488823
15	0x3fac7a57	1.3474835
16	0x3f600f0b	0.87522954
17	0x3dd863d3	0.10565915
18	0x3e89d1fd	0.2691802
19	0x3da89c6b	0.08232959
20	0x3e8b40d4	0.27197897
21	0x3f0420f2	0.5161277
22	0x3e875652	0.26433045
23	0x3e5665c6	0.20937261

model.6.running_var f4 [24]
0	0x3f0c24df	0.5474376
1	0x3e0ae22a	0.13562837
2	0x3e5cc954	0.21561176
3	0x3ec76e14	0.3895117
4	0x3e1c80a2	0.15283445
5	0x3fa1fe34	1.2655702
6	0x3f40f6d2	0.7537662
7	0x3eb2e826	0.3494274
8	0x3f1ef212	0.6208812
9	0x3d9fe489	0.078072615
10	0x3f72ece8	0.9489274
11	0x3f8a22d4	1.0791879
12	0x3f8870c6	1.0659416
13	0x3f025c1d	0.50921804
14	0x3f4b004b	0.7929732
15	0x3f254cce	0.6457032
16	0x3f801894	1.0007501
17	0x3dfbb98b	0.12291249
18	0x3e88e946	0.26740474
19	0x3dc6b48f	0.097024076
20	0x3e53ed0b	0.20695893
21	0x3eb3af3f	0.3509464
22	0x3eab68e7	0.33478472
23	0x3e726866	0.23672637

model.8.weight f4 [12, 24]
0	0xbd8ad41c	-0.06778738
1	0xbdddb9bb	-0.10826441
2	0x3dc748e9	0.097307034
3	0x3c026135	0.007957746
4	0x3c61b307	0.013775594
5	0xbdedc69d	-0.11610148
6	0xbd975f99	-0.07391281
7	0x3e7e170b	0.24813478
8	0x3e0c3226	0.13691005
9	0x3d02ec79	0.0319638
10	0x3bad6b23	0.0052923127
11	0xbe81d772	-0.25359684
12	0xbda9df09	-0.08294494
13	0xbe45a839	-0.19302453
14	0x3c9ecfd3	0.019386208
15	0x3dfbbd19	0.12291927
16	0x3cfbc86f	0.030735223
17	0x3c7145a5	0.014726077
18	0x3d99fa26	0.07518415
19	0xbb54104d	-0.0032358349
20	0xbea46782	-0.3211022
21	0xbd946078	-0.072449625
22	0x3e8b16d8	0.27165866
23	0xbdccac06	-0.09993748
24	0x3e72624e	0.23670313
25	0xbdbc4834	-0.09193459
26	0x3e2cd6ed	0.16878863
27	0xbe36c58a	-0.17848793
28	0x3db881e1	0.090091474
29	0xbd3113fa	-0.04323194
30	0xbc369351	-0.011143521
31	0xbd6cde70	-0.05782932
32	0xbdc2e462	-0.09516217
33	0x3e154fab	0.14581172
34	0x3c867c7a	0.016416777
35	0x3d846374	0.06464282
36	0x3d4279a9	0.047479305
37	0x3dad801f	0.08471703
38	0xbddc4059	-0.10754461
39	0xbd9efc45	-0.0776296
40	0xbd4774ed	-0.048695493
41	0xbdf2081f	-0.11817955
42	0x3d06348d	0.03276496
43	0x3cd12e03	0.025534635
44	0x3df48dcc	0.11941108
45	0x3eaf5e38	0.3425157
46	0x3d8e7651	0.06956161
47	0xbe6d8188	-0.23193944
48	0xbe43aa52	-0.19107941
49	0xbe066f92	-0.13128498
50	0xbe33877c	-0.17532152
51	0xbd9c8a0f	-0.0764352
52	0xbe12a7a2	-0.1432176
53	0x3d39e5d8	0.04538521
54	0x3dd45733	0.103681944
55	0x3e130e3a	0.14360896
56	0x3e939654	0.2882563
57	0xbe2ea905	-0.17056663
58	0x3d38bd25	0.045102257
59	0xbd9382e5	-0.072027005
60	0xbd66a478	-0.056309193
61	0x3d75fc87	0.060055282
62	0xbe0b1825	-0.13583429
63	0x3e6e4abb	0.23270695
64	0x3e8be45a	0.27322656
65	0x3e75ce33	0.2400444
66	0x3dd36651	0.1032225
67	0x3da06cf8	0.07833284
68	0x3c7667b0	0.015039369
69	0xbc189d6a	-0.009314874
70	0xbd945a87	-0.07243829
71	0xbdd0a11a	-0.10186978
72	0x3ddf9398	0.10916823
73	0x3e15aa95	0.14615853
74	0x3deb1465	0.11478499
75	0x3d5a1e53	0.053251576
76	0xb8d410ad	-0.00010112054
77	0xbd960c38	-0.07326549
78	0xbe9feadd	-0.31233874
79	0xbda0ebda	-0.07857485
80	0xbdc084df	-0.09400343
81	0xbdda31cf	-0.106540315
82	0xbe0452ef	-0.12922262
83	0x3e0097cd	0.12557907
84	0x3cbc905e	0.023018058
85	0xbead7289	-0.33876446
86	0x3eb8e842	0.361147
87	0xbeb638fe	-0.35590357
88	0xbe156066	-0.14587554
89	0x3d8667c3	0.0656276
90	0x3e9fd8a9	0.31219986
91	0xbc040a53	-0.008059102
92	0xbe7e7739	-0.24850167
93	0xbdb0a039	-0.0862431
94	0xbdb0c3a6	-0.08631067
95	0xbc5f8613	-0.013642806
96	0xbe862631	-0.26201013
97	0x3cc2a480	0.02376008
98	0x3d58a993	0.052896094
99	0x3ecb7ebe	0.39745134
100	0x3cae7808	0.02129747
101	0xbb77151a	-0.0037701786
102	0xbdab3508	-0.08359724
103	0x3e0a8e68	0.13530886
104	0x3d9e6f29	0.07736046
105	0xbc30fb49	-0.010802099
106	0xbd35ac85	-0.04435398
107	0xbcf5bd85	-0.029997597
108	0xbe5bd604	-0.21468359
109	0xbe1cc611	-0.15309931
110	0x3d05c008	0.03265384
111	0xbe3087d0	-0.17239308
112	0xbe39e558	-0.18153894
113	0xbd085904	-0.033288017
114	0x3d53d296	0.051714502
115	0x3d8afe04	0.06786731
116	0xbd8bdc10	-0.06829083
117	0xbd1d6827	-0.038429406
118	0x3db91d6d	0.09038816
119	0x3ef2de27	0.47435114
120	0xbe49351f	-0.1964917
121	0x3e2afdab	0.16698329
122	0x3d9dc619	0.077038
123	0xbb8b84d5	-0.004257778
124	0x3d832b3e	0.06404732
125	0x3e6d5c50	0.23179746
126	0x3e013d0c	0.12620944
127	0x3d686919	0.056740854
128	0xbbbfa9bf	-0.0058490927
129	0x3e0cb738	0.13741767
130	0x3db5df01	0.08880425
131	0xbe2151de	-0.15753886
132	0x3e2895cb	0.16463391
133	0xbcb109d4	-0.021611132
134	0xbda2c003	-0.079467796
135	0x3d948b06	0.07253079
136	0x3e2b48c4	0.16726977
137	0x3e961ca8	0.29318738
138	0x3e4cdd07	0.2000619
139	0x3e46521f	0.19367264
140	0x3d9eb348	0.07749039
141	0xbd03012d	-0.031983543
142	0x3dc33586	0.09531693
143	0x3e1554ca	0.14583126
144	0x3e37014f	0.17871593
145	0x3d87f661	0.0663879
146	0x3dcce291	0.100041516
147	0xbe12e801	-0.14346315
148	0x3f08126a	0.531531
149	0xbda7379c	-0.081649035
150	0x3d9f5b61	0.07781101
151	0x3c829cb5	0.015943864
152	0xbe1d626f	-0.1536958
153	0x3e2b07f2	0.1670225
154	0xbd573648	-0.052542
155	0xbd14d924	-0.036339894
156	0x3d94ca30	0.07265127
157	0xbd081d83	-0.03323127
158	0xbd5183c6	-0.05115106
159	0xbd80fb61	-0.06297947
160	0xbe1589e9	-0.1460339
161	0x3dba31cd	0.0909153
162	0xbb4a7eba	-0.0030898289
163	0xbbd13121	-0.0063840305
164	0xbdf3bf35	-0.11901704
165	0x3e8a9221	0.27064613
166	0x3e355b76	0.17710671
167	0x3cc7d24c	0.02439227
168	0x3e4927ce	0.1964409
169	0x3c1bbb92	0.0095051695
170	0x3e83be03	0.25730905
171	0xbc7744f0	-0.01509212
172	0x3e138816	0.14407381
173	0xbcc62892	-0.024189267
174	0x3decd612	0.11564268
175	0x3d5811df	0.05275142
176	0xbe204db7	-0.15654646
177	0x3f0cd66b	0.55014676
178	0xbd6829c9	-0.056680474
179	0xbe5fffbf	-0.21874903
180	0xbd818fe8	-0.06326276
181	0x3da57fbf	0.08081006
182	0xbba1d39f	-0.0049385573
183	0xbe097faa	-0.13427606
184	0xbe25b119	-0.16180839
185	0x3e0a190f	0.13486122
186	0x3dbeec8d	0.09322462
187	0x3b8bae83	0.004262747
188	0xbd6b1dcf	-0.057401475
189	0x3d502ef9	0.050826047
190	0x3c6a4cc7	0.014300532
191	0x3cf2a608	0.029620185
192	0x3ddb6885	0.10713295
193	0xbe00bdd3	-0.12572412
194	0xbdd4e8df	-0.10395979
195	0xbd4e1a52	-0.05031807
196	0xbe1fd918	-0.15610158
197	0xbd837445	-0.06418661
198	0xbcd3f43f	-0.025873302
199	0xbdaca5c5	-0.084300555
200	0x3dcff41c	0.10153982
201	0xbe1bfd97	-0.15233456
202	0xbd17db96	-0.037074648
203	0x3e2c34d5	0.16817029
204	0xbd412ab4	-0.047159865
205	0x3decaca8	0.11556369
206	0xbd1461a6	-0.036225937
207	0x3c9996cb	0.018748662
208	0xbb4b5838	-0.0031027924
209	0xbe1cb84d	-0.1530468
210	0xbda5448f	-0.08069717
211	0xbde72214	-0.11285797
212	0x3cc26381	0.023729088
213	0x3e057bc2	0.13035491
214	0xbc2ca016	-0.010536214
215	0xbe27b45c	-0.16377395
216	0x3d7e53c7	0.062091615
217	0x3e813b3b	0.25240502
218	0x3a6d0c96	0.0009042708
219	0xbca97235	-0.020684341
220	0x3cfa54e5	0.030558059
221	0xbd58f94f	-0.052972134
222	0xbeb37982	-0.3505364
223	0xbdff41fa	-0.12463756
224	0xbe9bd397	-0.30434868
225	0xbd50d02b	-0.050979774
226	0xbe67a0c8	-0.22619927
227	0x3e0d3311	0.13789012
228	0xbd653bf3	-0.055965375
229	0xbd4fea6b	-0.050760668
230	0x3e0f4630	0.13991618
231	0xbe98d5c4	-0.2985059
232	0xbe6ceb48	-0.23136628
233	0x3e330bae	0.17484924
234	0xbe2e92c9	-0.17048182
235	0x3e3e15f7	0.18563066
236	0x3d809b8d	0.06279669
237	0xbd6337fe	-0.05547332
238	0x3b18a611	0.0023292343
239	0x3dbff9e5	0.093738355
240	0x3d860a6b	0.06544956
241	0xbb3e77d9	-0.0029063134
242	0xbccbadad	-0.024863089
243	0x3d9d77e5	0.07688884
244	0xbc00c0d0	-0.00785847
245	0xbdc0dbde	-0.09416936
246	0xbe02ee2c	-0.12786168
247	0xbc252e87	-0.010081894
248	0x3bcfbb5c	0.0063394736
249	0xbc6b5e7c	-0.014365789
250	0xbdce8838	-0.100845754
251	0x3d97773a	0.073957875
252	0xbde3a436	-0.11115305
253	0x3c3ec233	0.01164298
254	0x3db6c1a9	0.089236565
255	0xbddbac79	-0.10726256

model.8.bias f4 [12]
0	0x3f08d105	0.5344394
1	0x3f01452f	0.5049619
2	0xbd4e367a	-0.05034492
3	0x3e21fa21	0.15818073
4	0x3cfbc7f1	0.030734988
5	0xbecda5f8	-0.40165687
6	0x3eb06aca	0.34456474
7	0xbe46ab2d	-0.19401236
8	0x3f37d2c2	0.71805966
9	0x3ea0463f	0.31303594
10	0x3f010b61	0.5040799
11	0x3f0f73e8	0.56036234

model.10.weight f4 [12]
0	0x3f8aa02e	1.0830133
1	0x3f95fb1c	1.1717257
2	0x3f9976d1	1.1989385
3	0x3f6b4bc7	0.919125
4	0x3f8c87e0	1.0978966
5	0x3fa4f579	1.2887412
6	0x3f8108fb	1.0080866
7	0x3f81b94c	1.0134673
8	0x3f8e8351	1.1133825
9	0x3f79bff9	0.9755855
10	0x3fa3d1e5	1.279843
11	0x3f9a182f	1.203863

model.10.bias f4 [12]
0	0xbd746b16	-0.059672438
1	0xbe1fabd5	-0.15592892
2	0xbcf48cfe	-0.029852387
3	0xbdeee813	-0.116653584
4	0xbd9dbb81	-0.07701779
5	0xbdc6c86c	-0.09706196
6	0xbe3a1300	-0.1817131
7	0xbdbce645	-0.09223608
8	0x3e35101f	0.17681931
9	0xbe0c8257	-0.13721596
10	0xbde87a49	-0.11351449
11	0x3d0e0d34	0.03468056

model.10.running_mean f4 [12]
0	0x3f184bef	0.59490865
1	0x3f49a5bf	0.78768533
2	0x3f17a48c	0.59235454
3	0x3ee7d699	0.45280913
4	0x3ee3a012	0.4445806
5	0x3e900d76	0.2813527
6	0x3efdc6e4	0.49565804
7	0x3ea0d6d2	0.31413895
8	0x3f5a9788	0.8538747
9	0x3f1482ff	0.58012384
10	0x3f146a6a	0.57974875
11	0x3f638fcd	0.888913

model.10.running_var f4 [12]
0	0x3f048ec2	0.5178033
1	0x3f475298	0.77860403
2	0x3f696a44	0.91177773
3	0x3f06e455	0.5269216
4	0x3f7b4445	0.98151046
5	0x3f06acb0	0.5260725
6	0x3f4a5b80	0.7904587
7	0x3f4fbe80	0.81150055
8	0x3e3aa598	0.18227232
9	0x3f095ab3	0.5365402
10	0x3e78bf6c	0.24291772
11	0x3f964912	1.1741049

model.11.weight f4 [5, 12]
0	0x3eb09d1e	0.3449487
1	0xbe90c28b	-0.28273425
2	0xbe352532	-0.1768997
3	0x3e907b80	0.28219223
4	0x3e5e53d9	0.21711673
5	0x3e0d59b3	0.13803749
6	0xbe0d26b8	-0.13784301
7	0x3de1ac15	0.1101915
8	0x3d8e2e5d	0.06942437
9	0xbdf05afa	-0.117361024
10	0x3c6fe46e	0.014641864
11	0xbe1bdfd5	-0.15222104
12	0x3eb08c6d	0.34482136
13	0xbe90d4cf	-0.2828736
14	0xbe352d2a	-0.1769301
15	0x3e90a1fc	0.28248584
16	0x3e5e52f2	0.21711329
17	0x3e0d69ab	0.1380984
18	0xbe0ca69e	-0.13735434
19	0x3de11d3d	0.10991905
20	0x3d8e261a	0.06940861
21	0xbdf12490	-0.11774552
22	0x3c6f85ff	0.0146193495
23	0xbe1bf8ee	-0.15231678
24	0xbe043bf5	-0.12913497
25	0xbe0393e0	-0.12849379
26	0x3ea88b5a	0.32918817
27	0xbc8ef018	-0.01744847
28	0x3d12fa0d	0.035883
29	0xbd6c94f5	-0.057759244
30	0xba388312	-0.0007038574
31	0x3cdbb626	0.026820254
32	0x3d8bf8e1	0.06834579
33	0xbe29d365	-0.16584547
34	0xbdda8cba	-0.10671373
35	0x3ea1620f	0.31520125
36	0xbe0da1a0	-0.13831186
37	0xbd5e54a6	-0.054279946
38	0x3e82e2a0	0.25563526
39	0xbd0f8531	-0.03503913
40	0x3d35f1f4	0.044420198
41	0xbd2a128c	-0.041521594
42	0xbc6f1f0d	-0.014594805
43	0x3c684852	0.014177399
44	0x3da06aa2	0.078328386
45	0xbe1e3d79	-0.15453137
46	0xbde0d034	-0.109772116
47	0x3ebe52d6	0.37172574
48	0x3e519f74	0.20470983
49	0xbeaf6422	-0.34256083
50	0xbef657f7	-0.48113987
51	0x3e1a73f6	0.15083298
52	0x3ea1fc66	0.31637877
53	0x3f1a5468	0.60285044
54	0x3e7cc6d1	0.24685217
55	0x3e9c3d00	0.3051529
56	0x3ee17783	0.44036493
57	0x3e9bacba	0.30405217
58	0xbf2d8b88	-0.6779103
59	0xbe937f9c	-0.28808296

model.11.bias f4 [5]
0	0xbb1e5ab6	-0.0024162955
1	0xbb1c823b	-0.0023881334
2	0xbda158ee	-0.0787829
3	0xbd9b7d96	-0.07592313
4	0x3c65ca75	0.01402532

exp_avg f4 [48, 16]
0	0xb6f655c2	-7.341355e-06
1	0x3747a6c0	1.1900149e-05
2	0x3784fe33	1.5853997e-05
3	0xb670c938	-3.5879912e-06
4	0x37908fb6	1.7233058e-05
5	0x373744c9	1.0923665e-05
6	0xb685fe0b	-3.9932834e-06
7	0x37419b48	1.1539851e-05
8	0x369edaf8	4.7342583e-06
9	0xb69de0a0	-4.7051144e-06
10	0xb7b5a406	-2.165326e-05
11	0x3710c378	8.62858e-06
12	0xb7a12757	-1.9211015e-05
13	0x370300bc	7.808379e-06
14	0x377248ef	1.4441305e-05
15	0x35f5ccd9	1.8313541e-06
16	0x3d5082b1	0.050905887
17	0xbcafb0d8	-0.02144663
18	0xbd424294	-0.047426775
19	0xbbcf892d	-0.0063334913
20	0xbd5bb644	-0.05364062
21	0xbd3851bb	-0.04499982
22	0xbd687af9	-0.0567579
23	0x3bb0ae55	0.0053918757
24	0xbcab756a	-0.02093001
25	0xbd78b446	-0.060718797
26	0xbd4f7380	-0.05064726
27	0x3d153059	0.03642306
28	0xbd6893df	-0.056781646
29	0x3c726aba	0.014795953
30	0xbd687d67	-0.056760218
31	0xbdd98fa7	-0.10623103
32	0xbc365944	-0.011129681
33	0x3b01c9ba	0.0019804076
34	0xbab6c7a9	-0.0013945001
35	0xbc04768d	-0.008084905
36	0xbc0240eb	-0.007950048
37	0x39e6f38c	0.00044050475
38	0x3c3b61a2	0.011436852
39	0xbc189730	-0.00931339
40	0xbbe0451d	-0.0068441764
41	0x398b2211	0.00026537527
42	0xbc600a06	-0.013674265
43	0x3aea2b2a	0.0017865647
44	0x3c3bf0ce	0.0114709865
45	0x3c6fbf7d	0.014633057
46	0x3c3b745b	0.0114413155
47	0xba974dc7	-0.0011543565
48	0x3bb04557	0.0053793597
49	0xbb659b0f	-0.003503505
50	0x398b3b5a	0.00026556366
51	0x3b343c22	0.0027501662
52	0x3a31d012	0.0006783019
53	0x3b972f0b	0.0046137623
54	0xbb8e5620	-0.004343763
55	0x3ba0a92a	0.0049029784
56	0x3a18ddfc	0.0005831418
57	0xbb28fff6	-0.002578733
58	0x3b4aa529	0.0030921197
59	0x3c104c74	0.00880729
60	0xbb8e392d	-0.004340312
61	0xbbb73916	-0.005591522
62	0xbb8d2e40	-0.004308492
63	0x3a54c800	0.00081169605
64	0xb93f7e8f	-0.00018262326
65	0xbc00f507	-0.007870919
66	0xbc774325	-0.015091692
67	0x3ad9d46c	0.0016619093
68	0xbc895f2b	-0.016769012
69	0x3a54b4f8	0.00081141246
70	0x3b819df6	0.003955598
71	0x3bc4fd43	0.0060116365
72	0xbbcfc97c	-0.0063411575
73	0xbca4ceaf	-0.020118086
74	0xbc50728b	-0.012722622
75	0x3c33da56	0.010977348
76	0x3b8183cf	0.0039524804
77	0x3bcbea50	0.0062230006
78	0x3b81a818	0.003956806
79	0xbcb91f20	-0.02259785
80	0xb7559689	-1.27308385e-05
81	0xb6136c56	-2.1967767e-06
82	0xb6ff5419	-7.6093825e-06
83	0x360bae4c	2.0814068e-06
84	0xb6bee1b5	-5.688717e-06
85	0xb71df15f	-9.414128e-06
86	0xb71d5574	-9.377825e-06
87	0xb6962476	-4.474593e-06
88	0x36f37525	7.2556018e-06
89	0xb529751c	-6.312782e-07
90	0x36addb5b	5.181338e-06
91	0x35ba43f7	1.387786e-06
92	0x3514b102	5.5391877e-07
93	0x35d1fec6	1.5645862e-06
94	0xb5da54d9	-1.626696e-06
95	0x37754171	1.4618375e-05
96	0x3b1481dd	0.0022660412
97	0x3bd10f3c	0.00637999
98	0x3b2222a2	0.002473988
99	0xbb798b4f	-0.003807742
100	0xba091dfd	-0.0005230604
101	0x3ababb65	0.0014246522
102	0xbad4650c	-0.0016204431
103	0xbbec27bb	-0.0072068847
104	0xbb07d9f6	-0.002072928
105	0x3be79ca5	0.007068234
106	0xbb6bdff1	-0.0035991634
107	0x3b5889f5	0.0033041213
108	0xbad83a1a	-0.0016496808
109	0x3b532c5b	0.0032222483
110	0xbad86669	-0.0016510013
111	0x3bddc290	0.0067675784
112	0xb92bea3f	-0.00016395094
113	0x3b0fcaff	0.0021941063
114	0xba05848d	-0.0005093299
115	0xbb05dc9f	-0.002042569
116	0x3b1eb64c	0.0024217544
117	0xbaf820f3	-0.0018930718
118	0x3604f52a	1.9812237e-06
119	0xbb53ba50	-0.0032307096
120	0x3b30fb95	0.0027005423
121	0x3a9b6ab3	0.001185736
122	0x399b0a98	0.00029571797
123	0xba7e2ee4	-0.00096963183
124	0x3739953c	1.1061606e-05
125	0xba155918	-0.0005697175
126	0x3694afb5	4.4311987e-06
127	0xba7e4b6f	-0.00097005715
128	0x3614c7ed	2.217009e-06
129	0xb5bb385b	-1.3948987e-06
130	0xb612dfb6	-2.1885912e-06
131	0xb3fca7f3	-1.1765214e-07
132	0xb67b23ed	-3.7422826e-06
133	0x358f0fb0	1.0658896e-06
134	0x3598c6b3	1.1382712e-06
135	0xb641b20b	-2.8862876e-06
136	0x36f613a4	7.333658e-06
137	0x361ff664	2.3836265e-06
138	0xb4a14554	-3.003903e-07
139	0xb666198b	-3.4287539e-06
140	0xb6055727	-1.9869274e-06
141	0x348ca806	2.6199285e-07
142	0x360a9927	2.0652749e-06
143	0x3651564a	3.1193654e-06
144	0xba247b69	-0.0006274493
145	0x3bcf48e8	0.00632583
146	0xbc59ee60	-0.013301462
147	0xbc668e37	-0.014071993
148	0xbc2ade1a	-0.01042893
149	0x3ca9452f	0.020662872
150	0xba908bf6	-0.001102804
151	0xbc91c8d0	-0.01779595
152	0xbacb685c	-0.0015518772
153	0xbbf57661	-0.0074909185
154	0xbcabcab9	-0.02097069
155	0x3c93d599	0.018046187
156	0xba8e1550	-0.0010840092
157	0x3cd1938c	0.025583051
158	0xba90117d	-0.001099154
159	0x3c84de23	0.016219204
160	0x3992475a	0.0002790045
161	0xb964c108	-0.00021815684
162	0xb88dbbc7	-6.75838e-05
163	0xba961ac7	-0.0011452072
164	0x3ad0d8e7	0.0015933783
165	0x3843770d	4.6602498e-05
166	0x37ad4f83	2.0660233e-05
167	0xba7ac666	-0.0009566307
168	0x3ada1771	0.0016639066
169	0xb9a6e0f2	-0.00031829585
170	0x39db63ae	0.00041845202
171	0x3b1592c8	0.0022823084
172	0x385e8ac2	5.3058153e-05
173	0x3b8dba1e	0.0043251654
174	0x3813b045	3.5211695e-05
175	0xbb03fcdd	-0.0020139732
176	0xbaaeab37	-0.0013326172
177	0xbb771c20	-0.0037705973
178	0xbb64e76f	-0.0034927984
179	0x3aba6ddd	0.0014223416
180	0xbbbb4f48	-0.005716238
181	0x3b1fad02	0.0024364595
182	0x3ac9f579	0.001540824
183	0x3b61a4ec	0.0034430576
184	0xbb561ac3	-0.003266976
185	0xbbc892c8	-0.0061210133
186	0xbb6d341a	-0.0036194385
187	0x3aa15e60	0.0012311451
188	0x3ac7c7b8	0.0015242016
189	0x3b4d429a	0.0031320215
190	0x3ac80ef7	0.0015263249
191	0xbb991957	-0.00467221
192	0x3c52f5ed	0.012876016
193	0xbc02c3cb	-0.007981251
194	0xbc36b4fe	-0.01115155
195	0x393a3460	0.00017757853
196	0x3a1d222b	0.0005994166
197	0xbb5de21f	-0.0033856703
198	0xbc9d5675	-0.019206265
199	0x3b9369df	0.004498705
200	0x3c0077ca	0.00784106
201	0xbc86befe	-0.016448494
202	0x3a268ef3	0.00063536986
203	0x3c8728fb	0.016499033
204	0xbc9d3f7d	-0.019195313
205	0xbbc69414	-0.0060601328
206	0xbc9d2739	-0.019183742
207	0xbcbd2345	-0.023088107
208	0xba7b98f7	-0.00095976837
209	0x3b19f3cc	0.0023491262
210	0x3b053362	0.0020324816
211	0xbaa1da3e	-0.0012348366
212	0x3ae0c681	0.0017149003
213	0x3aaa167c	0.0012976672
214	0xb7e418be	-2.719124e-05
215	0xbb26b132	-0.0025435206
216	0x39a941fb	0.0003228335
217	0x3b7042db	0.0036660943
218	0x39cc0594	0.00038914068
219	0x3a92eed2	0.001121009
220	0xb80f2727	-3.413032e-05
221	0x3aa2a28d	0.0012408063
222	0xb84e0c7f	-4.9125865e-05
223	0x3b19ddd6	0.0023478172
224	0x3c7abd94	0.015303988
225	0xbcc1f1cd	-0.02367487
226	0xbb726ff6	-0.0036993003
227	0xba44ffe3	-0.0007514937
228	0xbbdc6ea7	-0.006727058
229	0xba7a5c8b	-0.0009550533
230	0xbcb0788e	-0.02154186
231	0x3c482146	0.012214964
232	0xbb8534cf	-0.004065133
233	0xbcafafe9	-0.021446185
234	0xbbcb4185	-0.006202879
235	0xbc3fc4c3	-0.0117046265
236	0xbcb047fc	-0.0215187
237	0xbc4c3522	-0.01246384
238	0xbcb06aac	-0.02153524
239	0xbc96748a	-0.018366117
240	0x3a9f60a6	0.0012159541
241	0x3c1099b3	0.008825707
242	0xbbce35db	-0.006293041
243	0xbbcd1f48	-0.0062598325
244	0xbcb09e44	-0.021559842
245	0x3b1769c8	0.0023103822
246	0x3b42c604	0.0029720077
247	0xbc343310	-0.010998502
248	0xbc8907d6	-0.01672737
249	0x3a387adc	0.00070373504
250	0xbcbfb798	-0.023402974
251	0x3c836426	0.016038965
252	0x3b41699d	0.0029512413
253	0x3cf39629	0.029734688
254	0x3b416232	0.0029507992
255	0x3b707c3a	0.0036695139

exp_avg_sq f4 [48, 16]
0	0x366706f6	3.4425734e-06
1	0x36832d16	3.909353e-06
2	0x360e3ad5	2.1193894e-06
3	0x3633f80a	2.6817456e-06
4	0x36431a1a	2.9072457e-06
5	0x364d6cf1	3.0610793e-06
6	0x37092049	8.173353e-06
7	0x36c88df0	5.976988e-06
8	0x36a358a8	4.8680995e-06
9	0x36959d91	4.458889e-06
10	0x36b140a8	5.282538e-06
11	0x36b0efa0	5.2731048e-06
12	0x3709203d	8.173342e-06
13	0x37396947	1.1051371e-05
14	0x37092060	8.173374e-06
15	0x37830576	1.561896e-05
16	0x3c5500ff	0.013000726
17	0x3c009130	0.007847115
18	0x3bfdcbcb	0.0077452413
19	0x3aea21d1	0.0017862861
20	0x3c373b12	0.011183517
21	0x3ca2c0e1	0.019867362
22	0x3ca61836	0.020275217
23	0x3b54f71a	0.0032495917
24	0x3c20f54f	0.009824111
25	0x3c5c7721	0.013456137
26	0x3c19a45e	0.009377567
27	0x3c59ab58	0.01328548
28	0x3ca6187a	0.020275343
29	0x3c726857	0.014795384
30	0x3ca6184c	0.020275258
31	0x3d6007f0	0.05469507
32	0x3c10350e	0.008801712
33	0x3bd1115b	0.0063802428
34	0x3b8163f4	0.003948683
35	0x3c02b897	0.00797858
36	0x3bbffe3e	0.0058591655
37	0x3bdd54b2	0.0067544812
38	0x3c8b5997	0.017010493
39	0x3c6ac8d5	0.014330109
40	0x3bde2637	0.006779458
41	0x3c33c886	0.0109731015
42	0x3c698c27	0.014254606
43	0x3b7e0d00	0.0038765073
44	0x3c8b59f1	0.01701066
45	0x3cdd6fce	0.027030852
46	0x3c8b59a3	0.017010516
47	0x3d086886	0.033302806
48	0x39a6d3b3	0.00031819716
49	0x3a538252	0.00080684305
50	0x3a44e9ac	0.00075116265
51	0x3a524ab1	0.0008021994
52	0x3a829685	0.0009963071
53	0x3a8c36ab	0.0010697445
54	0x39278ae4	0.00015978102
55	0x3a5f5551	0.0008519488
56	0x3aae2943	0.0013287443
57	0x3a836973	0.0010025933
58	0x3a8a20aa	0.0010538299
59	0x3a708972	0.00091757544
60	0x39278a95	0.00015977987
61	0x3a3f1591	0.00072892854
62	0x3927879d	0.00015976881
63	0x3a8d0b95	0.0010760898
64	0x3ac83845	0.0015275559
65	0x3b97cd7a	0.004632649
66	0x3b85a1ef	0.004078142
67	0x3a8f3efa	0.0010928803
68	0x3b984f8b	0.004648154
69	0x3b40d0a0	0.0029421225
70	0x3b51f400	0.0032036304
71	0x3b5a03f6	0.003326652
72	0x3bf45241	0.0074560945
73	0x3c20f951	0.009825067
74	0x3bbdab49	0.005788241
75	0x3b8b908d	0.004259175
76	0x3b51f430	0.0032036416
77	0x3c3d6b8f	0.0115612885
78	0x3b51f3ea	0.0032036253
79	0x3cbdc940	0.023167253
80	0x30fd81cd	1.8445064e-09
81	0x311ac690	2.252282e-09
82	0x310c7d59	2.0443933e-09
83	0x31112b2e	2.1124822e-09
84	0x3145cae7	2.878261e-09
85	0x30e9257c	1.6963635e-09
86	0x31757dba	3.572366e-09
87	0x31880259	3.958388e-09
88	0x31924024	4.256451e-09
89	0x31895841	3.997258e-09
90	0x31ac1cfe	5.009155e-09
91	0x3153b1a3	3.0805516e-09
92	0x316e72f8	3.469891e-09
93	0x3215a9ea	8.7115755e-09
94	0x316ea522	3.4727425e-09
95	0x32332280	1.0427016e-08
96	0x398dda83	0.0002705642
97	0x39ac44eb	0.00032857744
98	0x39843b3b	0.00025221132
99	0x39af1a74	0.0003339831
100	0x3993b385	0.00028171777
101	0x399e8467	0.00030234756
102	0x39e667e0	0.00043946411
103	0x39e1a173	0.00043035633
104	0x39dd683a	0.0004223006
105	0x39cd5f31	0.0003917157
106	0x39ebc23c	0.0004496741
107	0x39d1222c	0.00039889046
108	0x39e6652d	0.000439444
109	0x39be6858	0.00036317366
110	0x39e66505	0.00043944284
111	0x39fae88d	0.0004785698
112	0x385a511b	5.2050786e-05
113	0x38e83ce8	0.00011073967
114	0x38f1047b	0.0001149261
115	0x3948a4fc	0.00019134948
116	0x38f8d68e	0.000118655254
117	0x390b96b1	0.0001331221
118	0x37dfedf7	2.6694483e-05
119	0x398ad7f7	0.00026482317
120	0x393c78a1	0.00017974015
121	0x3940cc16	0.00018386575
122	0x398e4ed6	0.00027143088
123	0x3926d39b	0.00015909823
124	0x37dfeed5	2.6694886e-05
125	0x39991445	0.00029197536
126	0x37dfee2e	2.6694583e-05
127	0x39a869f2	0.00032122392
128	0x2fc5c7f8	3.5976178e-10
129	0x2f5d5430	2.0129742e-10
130	0x2f60d424	2.0448049e-10
131	0x2f489d21	1.8245717e-10
132	0x2f9d5fa7	2.86261e-10
133	0x2fceb0e0	3.759686e-10
134	0x3021cdf8	5.886416e-10
135	0x2fe83f8d	4.224571e-10
136	0x301e47a4	5.758187e-10
137	0x2f853399	2.4229221e-10
138	0x2f872da9	2.45888e-10
139	0x3011084e	5.2762494e-10
140	0x3022e91b	5.926652e-10
141	0x303179a9	6.4565114e-10
142	0x3023092f	5.9312105e-10
143	0x306ee425	8.690811e-10
144	0x3cdaa7a6	0.02669127
145	0x3ca6a1c1	0.020340802
146	0x3cd28580	0.025698423
147	0x3ce4f774	0.027950026
148	0x3cbf078d	0.02331903
149	0x3d81b1fa	0.063327745
150	0x3d44de1e	0.04806339
151	0x3d38916a	0.045060553
152	0x3c9cbf3d	0.019134158
153	0x3d29f467	0.041492846
154	0x3cfdd01a	0.03098302
155	0x3d1245e4	0.035711184
156	0x3d44de35	0.048063476
157	0x3d48db58	0.049037308
158	0x3d44de24	0.048063412
159	0x3e2ffded	0.17186709
160	0x383ff560	4.5766472e-05
161	0x390e06af	0.00013544665
162	0x391f361e	0.00015183582
163	0x390d0767	0.00013449565
164	0x3901ec3f	0.00012390407
165	0x39239cd6	0.00015603317
166	0x37c1b209	2.3090297e-05
167	0x391d9837	0.00015029391
168	0x393029fe	0.00016800311
169	0x3936c597	0.0001743048
170	0x39205642	0.00015290923
171	0x391f9781	0.00015219861
172	0x37c1b7cd	2.3092982e-05
173	0x390f09d2	0.00013641201
174	0x37c1b402	2.3091216e-05
175	0x39570954	0.00020507473
176	0x38b23c31	8.498913e-05
177	0x39ec61e7	0.0004508637
178	0x39a1bb39	0.00030847805
179	0x3990ba1e	0.00027604488
180	0x39e558f6	0.00043744565
181	0x39d0c8b0	0.00039822375
182	0x394d8f03	0.000196036
183	0x3a01b52e	0.00049479573
184	0x39e20a1a	0.00043113605
185	0x3a1f2d42	0.00060721126
186	0x3a05cc46	0.00051039865
187	0x3a077f1b	0.00051687815
188	0x394d8ec6	0.00019603511
189	0x3a551041	0.0008127727
190	0x394d8ecc	0.0001960352
191	0x3ac55687	0.0015055694
192	0x3c0fc985	0.008776073
193	0x3b3d08c1	0.002884433
194	0x3bcd6fe9	0.0062694442
195	0x3b5fbd79	0.0034140034
196	0x3c056a17	0.00814297
197	0x3b50720b	0.0031806256
198	0x3c8e7bb4	0.01739297
199	0x3b8a0b70	0.0042127892
200	0x3c35c26c	0.011093717
201	0x3c198a86	0.0093714055
202	0x3c4a1611	0.012334363
203	0x3c1fbc50	0.009749487
204	0x3c8e7bb3	0.017392969
205	0x3c629477	0.013829342
206	0x3c8e7bb9	0.01739298
207	0x3ca5eb11	0.02025369
208	0x3baca933	0.0052691936
209	0x3b8add47	0.004237804
210	0x3a96ab4d	0.0011495143
211	0x3bacc89f	0.0052729393
212	0x3b178860	0.0023122057
213	0x3a9116f1	0.0011069459
214	0x3c30dda0	0.010795027
215	0x3c3604b3	0.011109519
216	0x3aafc79c	0.0013410929
217	0x3aed9990	0.001812743
218	0x3c058b48	0.008150883
219	0x3c0047cc	0.007829618
220	0x3c30dd9b	0.010795022
221	0x3c1f1d56	0.009711584
222	0x3c30dda0	0.010795027
223	0x3b3baeba	0.002863808
224	0x3d149793	0.036277365
225	0x3ca838fc	0.020534985
226	0x3c7b616c	0.015343051
227	0x3bf248ed	0.0073939473
228	0x3c9def71	0.019279214
229	0x3c912980	0.017719984
230	0x3d756cad	0.059918094
231	0x3c8cf574	0.017206885
232	0x3cccb25f	0.024987398
233	0x3d0574b7	0.03258201
234	0x3c86e618	0.01646714
235	0x3cd5ae2f	0.026084034
236	0x3d756c6f	0.059917863
237	0x3ce43936	0.027859312
238	0x3d756c9b	0.059918027
239	0x3d9c306d	0.07626424
240	0x3c0966ee	0.008386357
241	0x3ab2db1c	0.0013645622
242	0x3bb65697	0.0055645215
243	0x3bf95a12	0.007609614
244	0x3bd2082e	0.0064096665
245	0x3b35a48e	0.002771649
246	0x3c62ea35	0.013849785
247	0x3c0958ba	0.0083829705
248	0x3c19660f	0.009362712
249	0x3bc53309	0.0060180468
250	0x3c4fa170	0.012672767
251	0x3c2563d7	0.010094604
252	0x3c62ea78	0.013849847
253	0x3c98533a	0.018594373
254	0x3c62ea77	0.013849846
255	0x3c69ad8e	0.01426257

exp_avg f4 [48]
0	0xb8510054	-4.982979e-05
1	0x3b9212f7	0.004457827
2	0xbbe6a1aa	-0.007038315
3	0x3c876794	0.016528882
4	0x3b307a11	0.0026928226
5	0xb7dba1c8	-2.618217e-05
6	0x3c081fd6	0.0083083715
7	0x3aa68592	0.0012704602
8	0xb790a6e6	-1.7243856e-05
9	0xbc9a254f	-0.018816618
10	0x3b9d2c20	0.00479652
11	0xb990bbfd	-0.00027605882
12	0xbb07740b	-0.0020668532
13	0xbb255b10	-0.002523128
14	0x3bc9b195	0.0061552026
15	0x3c2587b5	0.010103156
16	0xba6c0ccf	-0.0009004594
17	0x3a25733f	0.00063114235
18	0xbb8bbced	-0.004264465
19	0x3a073c63	0.00051588396
20	0xbbc11003	-0.0058918013
21	0xbaf83dfc	-0.0018939371
22	0xbb3a89cb	-0.0028463479
23	0xbb01462e	-0.0019725668
24	0x3c4eb7e7	0.012617088
25	0xbc4774b0	-0.012173817
26	0x3bbbfc2a	0.0057368474
27	0xbab9ef1e	-0.0014185642
28	0x3b16be8b	0.0023001756
29	0xbc2f0157	-0.010681472
30	0x3bb3099f	0.0054637934
31	0xbbdae288	-0.0066798367
32	0x3b9f927b	0.0048697568
33	0x3971fe08	0.00023078185
34	0xbc3f0ab9	-0.011660271
35	0xbe83433e	-0.2563724
36	0x3bf922c8	0.007603023
37	0xbcae4041	-0.021270873
38	0xbc5f6fde	-0.013637511
39	0x3b1660ce	0.0022945884
40	0xbb96302c	-0.0045833793
41	0xbba8a29b	-0.005146337
42	0xbb3a168d	-0.002839479
43	0xbb70d54a	-0.0036748224
44	0xbbb17127	-0.0054151
45	0xba687095	-0.00088668737
46	0x3b291025	0.0025796976
47	0xbafede71	-0.0019444955

exp_avg_sq f4 [48]
0	0x36ca1f23	6.023694e-06
1	0x3b1460be	0.002264067
2	0x3b66cf74	0.0035218867
3	0x3a905988	0.001101301
4	0x3b0a2fd1	0.002108563
5	0x319dc0d2	4.5912225e-09
6	0x3ad0735b	0.0015903519
7	0x39561a73	0.00020418483
8	0x30793fd9	9.0676405e-10
9	0x3c83eb71	0.016103478
10	0x3983e23b	0.00025154822
11	0x354abb76	7.5523656e-07
12	0x3b712605	0.0036796343
13	0x3b70aa4e	0.0036722603
14	0x3c6d67d2	0.014490085
15	0x3b74a021	0.003732689
16	0x38338839	4.2803793e-05
17	0x3994a499	0.00028351395
18	0x39c216a1	0.00037019423
19	0x3b741dfc	0.0037249317
20	0x3adf4ead	0.0017036997
21	0x39d022ba	0.00039698725
22	0x3aac5531	0.0013147948
23	0x38ff13c2	0.00012163028
24	0x3b05fd9a	0.0020445348
25	0x3b395c62	0.0028283824
26	0x3a44572a	0.0007489795
27	0x3890452c	6.879339e-05
28	0x3a1807d9	0.0005799509
29	0x3ad1e5b5	0.0016013893
30	0x3b57d54f	0.0032933538
31	0x3b14a19a	0.002267933
32	0x398fb22b	0.0002740783
33	0x3974b267	0.00023336113
34	0x3b3f3bb4	0.0029179873
35	0x3f763e2b	0.9618861
36	0x3b0216c1	0.0019849988
37	0x3c1e3c34	0.009657908
38	0x3ad5fa66	0.0016325235
39	0x3a9e7d1e	0.0012091731
40	0x3a0af243	0.0005300382
41	0x3b22d717	0.0024847442
42	0x3a193f7d	0.00058459473
43	0x3ab954f8	0.0014139703
44	0x39ed2b85	0.00045236587
45	0x39655d2f	0.00021873855
46	0x3a85651f	0.0010177231
47	0x3c00e189	0.007866272
