backend/data/models_fixed_span_12ft/neural_v1.pt (torch, 62574 bytes, 48 tensors)

model.0.weight f4 [48, 21]
0	0x3d430d93	0.047620367
1	0xbd10b74f	-0.035331067
2	0xbe0d947e	-0.13826177
3	0xbe284b39	-0.16434945
4	0xbe8385d5	-0.25688043
5	0xbe8e5865	-0.27801815
6	0x3d112b9c	0.03544198
7	0x3d4df4a1	0.050282124
8	0xbe578385	-0.21046264
9	0xbd2a7f11	-0.041625086
10	0xbe452a0b	-0.1925432
11	0x3dc3e0a5	0.09564332
12	0x3e1c034a	0.1523563
13	0xbdbd4835	-0.09242288
14	0x3e46ba32	0.19406965
15	0x3e61ba73	0.22043781
16	0x003a7b89	5.370775e-39
17	0x00039196	3.27733e-40
18	0xbe8ea990	-0.2786374
19	0xbd84e508	-0.06488997
20	0x3caa733c	0.020806901
21	0x3e428c68	0.18998873
22	0xbe625cf8	-0.22105777
23	0xbc2faad8	-0.010721885
24	0x3e61872e	0.22024223
25	0xbe112536	-0.14174351
26	0xbdee6874	-0.116410166
27	0xbe643635	-0.22286303
28	0x3e2a119c	0.1660828
29	0x3d02952f	0.031880554
30	0xbac79d1b	-0.0015229316
31	0x3e67b874	0.22628957
32	0xbcbe883f	-0.023258327
33	0xbe4c150c	-0.19929904
34	0x3c424eb2	0.011859583
35	0xbe795d4c	-0.24351996
36	0xbd08cd6d	-0.033399034
37	0x003afb47	5.4166e-39
38	0x003b665e	5.455017e-39
39	0x3b8454c5	0.0040384256
40	0x3cfd59c0	0.030926585
41	0xbe7443b4	-0.23853952
42	0x3e90ecb5	0.28305593
43	0x3eb4462a	0.3520978
44	0x3d4e157d	0.05031346
45	0xbe1933ff	-0.14961241
46	0xbdf5f20f	-0.1200906
47	0x3e10e732	0.14150694
48	0xbd84d810	-0.06486523
49	0xbe7558c3	-0.23959641
50	0x3da983c0	0.082770824
51	0xbdb3f047	-0.08786064
52	0xbccbf29b	-0.024895957
53	0x3cf2d042	0.02964032
54	0x3d3a8b86	0.045543216
55	0x3d97cecf	0.074124925
56	0xbdd03306	-0.10165982
57	0x3d553211	0.0520497
58	0x803388ac	-4.732639e-39
59	0x0032c29b	4.661586e-39
60	0x3ddea10a	0.108705595
61	0x3e2cf910	0.16891885
62	0x3d984eeb	0.074369274
63	0x3ea23366	0.3167984
64	0x3d8df5bc	0.06931636
65	0xbe0d4230	-0.1379478
66	0xbc348b0c	-0.0110194795
67	0x3e090421	0.13380481
68	0xbd8d2eb2	-0.06893672
69	0xbdbd117b	-0.0923185
70	0x3dff763f	0.124737255
71	0x3e70aa92	0.23502567
72	0xbba064de	-0.004894837
73	0x3c3029ed	0.010752183
74	0xbd35479c	-0.044257745
75	0x3c874170	0.016510695
76	0xbe6b6aa2	-0.22989896
77	0x3c0d081c	0.00860789
78	0xbe06f204	-0.13178259
79	0x0011112e	1.567366e-39
80	0x0182c4c2	4.803679e-38
81	0xbd81876f	-0.0632466
82	0xbe1d90d5	-0.1538728
83	0x3e094812	0.13406399
84	0x3df0650f	0.117380254
85	0x3e83a3b2	0.25710827
86	0xbda3a15d	-0.07989762
87	0xbcd9bc22	-0.026578967
88	0x3e1c6e17	0.15276371
89	0xbe9a43dc	-0.30129898
90	0xbe3a656f	-0.18202756
91	0xbd3f61d0	-0.04672414
92	0x3e4adbe7	0.19810449
93	0xbe047a1f	-0.1293721
94	0x3d83b03a	0.06430097
95	0xbc020eac	-0.007938068
96	0xbe1e3f11	-0.15453745
97	0xbdf16d0c	-0.11788377
98	0x3e183d1e	0.14867064
99	0xbe9f7a0d	-0.31147805
100	0x80447fc7	-6.290652e-39
101	0x0001be5b	1.60122e-40
102	0xbd993a4b	-0.074818216
103	0xbdc4c783	-0.09608366
104	0xbd87aba3	-0.06624534
105	0x3d90ddad	0.07073531
106	0xbbf13742	-0.0073613236
107	0xbe26e774	-0.1629923
108	0x3e269a4b	0.16269796
109	0xbd69c989	-0.057076965
110	0x3d820655	0.06348864
111	0xbd938a14	-0.07204071
112	0xbdf7c3e4	-0.1209791
113	0x3da0804d	0.078369714
114	0xbe1afa74	-0.15134603
115	0x3e0c27a4	0.13686997
116	0xbc3eae0e	-0.011638178
117	0xbe828283	-0.25490198
118	0xbb9476ba	-0.004530755
119	0xbd91a55b	-0.07111617
120	0x3e99d82a	0.30047733
121	0x80058151	-5.05567e-40
122	0x0039ac4a	5.296429e-39
123	0xbe201d76	-0.15636238
124	0xbe134fb7	-0.14385878
125	0xbe8349af	-0.25642154
126	0x3d593550	0.05302936
127	0xbd15cfdf	-0.036575194
128	0xbdfd5d5c	-0.123713225
129	0x3e41dc4e	0.18931696
130	0x3eb938a5	0.3617603
131	0x3c784146	0.015152281
132	0x3e1371f9	0.14398946
133	0xbe327dc0	-0.17430782
134	0x3f04ea99	0.5192047
135	0x3d3f5bdc	0.046718463
136	0xbd4c65e2	-0.04990185
137	0x3e14882c	0.1450507
138	0x3c4400ad	0.011963052
139	0xbd3e2b63	-0.046428096
140	0xbbc85b35	-0.0061143884
141	0xbde507a7	-0.111831
142	0x0019d013	2.37053e-39
143	0x800925c4	-8.40067e-40
144	0x3c1e9098	0.0096780285
145	0xbd1ae039	-0.03781149
146	0x3db268e1	0.0871141
147	0x3e72a95b	0.23697416
148	0xbcde20b2	-0.0271152
149	0x3e272df7	0.16326128
150	0xbd8e6728	-0.06953269
151	0x3dabbfa8	0.08386165
152	0x3dc883a2	0.09790732
153	0x3debbadc	0.1151025
154	0xbd71385a	-0.05889163
155	0xbdda78a8	-0.106675446
156	0xbd7a8a27	-0.06116691
157	0xbc1ec8b1	-0.009691403
158	0xbd2729f5	-0.040811498
159	0xbdbb8a58	-0.09157246
160	0xbd0db9f1	-0.034601156
161	0xbde89f04	-0.11358455
162	0xbdc7103d	-0.09719894
163	0x804123f0	-5.982199e-39
164	0x000b22a0	1.022612e-39
165	0x3e0d17df	0.13778637
166	0xbeedda60	-0.4645567
167	0x3e2902a4	0.16504914
168	0x3d3d8972	0.046273656
169	0x3d91666b	0.07099613
170	0xbe474323	-0.19459204
171	0xbe456c12	-0.19279507
172	0xbdd4f535	-0.10398332
173	0x3e0a3c85	0.13499649
174	0xbc5d2d0e	-0.013499511
175	0x3e042596	0.12904963
176	0x3e607f19	0.21923484
177	0x3e478e9c	0.19487995
178	0x3d9962e5	0.07489566
179	0xbd727f59	-0.05920348
180	0x3cea04ee	0.028566804
181	0x3e205265	0.15656431
182	0x3ddea2c6	0.1087089
183	0x3e418d6f	0.18901609
184	0x004965cc	6.740509e-39
185	0x80444ef5	-6.273138e-39
186	0x3dc7db13	0.09758582
187	0x3dcbeecb	0.099576555
188	0xbdd21e59	-0.102596946
189	0x3dc9dbec	0.098564
190	0x3e92ab50	0.28646326
191	0xbdfaa8b6	-0.1223921
192	0x3c9481f3	0.01812837
193	0xbd8112aa	-0.06302388
194	0xbebda489	-0.37039593
195	0xbd9ac3fd	-0.07556913
196	0xbe0c7ce9	-0.13719524
197	0xbca66a53	-0.020314371
198	0x3e32f226	0.17475185
199	0x3d91c3b7	0.07117408
200	0x3d3d92c1	0.046282534
201	0x3df3f783	0.119124435
202	0xbc664b28	-0.014056005
203	0x3cb429d0	0.021992594
204	0x3df58eae	0.119901046
205	0x80164773	-2.046012e-39
206	0x003145b8	4.52495e-39
207	0x3d4be002	0.049774177
208	0x3e698fbf	0.22808741
209	0xbdda2046	-0.10650687
210	0xbd88b350	-0.06674826
211	0xbde175a2	-0.11008765
212	0x3d9d7628	0.07688552
213	0xbf0903c5	-0.53521377
214	0x3e844809	0.25836208
215	0xbe50f11c	-0.20404476
216	0x3d78755c	0.060658798
217	0xbec07d1a	-0.37595445
218	0xbda5e130	-0.08099592
219	0xbe47cd1f	-0.19511841
220	0xbddfbf6c	-0.10925183
221	0xbdf15b6b	-0.11785015
222	0xbe6f8152	-0.23389176
223	0xbdbc017f	-0.09179973
224	0xbd117b5e	-0.035518043
225	0x3db643e3	0.08899667
226	0x8016b5c8	-2.085592e-39
227	0x003f3243	5.803667e-39
228	0x3d5e8ac9	0.054331575
229	0x3e1adab4	0.15122491
230	0x3dbd3ba4	0.09239891
231	0x3dad1427	0.084511094
232	0xbe15334b	-0.14570348
233	0x3e87f833	0.26556548
234	0xbdedf078	-0.116181314
235	0x3bfcb2bf	0.007711738
236	0x3cc055f8	0.023478493
237	0xbe576b19	-0.21036948
238	0xbd913e93	-0.07092013
239	0x3db9494a	0.09047182
240	0x3d76a0cd	0.060211945
241	0xbe822741	-0.25420573
242	0xbd4b5c0f	-0.04964834
243	0xbe38b2a1	-0.18036892
244	0xbe2e4936	-0.17020115
245	0xbe64eb6a	-0.22355428
246	0xbe1baa92	-0.15201786
247	0x00412a45	5.984471e-39
248	0x80027ea6	-2.29104e-40
249	0x3de3324e	0.11093579
250	0xbeb9637f	-0.36208722
251	0x3d76bed9	0.0602406
252	0xbb7a5074	-0.0038194926
253	0x3bfc3706	0.007696989
254	0xbdb4b8a3	-0.08824279
255	0x3dcde219	0.1005289

model.0.bias f4 [48]
0	0xbe77a561	-0.24184181
1	0x3e6324c0	0.22181988
2	0xbedfc127	-0.4370205
3	0x3e86775d	0.26262942
4	0xbe65b081	-0.22430612
5	0xbe1a1f44	-0.1505099
6	0xbeb2a107	-0.3488848
7	0x3e50e838	0.20401084
8	0xbf15eb66	-0.58562315
9	0xbf162afc	-0.5865934
10	0xbef76c3d	-0.48324767
11	0x3d533bb3	0.051570605
12	0x3e2f6fe3	0.17132525
13	0x3ecd1d33	0.4006134
14	0xbe39b35a	-0.18134823
15	0xbdbc8edf	-0.09206938
16	0xbca12410	-0.019670516
17	0xbdaafd1d	-0.08349059
18	0xbe6735a1	-0.22579052
19	0xbf1d4d8c	-0.6144645
20	0xbe04242a	-0.1290442
21	0xbda863ab	-0.08222135
22	0xbea18d36	-0.31553048
23	0xbe81411f	-0.25244996
24	0xbef13038	-0.471071
25	0xbc8b71cd	-0.017022038
26	0xbe0bd911	-0.13657023
27	0xbe80f677	-0.25188038
28	0xbf27e0c6	-0.6557735
29	0xba73fd15	-0.00093074265
30	0xbe3f6355	-0.18690236
31	0xbefa8545	-0.48929802
32	0x3d4d0afc	0.050059304
33	0x3e3cfe01	0.1845627
34	0x3e545b78	0.20738018
35	0xbe3fb01f	-0.18719529
36	0xbdb48756	-0.08814876
37	0x3ebcca3e	0.3687305
38	0xbe40b755	-0.18819936
39	0x3e843fab	0.25829825
40	0xbf081524	-0.5315726
41	0x3e7d0133	0.24707489
42	0x3c5576a7	0.013028777
43	0x3ec78df7	0.38975498
44	0xbeec74a5	-0.46182743
45	0xbeee8e86	-0.46593112
46	0x3f1dd9e3	0.61660594
47	0xbea498fa	-0.32147962

model.2.weight f4 [48]
0	0x3f54bf8b	0.8310477
1	0x3f6c67de	0.9234599
2	0x3f5952ad	0.8489178
3	0x3f6c6e5e	0.92355907
4	0x3f7cbc91	0.9872523
5	0x3f55fff0	0.83593655
6	0x3f808b9d	1.0042607
7	0x3f669e9c	0.9008577
8	0x3f3b968b	0.73276585
9	0x3f43fd3a	0.7655827
10	0x3f6e737d	0.9314497
11	0x3f741d69	0.95357376
12	0x3f534447	0.8252606
13	0x3f764797	0.9620299
14	0x3f516cdf	0.8180675
15	0x3c97837a	0.01849531
16	0x3cfa2527	0.030535294
17	0x3f889a88	1.0672159
18	0x3f6905a9	0.9102426
19	0x3f49eaa6	0.7887367
20	0x3f889dd5	1.0673167
21	0x3f47329c	0.778116
22	0x3f48d7d9	0.7845436
23	0x3f5d3ed3	0.8642399
24	0x3f7603a3	0.960993
25	0x3f77b729	0.96763855
26	0x3f5a9ee4	0.853987
27	0x3f4d1e34	0.8012421
28	0x3f79df5b	0.9760644
29	0xbbd86bbb	-0.0066046393
30	0x3f583f8d	0.8447197
31	0x3f5e81dc	0.869169
32	0x3f591f41	0.84813315
33	0x3f559585	0.83431274
34	0x3f3af6d7	0.730329
35	0x3f5273b4	0.822078
36	0x3f6b1cfc	0.918411
37	0x3f590603	0.847748
38	0x3f77e774	0.96837544
39	0x3f53502e	0.8254422
40	0x3f4a194d	0.78944856
41	0x3f54b1b8	0.8308368
42	0x3f85ab71	1.0442945
43	0x3f79c892	0.9757167
44	0x3f436372	0.76323617
45	0x3f62e920	0.8863697
46	0x3f3ee6d7	0.74570984
47	0x3f46fcc8	0.77729464

model.2.bias f4 [48]
0	0xbf1fad80	-0.62374115
1	0x3e2f5353	0.1712163
2	0xbe92426d	-0.28566304
3	0x3e2a259b	0.16615908
4	0x3e2303b3	0.1591938
5	0x3eaa97a6	0.33318824
6	0x3ebf8854	0.37408698
7	0x3f033722	0.51256
8	0xbe9bf63f	-0.30461308
9	0xbe78ccf5	-0.24296935
10	0xbf07dcbd	-0.53071195
11	0x3eb4d4a2	0.35318476
12	0x3e9ec054	0.3100611
13	0x3f01e06f	0.50733083
14	0xbf20ad3b	-0.6276433
15	0xbe95ce7e	-0.29259104
16	0xbe4e65d1	-0.20156027
17	0x3ed58ed0	0.4171052
18	0xbe35402f	-0.17700265
19	0xbea4d953	-0.32197055
20	0x3ee34436	0.44387978
21	0xbe319f93	-0.17346029
22	0xbf01f984	-0.50771356
23	0x3dddc73c	0.108290166
24	0x3dd09f40	0.101866245
25	0x3e8b0ca3	0.2715808
26	0xbe024dca	-0.12724987
27	0x3e8cd196	0.2750365
28	0xbf09d452	-0.538396
29	0xbe11053a	-0.1416215
30	0xbf120a3f	-0.57046884
31	0xbece0e85	-0.40245453
32	0x3e62efe3	0.22161822
33	0xbd3d818f	-0.046266135
34	0xbeca81b4	-0.3955208
35	0x3e0bb96d	0.13644953
36	0x3e9cc978	0.30622458
37	0x3e7813d2	0.24226311
38	0x3e814edd	0.2525548
39	0x3da0ed4e	0.07857762
40	0xbe86dc1d	-0.26339808
41	0x3e4df62f	0.20113443
42	0x3df6e4b0	0.120553374
43	0x3eb51b0f	0.35372207
44	0x3db55b39	0.0885529
45	0xbd66d3a9	-0.0563542
46	0x3eccbd93	0.39988384
47	0xbe9f5206	-0.31117266

model.2.running_mean f4 [48]
0	0x3e1dd2e4	0.1541248
1	0x3eb15b14	0.346398
2	0x3d0fa1bf	0.035066362
3	0x3eab864a	0.33500892
4	0x3de285eb	0.11060699
5	0x3df373a0	0.11887288
6	0x3e0beb91	0.1366408
7	0x3e7ca691	0.24672915
8	0x3b223023	0.002474793
9	0x39f07c3f	0.00045868938
10	0x3d4a1ad3	0.049341988
11	0x3e5a2a9b	0.21305315
12	0x3e877f8c	0.26464498
13	0x3ebf836c	0.37404954
14	0x3e61a053	0.22033815
15	0x3bfc6478	0.0077024065
16	0x3cd67359	0.026178049
17	0x3e3ee6d8	0.18642747
18	0x3df003fa	0.117195085
19	0x3c1d9ea1	0.00962034
20	0x3e808664	0.25102532
21	0x3e2f067d	0.17092319
22	0x3e1f5905	0.15561302
23	0x3d832788	0.06404024
24	0x3ccb762e	0.024836626
25	0x3e1f750b	0.15571992
26	0x3e7cc8d2	0.24685982
27	0x3daa8f79	0.083281465
28	0x3b1b6b21	0.0023714977
29	0x3be77c92	0.0070644105
30	0x3e2f4adf	0.17118405
31	0x3d1657ca	0.036704816
32	0x3e4cc791	0.19998004
33	0x3ea86d22	0.32895762
34	0x3e9d8a20	0.30769444
35	0x3e117d06	0.14207849
36	0x3e3513fa	0.17683402
37	0x3e8790f6	0.26477784
38	0x3dc82ca5	0.0977414
39	0x3e941722	0.289239
40	0x3c8698cd	0.016430283
41	0x3eb386d8	0.35063815
42	0x3e6d5c86	0.23179826
43	0x3ecb0f2b	0.3966001
44	0x3c288691	0.010285989
45	0x3cb02f56	0.021506947
46	0x3f0f0c9f	0.55878633
47	0x3db2aea1	0.08724714

model.2.running_var f4 [48]
0	0x3d53f14b	0.051743787
1	0x3e3d62c8	0.18494713
2	0x3c527443	0.012845102
3	0x3de884ff	0.11353492
4	0x3d3516c0	0.04421115
5	0x3d1caaf6	0.03824898
6	0x3d8d3a91	0.06895936
7	0x3d873b18	0.06603068
8	0x39b1b969	0.00033898212
9	0x38155d88	3.5611476e-05
10	0x3c60fafd	0.013731715
11	0x3db201e2	0.08691765
12	0x3dde7296	0.10861699
13	0x3d967edd	0.07348416
14	0x3dfa829c	0.12231943
15	0x3a136ab3	0.00056235044
16	0x3afbab21	0.0019200781
17	0x3dbe34a0	0.09287381
18	0x3d445b50	0.047938645
19	0x3b114d8b	0.0022171463
20	0x3e1a300e	0.15057394
21	0x3d879934	0.06621018
22	0x3dada4d8	0.08478707
23	0x3c9f6a17	0.019459767
24	0x3ba6507c	0.0050755125
25	0x3d6aa7c5	0.057288904
26	0x3e07f014	0.13275176
27	0x3cbde555	0.023180643
28	0x3a04e279	0.00050691474
29	0x38cc2bd6	9.735643e-05
30	0x3d81dd3a	0.06341024
31	0x3c1655a4	0.009175692
32	0x3d9efb98	0.077628314
33	0x3e0758a0	0.13217402
34	0x3de7fdb2	0.113276854
35	0x3d6ccfb6	0.057815276
36	0x3d906192	0.0704986
37	0x3d2c0961	0.042001132
38	0x3cfbf87e	0.030758139
39	0x3dbccefb	0.09219166
40	0x3b56bdc9	0.003276693
41	0x3e3c5ba1	0.18394329
42	0x3ddc1d61	0.10747791
43	0x3de38aea	0.1111048
44	0x3aa80ba9	0.0012820858
45	0x3bc6c16f	0.0060655396
46	0x3db1e2c7	0.086858325
47	0x3d05292c	0.032509968

model.4.weight f4 [24, 48]
0	0xbe46dce6	-0.19420204
1	0xbc456c51	-0.01204975
2	0xbddb81fa	-0.107181504
3	0x3dc6b4be	0.097024426
4	0xbd36920e	-0.044572882
5	0x3daa945a	0.08329077
6	0x3e15c740	0.14626789
7	0x3dafa297	0.085759334
8	0xbdbe0cad	-0.092797615
9	0xbdbe56f3	-0.09293928
10	0xbdbc848a	-0.09204967
11	0x3dfdd9dd	0.1239507
12	0x3df1a79f	0.11799549
13	0x3d33779c	0.04381524
14	0xbd6a94d1	-0.05727083
15	0xbd14c603	-0.03632165
16	0xbd40259b	-0.046910863
17	0x3cb19f86	0.021682512
18	0x3e0f7102	0.14007953
19	0xbde3af0c	-0.11117372
20	0x3caeb82b	0.021328053
21	0xbce16a38	-0.02751647
22	0x3d6644c8	0.05621794
23	0x3d7f86fb	0.062384587
24	0x3d2dad31	0.042401496
25	0xbd3523b9	-0.04422352
26	0x3b2d8b69	0.00264808
27	0x3d3da310	0.046298087
28	0xbde65fc4	-0.112487346
29	0xbd4255ab	-0.04744498
30	0xbe16ec54	-0.1473859
31	0xbe17476f	-0.14773344
32	0x3e5824bd	0.21107765
33	0x3dc264de	0.09491895
34	0xbd8146ca	-0.0631233
35	0x3e55dffc	0.20886225
36	0x3ab5f9c3	0.0013883639
37	0x3ce6a15f	0.02815312
38	0xbd1289ad	-0.03577583
39	0x3e476a2a	0.19474092
40	0xbde65169	-0.112459965
41	0x3c950952	0.01819292
42	0xbde2932c	-0.11063227
43	0x3e03783d	0.12838836
44	0x3e1ce18f	0.15320419
45	0x3e01bd3e	0.12669846
46	0x3e0d2913	0.137852
47	0xbe70ca3e	-0.2351465
48	0x3e0b62a5	0.13611849
49	0x3d99c2dc	0.075078696
50	0xbd036428	-0.03207794
51	0x3c49e38f	0.012322321
52	0x3e18cff3	0.14923076
53	0x3da57e9a	0.08080788
54	0xbd1f8dd4	-0.038953617
55	0xbe5e5ba1	-0.21714641
56	0xbd647c0f	-0.055782374
57	0xbe035d04	-0.12828451
58	0xbc168332	-0.009186553
59	0xbe8f6f1d	-0.2801446
60	0x3e8940fa	0.26807386
61	0x3d3ceb50	0.04612285
62	0x3dc1972f	0.09452664
63	0xbdde8ac1	-0.10866309
64	0xbd1eb8dd	-0.038750518
65	0xbcd8a788	-0.026447073
66	0x3d8a36e6	0.06748752
67	0x3e0cbb6d	0.13743372
68	0x3d39c588	0.045354396
69	0x3d766468	0.06015435
70	0xbe2334b6	-0.15938076
71	0x3de7be20	0.1131556
72	0x3cdd6bc8	0.027028933
73	0x3dd90be1	0.10597969
74	0xbe7a7c8e	-0.24461576
75	0x3d2b3ee3	0.04180802
76	0x3cd80d5e	0.026373561
77	0xbdad0885	-0.084488906
78	0x3da37f19	0.07983226
79	0x3dcef10b	0.10104569
80	0x3da91de1	0.08257652
81	0xbe75354e	-0.23946115
82	0xbc7e9444	-0.015538279
83	0xbe000831	-0.12503125
84	0xbdf2f46d	-0.11863027
85	0x3e3fa2b1	0.18714406
86	0xbd918cd3	-0.07106938
87	0x3dc57f9f	0.096434824
88	0xbe0db368	-0.1383797
89	0x3dac7066	0.08419876
90	0xbd72e75f	-0.059302684
91	0x3d0e177b	0.03469036
92	0x3e4df898	0.20114362
93	0x3d85faae	0.06541954
94	0x3dcac7bf	0.0990138
95	0x3d9fad91	0.07796777
96	0x3ddc0c2d	0.1074451
97	0x3e0c9e42	0.13732246
98	0x3defeb34	0.11714783
99	0x3e6b115c	0.22955841
100	0x3e86d203	0.263321
101	0xbd913b08	-0.070913374
102	0xbe16a2dd	-0.14710565
103	0x3c258375	0.010102143
104	0x3d5580f5	0.052124936
105	0x3e02b09e	0.12762687
106	0x3e48f1b3	0.19623451
107	0x3e194b40	0.14970112
108	0xbe8ab83b	-0.27093682
109	0x3e251423	0.16120963
110	0x3de52148	0.111879885
111	0x3ea7b83e	0.32757753
112	0x3dd7e754	0.10542169
113	0xbdccc1be	-0.09997891
114	0x3e204e90	0.15654969
115	0x3d3ecc43	0.046581518
116	0xbe1df85f	-0.15426777
117	0x3e69128d	0.22760983
118	0x3db18c8b	0.086693846
119	0xbca844af	-0.020540563
120	0xbd1be95f	-0.038064357
121	0x3dc4c8fe	0.09608649
122	0x3d832a12	0.06404509
123	0xbd81a59a	-0.06330414
124	0x3e04de6b	0.1297547
125	0x3db5c10d	0.08874712
126	0x3e0e8160	0.1391654
127	0x3dba5c08	0.09099585
128	0xbe903362	-0.28164202
129	0xbd4c4f62	-0.049880393
130	0x3d8796d7	0.06620567
131	0xbca664ab	-0.020311674
132	0x3d3efb7c	0.046626553
133	0xbe30864c	-0.1723873
134	0x3e2c8aec	0.1684987
135	0x3d80e066	0.062928006
136	0x3d91100a	0.07083137
137	0x3e3b5af1	0.1829641
138	0xbe97ae87	-0.2962534
139	0x3e10c8e9	0.14139141
140	0x3dfd0bae	0.12355743
141	0x3d4bce9a	0.049757577
142	0xbda043c5	-0.07825426
143	0x3de7baec	0.113149494
144	0xbc161710	-0.009160772
145	0xbe579fda	-0.21057072
146	0x3d88f4c8	0.06687313
147	0xbd3bfd9d	-0.04589616
148	0xbcad2a1a	-0.02113824
149	0x3ddf158c	0.108927816
150	0x3d6fba5d	0.05852734
151	0xbe0602dc	-0.13087028
152	0xbe097597	-0.13423763
153	0x3d7b1979	0.06130359
154	0x3ca7f44b	0.02050223
155	0xbd0394c4	-0.032124296
156	0x3cf0a1af	0.029373972
157	0xbd957841	-0.07298327
158	0xbe4a5d0d	-0.19762059
159	0x3d737490	0.059437335
160	0x3d785816	0.06063088
161	0x3d7dd970	0.061974943
162	0x3d2d7d66	0.042355917
163	0x3d7bd092	0.061478205
164	0xbd2b45c4	-0.04181458
165	0x3d630ee7	0.055434134
166	0xbecf79e8	-0.40522695
167	0x3bb40127	0.0054933014
168	0xbe4a44dd	-0.19752832
169	0xbeb68dc6	-0.3565504
170	0xbe5760c4	-0.21033007
171	0x3d58f258	0.052965492
172	0xbd2577a9	-0.04039732
173	0x3d8f8181	0.07007123
174	0xbe00737f	-0.12544058
175	0x3de0dfa5	0.10980157
176	0xbdbd3618	-0.09238833
177	0xbd7ff0e5	-0.062485594
178	0x3db491f5	0.088169016
179	0x3c07cd84	0.008288745
180	0xbe0e2fd9	-0.1388544
181	0x3e49ebf6	0.19718918
182	0xbe590a69	-0.21195377
183	0xbc7a1e5d	-0.015266028
184	0x3e4577dd	0.19284005
185	0xbc02ec20	-0.007990867
186	0xbdb466c9	-0.08808667
187	0xbe1b294b	-0.15152471
188	0x3c052bdb	0.008128132
189	0xbdb014a7	-0.08597689
190	0x3e92158e	0.2853207
191	0xbddbd8f5	-0.10734741
192	0x3e5aa005	0.21350105
193	0xbdec2b90	-0.115317464
194	0xbd9f3208	-0.077732146
195	0xbdef0a85	-0.11671928
196	0xbe253b62	-0.16135934
197	0xbea210ee	-0.3165354
198	0xbec410b7	-0.38294002
199	0xbc7f3574	-0.015576709
200	0x3da68e4f	0.08132612
201	0x3db8bcf6	0.090204164
202	0x3decf862	0.11570813
203	0xbde52f38	-0.11190647
204	0xbdc2e5ad	-0.095164634
205	0x3cc1aa27	0.023640705
206	0x3e905a88	0.2819407
207	0x3d1640b0	0.036682785
208	0x3d2feacf	0.04294854
209	0xbeac0f88	-0.336056
210	0x3cdcd479	0.026956784
211	0xba6344db	-0.0008669623
212	0xbeeb6f31	-0.4598327
213	0x3c5c7762	0.013456197
214	0x3ca92e9b	0.020652106
215	0x3c5df059	0.013546073
216	0xbde4fb06	-0.111806914
217	0x3e405067	0.18780671
218	0xbce69e42	-0.028151635
219	0xbeb418c2	-0.3517514
220	0x3e0cd1f5	0.13751967
221	0x3d246f8a	0.040145434
222	0x3e23db20	0.16001558
223	0x3dc284c2	0.09497978
224	0xbd9b7877	-0.07591336
225	0xbb1d9632	-0.0024045822
226	0xbd126408	-0.03573993
227	0xbd324462	-0.043522246
228	0xbd1a5678	-0.03768012
229	0x3ba95004	0.0051670093
230	0x3da54fbd	0.080718495
231	0xbd07fccb	-0.033200067
232	0x3c509197	0.012730024
233	0xbd5533e0	-0.052051425
234	0xbccd0ca1	-0.025030436
235	0xbc38bf9d	-0.011276153
236	0xbd23b05f	-0.039963122
237	0xbc84c307	-0.016206278
238	0xbe53308b	-0.20623986
239	0x3d5b6a6b	0.053568285
240	0x3dacea02	0.08443071
241	0xbdc62791	-0.096755154
242	0x3d683d3f	0.056699034
243	0xbd650973	-0.055917215
244	0xbe3b21b3	-0.18274574
245	0xbd39117e	-0.045182697
246	0xbbe0ca9d	-0.006860091
247	0x3e3bec21	0.18351795
248	0xbbf8ca11	-0.0075924476
249	0x3d680680	0.056646824
250	0xbdc3472b	-0.095350586
251	0xbc155e51	-0.009116725
252	0x3e614a7c	0.2200107
253	0xbd04d872	-0.03243298
254	0x3d2818ac	0.041039154
255	0xbdd42fa5	-0.1036065

model.4.bias f4 [24]
0	0x3de60ccc	0.112329096
1	0x3e6cc044	0.23120219
2	0xbeb64746	-0.35601252
3	0xbe564186	-0.20923433
4	0xbe1e06fb	-0.1543235
5	0x3da3df9c	0.080016345
6	0x3f1a1303	0.6018526
7	0xbdc10068	-0.094239056
8	0x3d868775	0.06568805
9	0x3e0b2306	0.13587579
10	0xbe081871	-0.13290574
11	0xbec08690	-0.37602663
12	0xbdffc726	-0.124891564
13	0xbe88cba5	-0.26717868
14	0x3e900589	0.28129223
15	0xbe8d6c78	-0.27621818
16	0x3dabf751	0.08396781
17	0xbed85ec9	-0.42259815
18	0x3e9d6f4b	0.30748972
19	0x3f1e6b4a	0.6188246
20	0x3d8db60a	0.06919487
21	0x3ea22d96	0.31675404
22	0x3f22a16a	0.6352755
23	0xbe93bec2	-0.28856474

model.6.weight f4 [24]
0	0x3f463883	0.7742998
1	0x3f44ae51	0.76828486
2	0x3f6df747	0.9295544
3	0x3f433101	0.7624665
4	0x3f491420	0.78546333
5	0x3f490a32	0.7853118
6	0x3f44acd3	0.7682621
7	0x3f84acbe	1.0365217
8	0x3f627081	0.8845292
9	0x3f8c68b8	1.0969458
10	0x3f895bf0	1.0731182
11	0x3f5076c6	0.81431234
12	0x3f4b7d6f	0.7948827
13	0x3f6273e6	0.88458097
14	0x3f559ba0	0.8344059
15	0x3f576c1a	0.84149325
16	0x3f7a660c	0.9781196
17	0x3f6fe540	0.9370918
18	0x3f80cf86	1.0063331
19	0x3f4cadb7	0.7995257
20	0x3f3c74e0	0.7361584
21	0x3f2f37c5	0.6844447
22	0x3f6141b8	0.87990904
23	0x3f6fd3ce	0.93682563

model.6.bias f4 [24]
0	0xbd04b50a	-0.032399215
1	0x3e714888	0.23562825
2	0x3e80add0	0.25132608
3	0x3d962010	0.07330334
4	0x3e847b71	0.25875428
5	0xbd5fe423	-0.054660928
6	0xbe255228	-0.16144621
7	0x3eaf62f6	0.3425519
8	0x3da262cc	0.07929
9	0x3e2a6266	0.16639099
10	0x3e3d934a	0.18513218
11	0x3e00a981	0.1256466
12	0x3ea59633	0.32341155
13	0xbe436243	-0.19080453
14	0xbe283662	-0.16426995
15	0x3e812978	0.2522695
16	0x3df76d47	0.1208139
17	0x3e8f3ec0	0.27977562
18	0xbe258ffa	-0.16168204
19	0x3da1d15a	0.07901259
20	0x3d29f86d	0.041496683
21	0xbe87af09	-0.2650073
22	0xbe46bd65	-0.19408186
23	0x3e8f43e2	0.27981478

model.6.running_mean f4 [24]
0	0x3fa79d62	1.3094904
1	0x3f1a5324	0.6028311
2	0x3e02a355	0.12757619
3	0x3efc8cbc	0.49326122
4	0x3e090b2f	0.13383172
5	0x3ee718af	0.4513602
6	0x3ff0317a	1.8765099
7	0x3f1985b3	0.59969634
8	0x3efc9467	0.49331972
9	0x3f3ad057	0.7297415
10	0x3ef5ae5c	0.47984588
11	0x3d66c2b6	0.056338035
12	0x3e9c1f9f	0.30492875
13	0x3e2395c7	0.15975104
14	0x3ec69ca2	0.38791376
15	0x3dc21b41	0.094778545
16	0x3ede10d8	0.43372226
17	0x3dba79e7	0.09105282
18	0x3f4ad204	0.7922671
19	0x3f81233c	1.0088878
20	0x3f011993	0.5042965
21	0x3f25ebf9	0.6481319
22	0x3fb8f300	1.4449158
23	0x3e1c86b4	0.1528576

model.6.running_var f4 [24]
0	0x3fa28f02	1.2699893
1	0x3f2b8e5c	0.670141
2	0x3e420ce9	0.18950237
3	0x3f0a05ab	0.539149
4	0x3e021f5f	0.1270728
5	0x3f03c173	0.51467055
6	0x3f819d54	1.0126138
7	0x3f020d24	0.508013
8	0x3f250a23	0.6446859
9	0x3f03001e	0.51172054
10	0x3e9b6327	0.30349085
11	0x3d94c459	0.07264013
12	0x3ea966cc	0.3308624
13	0x3e4d5614	0.20052367
14	0x3ea1425e	0.31495947
15	0x3de665d6	0.112498924
16	0x3ed3d6e8	0.41374898
17	0x3dae4eab	0.085110985
18	0x3f1ff53a	0.6248356
19	0x3f4bc592	0.79598343
20	0x3f2272a3	0.6345617
21	0x3f203a2c	0.62588763
22	0x3f22d2be	0.6360282
23	0x3e4fece6	0.20305213

model.8.weight f4 [12, 24]
0	0xbdcdb403	-0.100441
1	0xbc2446bd	-0.010026631
2	0x3e4d3930	0.20041347
3	0x3c958cce	0.018255617
4	0x3e1beadb	0.15226309
5	0xbd65b136	-0.056077205
6	0xbdad4853	-0.084610604
7	0x3e23e650	0.16005826
8	0xbe62585a	-0.22104016
9	0x3e46ff7f	0.19433402
10	0x3cc5640a	0.024095554
11	0x3da7fcd3	0.08202519
12	0x3e3baee6	0.18328437
13	0x3cf93e32	0.030425165
14	0x3e3ce961	0.18448402
15	0x3d2053c9	0.039142404
16	0xbebdcffb	-0.3707274
17	0x3e3bfbd7	0.18357788
18	0x3e845c1c	0.25851524
19	0xbe0fc4d9	-0.14039935
20	0xbd64bf22	-0.05584634
21	0x3ae7841b	0.0017663272
22	0xbe9b2fc0	-0.30309868
23	0x3e3249e5	0.17411001
24	0x3de34f86	0.11099152
25	0x3c3bc005	0.011459355
26	0x3e004e97	0.1252998
27	0xbe106ebb	-0.1410474
28	0xbe82d133	-0.2555023
29	0xbd9f5f18	-0.077818096
30	0x3d9db78e	0.07701026
31	0xbe900468	-0.28128362
32	0xbd9be688	-0.0761233
33	0xbe7c7fef	-0.24658178
34	0xbec0b0fd	-0.3763503
35	0x3d7d0659	0.06177363
36	0xbe10a948	-0.14127076
37	0x3cf99cbf	0.03047025
38	0xbcd53239	-0.026024925
39	0xbe933ace	-0.28755802
40	0xbe2b425e	-0.16724536
41	0xbe5b0444	-0.21388346
42	0xbd658479	-0.05603454
43	0x3d7bd94c	0.061486527
44	0x3dbac10b	0.09118851
45	0xbd5c3a4c	-0.053766534
46	0x3d22eee0	0.03977859
47	0x3e1894a3	0.1490045
48	0x3c85a683	0.01631475
49	0x3e874849	0.26422337
50	0x3c4c5343	0.012471023
51	0x3cb64f81	0.022254707
52	0x3dfbacdf	0.12288832
53	0xbe5f0b41	-0.21781637
54	0xbdbd4ad0	-0.09242785
55	0xbcd9801c	-0.026550345
56	0xbe782c5c	-0.24235672
57	0xbdf198b7	-0.11796706
58	0xbde9f7ed	-0.11424241
59	0xbd170a3b	-0.03687499
60	0x3df85f20	0.12127519
61	0x3d25d987	0.040490653
62	0x3e45a4a8	0.19301093
63	0x3d6073c9	0.05479792
64	0x3d05c0b4	0.03265448
65	0x3cb06759	0.021533655
66	0xbdae9cd6	-0.08526008
67	0x3eaaaf9e	0.3333711
68	0x3e64636f	0.22303556
69	0xbdbeae5e	-0.09310602
70	0xbd608a29	-0.05481926
71	0x3d1dc8c8	0.038521558
72	0xbd4302ee	-0.047610216
73	0xbd09a003	-0.033599865
74	0x3dbd1355	0.09232203
75	0xbe398141	-0.18115713
76	0xbd11d0f0	-0.03559965
77	0xbd51fd9d	-0.051267255
78	0x3d291c3b	0.04128669
79	0xbe5daa43	-0.21646981
80	0x3dff8b2f	0.12477719
81	0xbe5cec96	-0.21574625
82	0xbda6bd0c	-0.081415266
83	0xbd0238df	-0.031792518
84	0xbebba565	-0.36649624
85	0x3e291927	0.16513501
86	0xbe157330	-0.14594722
87	0xbd5aa147	-0.053376462
88	0x3e82e662	0.25566393
89	0xbed48a11	-0.41511586
90	0xbe53265a	-0.20620099
91	0x3d4ad919	0.049523447
92	0x3cccbe0d	0.024992967
93	0x3db0e5bc	0.08637568
94	0x3e401e7a	0.18761626
95	0xbcc0d7ed	-0.023540461
96	0x3e0447a2	0.12917951
97	0xbd8eacb5	-0.06966535
98	0x3d564265	0.052309413
99	0xbd87453f	-0.066050045
100	0xbe9f3ed9	-0.31102636
101	0xbb4e6064	-0.0031490559
102	0x3e4042ac	0.18775433
103	0xbd921002	-0.071319595
104	0x3dc278c5	0.09495691
105	0xbd0a107e	-0.033707134
106	0xbde2712d	-0.11056743
107	0xbc99d5a5	-0.018778631
108	0xbe1fe14b	-0.15613286
109	0x3d24b1ef	0.040208753
110	0x3a12e78f	0.0005603963
111	0xbe9ba54c	-0.3039955
112	0x3cf53e7f	0.029937027
113	0xbdfd980b	-0.123825155
114	0xbd93c6e3	-0.07215669
115	0xbd634865	-0.055488963
116	0xbd2e0cb9	-0.042492602
117	0x3d08631b	0.03329764
118	0x3d180863	0.037117373
119	0x3cac3e95	0.021025935
120	0xbd9cb1b9	-0.076510854
121	0xbe131d8e	-0.14366743
122	0x3e3f5049	0.1868297
123	0xbe98e89f	-0.29864976
124	0xbd3f9ad0	-0.0467785
125	0xbdaa32de	-0.083104834
126	0xbbc963c1	-0.006145925
127	0xbe775bdc	-0.24156135
128	0x3e67bd5a	0.22630826
129	0xbeaaf1d3	-0.33387622
130	0xbde08a5b	-0.10963889
131	0x3a95a312	0.0011416397
132	0x3d641469	0.055683527
133	0x3eb25b47	0.34835264
134	0xbe5f1359	-0.21784724
135	0xbd633c09	-0.055477176
136	0x3e82c0f5	0.2553784
137	0x3db2b3ca	0.08725698
138	0xbea319b6	-0.31855553
139	0x3d40739b	0.04698525
140	0xba62d062	-0.0008652267
141	0x3d00cf31	0.031447593
142	0x3db921a6	0.09039621
143	0xbc76f8af	-0.015073939
144	0xbc62c2b1	-0.013840363
145	0xbd81ec36	-0.06343882
146	0xbeb62573	-0.35575446
147	0xbde02f1e	-0.10946487
148	0x3d4d93a2	0.05018962
149	0x3ddb0b6b	0.10695537
150	0x3c9420b3	0.018081998
151	0x3dd7bc6d	0.10533986
152	0x3be02f54	0.0068415795
153	0xbc285d83	-0.010276201
154	0x3c890351	0.016725214
155	0xbe938251	-0.2881036
156	0x3dd4e586	0.103953406
157	0x3b3fd430	0.002927076
158	0xbc4f0a5f	-0.01263675
159	0x3d9d673a	0.076857045
160	0xbbf9c7b6	-0.0076226844
161	0x3d8bca33	0.06825676
162	0x3bb47301	0.0055068736
163	0xbdaaa3ae	-0.08332001
164	0xbd510478	-0.051029652
165	0x3d3face5	0.046795744
166	0xbe1db7e5	-0.15402181
167	0xbf0db860	-0.5535946
168	0xbd69cffb	-0.05708311
169	0x3e043d5b	0.1291403
170	0xbe5556b8	-0.20833862
171	0x3e01ca10	0.12674737
172	0x3dd1042a	0.10205872
173	0xbd4a620e	-0.04940992
174	0xbd248637	-0.04016706
175	0x3e2198ad	0.15780897
176	0xbeaea841	-0.34112743
177	0x3e87df88	0.26537728
178	0x3dd6846a	0.10474475
179	0x3d5a1d60	0.05325067
180	0x3e1945d8	0.1496805
181	0xbe8064a3	-0.2507678
182	0x3e90e1ff	0.2829742
183	0x3ca61d3b	0.02027761
184	0xbe72b14f	-0.2370045
185	0x3e46df0b	0.19421022
186	0x3eb0536f	0.34438655
187	0x3c8c93f2	0.01716039
188	0x3debdd43	0.11516812
189	0x3c490911	0.012270228
190	0xbe070e43	-0.13189034
191	0xbcbc39ad	-0.02297672
192	0x3e11b5a7	0.14229451
193	0xba9914b5	-0.0011679145
194	0x3e2d879f	0.16946267
195	0xbe31e01b	-0.17370646
196	0x3e26b31e	0.16279265
197	0xbda62999	-0.08113403
198	0x3dfc2fb3	0.123137854
199	0xbecd71da	-0.40125924
200	0xbd98cacb	-0.07460555
201	0xbea2eab5	-0.31819692
202	0xbf0c92a9	-0.54911286
203	0x3da262cc	0.07929
204	0xbc63b43e	-0.013897954
205	0x3d4b59d2	0.049646206
206	0xbbec09a3	-0.007203297
207	0x3e029165	0.12750776
208	0xbe6d2ad8	-0.23160875
209	0x3d841a13	0.06450286
210	0xbd6ba168	-0.057526976
211	0x3d26c109	0.040711436
212	0x3da656bd	0.08122013
213	0xbd53f1cf	-0.05174428
214	0x3d3b1d4f	0.045682248
215	0x3e43f5d4	0.19136745
216	0x3dd57c00	0.10424042
217	0x3d8541ab	0.06506666
218	0xbd594ba0	-0.053050637
219	0xbb20e47d	-0.0024550252
220	0xbd05f00e	-0.032699637
221	0xbd4e309a	-0.05033932
222	0x3e2d5be3	0.16929583
223	0xbd01e32b	-0.031710785
224	0xbda57eec	-0.08080849
225	0x3db1b98d	0.08677969
226	0x3cf64e46	0.03006662
227	0xbd26d212	-0.040727682
228	0xbe42df7c	-0.19030565
229	0xbde72037	-0.11285441
230	0x3b2a2e61	0.0025967585
231	0xbc3c220f	-0.01148273
232	0x3dc75e53	0.09734788
233	0xbdb0c336	-0.086309835
234	0x3d4601d4	0.048341587
235	0x3d96bb7d	0.07359979
236	0x3e1b1eae	0.15148422
237	0xbc9b388a	-0.018947858
238	0x3e2af42f	0.16694711
239	0xbcf3cf12	-0.029761825
240	0x3b2372b5	0.0024940197
241	0xbe474346	-0.19459257
242	0x3d1b104f	0.03785735
243	0xbe8521d4	-0.2600237
244	0x3dbf46ab	0.09339651
245	0x3ead40f7	0.33838627
246	0x3d51d00f	0.05122381
247	0x3e9dd839	0.30829027
248	0x3c2183c7	0.009858078
249	0xbd775d99	-0.060391996
250	0x3d80cbed	0.06288896
251	0xbdc26bae	-0.094931945
252	0x3e552e34	0.20818406
253	0xbca11b12	-0.019666228
254	0x3c867d5f	0.016417203
255	0x3e27f770	0.16402984

model.8.bias f4 [12]
0	0xbe4592b2	-0.19294241
1	0x3d2628f0	0.040566385
2	0x3ebb4ddd	0.36582842
3	0x3e18161d	0.14852186
4	0x3f2e61b6	0.68117845
5	0x3decf10b	0.11569413
6	0x3bc2ba73	0.0059426366
7	0x3debc349	0.11511857
8	0x3da4cfdd	0.08047459
9	0x3f331a96	0.6996244
10	0x3e37a8e6	0.17935523
11	0x3f007161	0.50173

model.10.weight f4 [12]
0	0x3f94ff77	1.1640462
1	0x3fafdd3d	1.3739392
2	0x3f83b7e1	1.029049
3	0x3f94ebeb	1.1634496
4	0x3f89fe5e	1.0780752
5	0x3f9b79ab	1.2146505
6	0x3f94fb19	1.1639129
7	0x3f97f087	1.1870278
8	0x3fb7cdbe	1.4359663
9	0x3f90b718	1.1305876
10	0x3f9c0e86	1.2191932
11	0x3f8793dd	1.0591999

model.10.bias f4 [12]
0	0x3d46cca9	0.048535023
1	0xbd5c63d4	-0.05380614
2	0x3d1ee203	0.03878976
3	0xbe13ee45	-0.14446361
4	0xbd841e6f	-0.06451117
5	0xbcdddf99	-0.027084159
6	0x3de258b3	0.11052074
7	0x3b853a14	0.0040657613
8	0x3cc0a336	0.023515325
9	0xbdd784aa	-0.105233505
10	0x3cd25f39	0.025680171
11	0x3c98389e	0.018581685

model.10.running_mean f4 [12]
0	0x3f1e976e	0.61949813
1	0x3edcd5d3	0.43131885
2	0x3f353549	0.7078443
3	0x3f06ce84	0.5265887
4	0x3f17074b	0.58995503
5	0x3f29abcd	0.6627777
6	0x3e97aa3d	0.2962207
7	0x3f58a4ee	0.8462666
8	0x3f10c229	0.56546265
9	0x3f2a405e	0.66504467
10	0x3f41b8bc	0.7567251
11	0x3f1f1284	0.6213763

model.10.running_var f4 [12]
0	0x3f4ca3e1	0.7993756
1	0x3edb7607	0.42863485
2	0x3f26c441	0.6514321
3	0x3f2bb693	0.6707546
4	0x3e871277	0.26381275
5	0x3f94834e	1.1602571
6	0x3e4133a5	0.18867357
7	0x3f942077	1.1572407
8	0x3f31802f	0.6933622
9	0x3e9af6f7	0.30266544
10	0x3f998d9c	1.1996341
11	0x3f1b8bcc	0.6076019

model.11.weight f4 [5, 12]
0	0xbc7fa2c2	-0.015602769
1	0xbd7592f1	-0.059954587
2	0xbe7af9e8	-0.24509394
3	0xbe90f41f	-0.2831125
4	0xbe84dd11	-0.2594991
5	0x3ed0ba74	0.40767252
6	0x3d297409	0.041370425
7	0xbe86df79	-0.2634237
8	0x3db36706	0.087598845
9	0x3df63870	0.12022483
10	0x3e884d31	0.26621392
11	0x3ea1216c	0.3147081
12	0xbc8ef883	-0.017452484
13	0xbd695592	-0.05696637
14	0xbe7b604c	-0.24548453
15	0xbe90566c	-0.28190935
16	0xbe84e190	-0.2595334
17	0x3ed024dd	0.40653124
18	0x3d12aac7	0.035807397
19	0xbe85eb7e	-0.2615623
20	0x3dae94fa	0.08524509
21	0x3df50da8	0.11965495
22	0x3e8b38ab	0.27191672
23	0x3ea1460e	0.3149876
24	0x3b7b2013	0.0038318678
25	0x3e4fe445	0.20301922
26	0x3d831eb1	0.06402338
27	0x3e5a2324	0.21302468
28	0x3e36fd20	0.17869997
29	0xbc90d7d2	-0.017681036
30	0x3b1ee1b2	0.0024243412
31	0xbe0c9257	-0.13727699
32	0xbd886d57	-0.0666148
33	0x3e950ea3	0.2911273
34	0x3ca233ab	0.019800028
35	0xbe018b34	-0.12650758
36	0xbcd0d625	-0.025492737
37	0x3e4ac217	0.19800602
38	0x3dfbc030	0.12292516
39	0x3e131f5c	0.14367431
40	0x3e271da9	0.16319908
41	0xbc95bc01	-0.018278124
42	0xbb5a11f6	-0.0033274866
43	0xbdda6618	-0.10664004
44	0xbd8857c8	-0.06657368
45	0x3e9f6cec	0.31137788
46	0x3b653e7c	0.003497987
47	0xbe076d28	-0.13225234
48	0x3ed270c8	0.4110167
49	0xbf534903	-0.8253328
50	0x3db42380	0.087958336
51	0xbe9e16db	-0.30876812
52	0xbdb6974b	-0.089155756
53	0x3e992fe7	0.2991936
54	0xbf12fce4	-0.5741713
55	0xbec447f2	-0.3833614
56	0x3f41e1ee	0.75735366
57	0x3e2983b8	0.16554153
58	0x3ef9be6c	0.48778093
59	0x3d56c521	0.05243409

model.11.bias f4 [5]
0	0xbd3766b0	-0.044775665
1	0xbd33ce40	-0.043897867
2	0x3dac5d27	0.08416205
3	0x3d9a07bd	0.07521007
4	0xbd705fdf	-0.05868518

exp_avg f4 [48, 21]
0	0x3c1a59d2	0.009420829
1	0x3bcdfdfc	0.006286381
2	0xbbe46512	-0.0069700563
3	0x3c5548d0	0.013017848
4	0xbb58e7d9	-0.0033097176
5	0xbc3469f1	-0.0110115865
6	0xbc854986	-0.01627041
7	0x3c1d7894	0.009611268
8	0x3aadb574	0.001325293
9	0xbae27126	-0.0017276153
10	0x3c06fa56	0.008238396
11	0x3ceab81a	0.02865224
12	0xbc853101	-0.016258718
13	0xbb72532b	-0.0036975842
14	0xbc852842	-0.016254548
15	0xbb7881dd	-0.0037919201
16	0x0000017b	5.31e-43
17	0x00000013	2.7e-44
18	0x3ac2b3b9	0.0014854587
19	0xbd065c04	-0.032802597
20	0xbc854c97	-0.016271872
21	0xb9b983f8	-0.00035384274
22	0x3ace3b06	0.0015734143
23	0x3a5d842c	0.0008450176
24	0x3a5b08e1	0.000835551
25	0x3983af1d	0.00025116737
26	0x3aa303ca	0.0012437042
27	0x39774ebf	0.00023585091
28	0xb6f06570	-7.1643663e-06
29	0xb98fa883	-0.00027400636
30	0x3b01af72	0.0019788411
31	0x3a7d8091	0.0009670342
32	0xba8b3bc6	-0.0010622672
33	0x3979c74d	0.00023820736
34	0xba2545cc	-0.0006304651
35	0x3975243f	0.00023378523
36	0x3b57bf0a	0.0032920265
37	0x00000187	5.48e-43
38	0x00000189	5.51e-43
39	0xbb203d33	-0.002445054
40	0x3a4dba9a	0.0007847935
41	0x3975a9ef	0.00023428326
42	0x3be7f098	0.0070782416
43	0x3b92b671	0.004477315
44	0x3ad54d2f	0.0016273613
45	0x3bbf24e0	0.0058332533
46	0xba9fcd56	-0.0012191932
47	0xbbc564e7	-0.0060239914
48	0xbc54b76c	-0.012983184
49	0x3b5bb3d8	0.0033523943
50	0xbb15a021	-0.002283104
51	0x3ba1697a	0.004925904
52	0x3b7e1dcd	0.0038775087
53	0x3be79dc6	0.0070683686
54	0xbc54891e	-0.012972144
55	0xba954de1	-0.0011391008
56	0xbc54c6dc	-0.012986865
57	0x3aa9c7d7	0.0012953234
58	0x80000156	-4.79e-43
59	0x00000149	4.61e-43
60	0xbb9a087b	-0.004700718
61	0xbca906b6	-0.020633083
62	0xbc547d06	-0.012969261
63	0x38b4d037	8.621852e-05
64	0x3a91c9c0	0.0011122748
65	0xb905367f	-0.0001270417
66	0x3a3f6809	0.0007301574
67	0x39386d24	0.00017588265
68	0x388b2ad9	6.6360175e-05
69	0xb9af813d	-0.0003347489
70	0x38f1b7ad	0.00011525988
71	0x3976a8f9	0.00023523335
72	0x3a44da11	0.0007509301
73	0x3a3fd1c4	0.00073173293
74	0xbb4c8864	-0.0031209225
75	0xb9a9cc8d	-0.00032386594
76	0xbacfeab9	-0.00158628
77	0xb9aa36a2	-0.0003246563
78	0x38db34c9	0.00010452566
79	0x00000074	1.63e-43
80	0x00000d60	4.798e-42
81	0xb787c905	-1.6186861e-05
82	0x38167677	3.5873116e-05
83	0xb9a3a2cc	-0.00031211076
84	0x3b54fe56	0.003250023
85	0xbb0a9453	-0.0021145537
86	0x3b953e45	0.0045545422
87	0x39b0d971	0.00033731342
88	0xba6ff2c2	-0.00091533
89	0xbad1b28b	-0.0015998645
90	0xbb3c3349	-0.0028717092
91	0x3ac41e07	0.0014962562
92	0xbb7ed038	-0.0038881432
93	0x3b2d7d51	0.00264724
94	0xba026523	-0.0004974177
95	0xbbe9e7c5	-0.007138225
96	0xbb3c052a	-0.0028689601
97	0xbaf18d74	-0.0018428997
98	0xbb3a0877	-0.0028386393
99	0x39c21fc3	0.00037026228
100	0x800001c5	-6.35e-43
101	0x00000007	1e-44
102	0xbb2fa32f	-0.0026800146
103	0xbb2032d2	-0.0024444354
104	0xbb3b7108	-0.0028601307
105	0x3b8408c9	0.0040293676
106	0xbb5dd354	-0.0033847885
107	0xbaef796b	-0.0018270438
108	0x3b5746bb	0.0032848555
109	0xbb138040	-0.0022506863
110	0xbbd9829f	-0.0066378857
111	0xbb843d17	-0.004035603
112	0x3ba4c97d	0.005028902
113	0xba88d353	-0.0010438956
114	0xbb8a0623	-0.0042121573
115	0x3a5523f3	0.0008130662
116	0x399fc3a9	0.0003047262
117	0xbb84d67c	-0.004053889
118	0xbb67fa2c	-0.0035396917
119	0xbb843c51	-0.0040355106
120	0xbc7fa074	-0.01560222
121	0x80000028	-5.6e-44
122	0x0000017e	5.35e-43
123	0x3c11424a	0.008865902
124	0xbc27d0f2	-0.010242688
125	0xbb84d7c3	-0.004054041
126	0xbb9aa625	-0.004719513
127	0x3bb764b6	0.0055967225
128	0xb960863b	-0.0002141231
129	0xbb19dcb8	-0.0023477506
130	0xbad11aaa	-0.0015953381
131	0x3b6bafa7	0.0035962851
132	0x3c03da69	0.0080476785
133	0xbbb1deea	-0.0054281848
134	0xbab62261	-0.0013895744
135	0x3b847556	0.004042308
136	0xbb5d7845	-0.003379361
137	0x3bb16bde	0.00541447
138	0x3c03a309	0.008034476
139	0x3b226112	0.0024777097
140	0x3c039b73	0.008032667
141	0x3bebfa37	0.007201459
142	0x000000a5	2.31e-43
143	0x80000038	-7.8e-44
144	0xbb76127a	-0.0037547634
145	0x3c2c6b12	0.010523574
146	0x3c03c28e	0.008041991
147	0xbb2a9cf2	-0.0026033488
148	0xbaaa0399	-0.0012971043
149	0xbb051325	-0.00203056
150	0xba970857	-0.0011522871
151	0x393fd387	0.0001829398
152	0xb9e82adf	-0.0004428243
153	0x3b875dc9	0.004131053
154	0xb9dca84d	-0.00042087064
155	0x3ac7e951	0.0015252029
156	0xbb3fb0a0	-0.0029249564
157	0xba514d8b	-0.0007984272
158	0x3a4e74e1	0.00078756927
159	0x3b86b06a	0.0041103857
160	0xbb2489e3	-0.00251066
161	0x3b869df2	0.004108184
162	0xba083080	-0.00051952153
163	0x800001af	-6.04e-43
164	0x00000045	9.7e-44
165	0x3afd5597	0.0019327876
166	0x3a3dedcc	0.00072452123
167	0x3b8787ae	0.0041360473
168	0x3b0e350a	0.0021699094
169	0xbbe8fb4a	-0.007110034
170	0xbab8e63d	-0.0014106702
171	0xbb5db141	-0.0033827575
172	0x3a115924	0.0005544594
173	0xbbeec70a	-0.007286911
174	0xbb867265	-0.0041029924
175	0x39e4cddd	0.0004364093
176	0x3abb3660	0.0014283173
177	0xbbd8aeb7	-0.0066126245
178	0xbb20b16a	-0.002451981
179	0xbb763923	-0.0037570677
180	0xbb864f1c	-0.004098786
181	0x3bb65efe	0.005565523
182	0xbb860be1	-0.0040907715
183	0xbc71b1e6	-0.014751887
184	0x000001dd	6.68e-43
185	0x800001bc	-6.22e-43
186	0x3beda1eb	0.007251968
187	0xbc4c9406	-0.012486463
188	0xbb86bd23	-0.0041119023
189	0xbce9b96f	-0.028530804
190	0x3dace912	0.08442892
191	0xbce08d4d	-0.027411127
192	0xbd543d57	-0.05181631
193	0xbdaa72f5	-0.083227076
194	0x3d75adc3	0.059980165
195	0x3d203e7e	0.039122097
196	0xbdc69030	-0.0969547
197	0xbd7e7440	-0.062122583
198	0x3d1965d7	0.037450638
199	0xbde816e1	-0.11332489
200	0x3dd7f2a6	0.105443284
201	0x3d2052e9	0.03914157
202	0x3e0954ae	0.13411209
203	0x3d2048b9	0.039131854
204	0x3dcb81fb	0.09936901
205	0x80000096	-2.1e-43
206	0x00000147	4.58e-43
207	0xbd49ea07	-0.04929545
208	0x3dcb1e5f	0.09917902
209	0x3d203b3f	0.039119
210	0x3c684cb8	0.014178447
211	0xbc35f341	-0.0111053595
212	0x3c150545	0.009095495
213	0xbc41ad83	-0.011821154
214	0x3aa4a699	0.0012561857
215	0xbcd02f40	-0.025413156
216	0xbcb6d3fe	-0.022317883
217	0xbbb7a41d	-0.0056042806
218	0xbb982913	-0.0046435683
219	0xb83ac365	-4.452783e-05
220	0xbc0fd954	-0.008779842
221	0x3bf22ebb	0.0073908246
222	0xbcb711c3	-0.022347337
223	0x3c4f00eb	0.012634496
224	0xbcb6e82a	-0.022327501
225	0xbc36b006	-0.011150366
226	0x80000091	-2.03e-43
227	0x000001a2	5.86e-43
228	0xba98198e	-0.0011604296
229	0xbd4f1c1e	-0.050563924
230	0xbcb6cd56	-0.022314709
231	0x3a6fc04f	0.00091457827
232	0x39c57b98	0.00037666853
233	0x388b22b0	6.6344975e-05
234	0x3a514f8e	0.0007984572
235	0x3900524a	0.00012237686
236	0x3a5f85e3	0.00085267256
237	0xba325ee6	-0.0006804302
238	0x3a21fd26	0.00061793847
239	0x38fa0b9b	0.00011923091
240	0x39a847ae	0.00032096863
241	0x3a4f458e	0.0007906788
242	0x3a9a4b06	0.0011771626
243	0xba319592	-0.0006774302
244	0xb9885b20	-0.00026007835
245	0xba32b762	-0.00068174873
246	0x3a5016f9	0.00079379935
247	0x000001a7	5.93e-43
248	0x80000014	-2.8e-44
249	0xb9ca4641	-0.00038580786
250	0x38199687	3.6618232e-05
251	0xba2b46db	-0.00065336906
252	0xbc1d7c3c	-0.009612139
253	0xbb4ea226	-0.0031529753
254	0x38d2db2f	0.000100544064
255	0xbb991b54	-0.004672447

exp_avg_sq f4 [48, 21]
0	0x3a1d5c57	0.00060028344
1	0x3a387c1f	0.00070375385
2	0x3a2d8dfe	0.0006620585
3	0x3a846544	0.001010098
4	0x3a140c58	0.00056475913
5	0x3abbf542	0.001434006
6	0x3aa957ce	0.0012919845
7	0x3ab1e832	0.0013573228
8	0x39dcb66a	0.0004209758
9	0x3a6ee1e7	0.00091126416
10	0x3a7c704f	0.00096297724
11	0x3a978163	0.0011558946
12	0x3aa95815	0.0012919927
13	0x3a895d6a	0.001048011
14	0x3aa9581d	0.0012919937
15	0x3b5519c9	0.003251659
16	0x15b931a5	7.479923e-26
17	0x18770cf0	3.1930534e-24
18	0x3ac720ed	0.0015192308
19	0x3b910376	0.0044254614
20	0x3aa957ca	0.001291984
21	0x37e4d46d	2.7278636e-05
22	0x3858afc0	5.1662093e-05
23	0x3859ca93	5.1925494e-05
24	0x38eaa2db	0.00011188324
25	0x38860e61	6.392296e-05
26	0x389ef246	7.579154e-05
27	0x3776194f	1.4668635e-05
28	0x3908a1af	0.00013030203
29	0x3895be95	7.140372e-05
30	0x389d25d7	7.4933916e-05
31	0x38b8cc33	8.811839e-05
32	0x38abda42	8.194569e-05
33	0x37761a8b	1.4668923e-05
34	0x38a560e2	7.885859e-05
35	0x37761859	1.46684115e-05
36	0x38bbcf9a	8.955524e-05
37	0x181f3a2b	2.0579636e-24
38	0x183bdf5b	2.428195e-24
39	0x38d24bc9	0.000100276964
40	0x38748e1e	5.830649e-05
41	0x37761889	1.4668455e-05
42	0x3c60a5ae	0.013711376
43	0x3bb6bdc9	0.0055768234
44	0x3c07787d	0.008268473
45	0x3b89b465	0.004202413
46	0x3bcb3f07	0.006202582
47	0x3b821278	0.003969487
48	0x3ccc6ece	0.02495518
49	0x3bebd996	0.007197569
50	0x3c3aac06	0.011393553
51	0x3c890e4b	0.016730448
52	0x3c0bece5	0.008540367
53	0x3c1bb6a4	0.009503994
54	0x3ccc6ece	0.02495518
55	0x3c85c7e4	0.016330667
56	0x3ccc6eda	0.024955202
57	0x3d13606c	0.035980627
58	0x1681281c	2.0866387e-25
59	0x177f79ca	8.2548663e-25
60	0x3d09d313	0.03364856
61	0x3d044579	0.032292817
62	0x3ccc6ecf	0.024955181
63	0x39248607	0.00015690188
64	0x391857b2	0.00014528519
65	0x393d97ab	0.00018080945
66	0x399b60bd	0.0002963598
67	0x39040c2f	0.0001259304
68	0x396323b5	0.00021661709
69	0x394795d6	0.00019033937
70	0x39aaa7cf	0.00032549954
71	0x39207050	0.00015300629
72	0x39532968	0.00020137953
73	0x397ac8e5	0.00023916697
74	0x39aac862	0.00032574224
75	0x394796ea	0.00019034339
76	0x39807bfe	0.00024506444
77	0x394796dd	0.0001903432
78	0x392eb811	0.00016662503
79	0x1700c14c	4.1603006e-25
80	0x120e2c0b	4.4861587e-28
81	0x398dd5a2	0.00027052785
82	0x39841312	0.0002519121
83	0x39479823	0.00019034794
84	0x39747ed8	0.00023316906
85	0x3998b9d1	0.00029130143
86	0x39549e69	0.00020276908
87	0x395c6fdb	0.00021022504
88	0x39460040	0.00018882845
89	0x3900850a	0.00012256592
90	0x3924fd6d	0.00015734667
91	0x398daad6	0.00027020898
92	0x393977c1	0.00017687587
93	0x398fe5e3	0.00027446364
94	0x397e327b	0.00024242133
95	0x39af6e27	0.0003346067
96	0x3924fdf0	0.00015734858
97	0x396e9814	0.00022754102
98	0x392503c4	0.00015737029
99	0x38e56be6	0.000109396686
100	0x17cd2c93	1.3259067e-24
101	0x183052a4	2.278919e-24
102	0x393f9cc5	0.0001827358
103	0x38e65e54	0.000109848246
104	0x3924ffa9	0.000157355
105	0x39814251	0.00024654207
106	0x3a504d7d	0.0007946117
107	0x3a0c74a7	0.0005357959
108	0x3a9a4ba6	0.0011771813
109	0x39999c60	0.00029298943
110	0x3a9d0494	0.0011979514
111	0x394e9eea	0.00019704891
112	0x3b140932	0.0022588489
113	0x3a0a1798	0.0005267798
114	0x3ad3374f	0.0016114506
115	0x3a884933	0.0010397792
116	0x39f6de72	0.0004708651
117	0x394ea522	0.00019707208
118	0x3b1d8fa7	0.0024041922
119	0x394e9ee2	0.0001970488
120	0x3bc49c72	0.006000095
121	0x187f6853	3.3010648e-24
122	0x16c5e53c	3.1971734e-25
123	0x3b310f57	0.00270172
124	0x3aff59e6	0.0019481748
125	0x394ea52f	0.00019707227
126	0x3b0f1164	0.0021830434
127	0x3aa0b43f	0.0012260749
128	0x3a66bedb	0.00088022434
129	0x3afc4b82	0.0019248577
130	0x3a3f88c6	0.00073064526
131	0x3aadde01	0.0013265015
132	0x3b966699	0.0045898673
133	0x3b56b39e	0.0032760869
134	0x396ae498	0.00022401137
135	0x3aa48a16	0.001255336
136	0x3afa8b73	0.0019115045
137	0x3b0d9be1	0.0021607804
138	0x3b966675	0.0045898505
139	0x3ab9bca8	0.0014170604
140	0x3b966668	0.0045898445
141	0x3b44245d	0.00299289
142	0x186ed922	3.0870403e-24
143	0x18752fb5	3.1689594e-24
144	0x3ad537e4	0.0016267267
145	0x3c0a3e1c	0.00843766
146	0x3b966687	0.004589859
147	0x38d7e11e	0.0001029393
148	0x38f3d454	0.00011626692
149	0x38f34c64	0.00011601372
150	0x39489569	0.00019129146
151	0x390bf6e4	0.00013348047
152	0x38f2f31f	0.00011584744
153	0x390d9789	0.00013503259
154	0x397f4bd5	0.00024346945
155	0x3935f29a	0.00017351881
156	0x391bab06	0.00014845663
157	0x399b39b5	0.000296069
158	0x394a3525	0.00019284019
159	0x390d9994	0.0001350402
160	0x39a2f0de	0.00031078508
161	0x390d99cf	0.00013504106
162	0x3950a693	0.0001989848
163	0x17eb2ee3	1.5198355e-24
164	0x1795fb1f	9.692291e-25
165	0x3947c11c	0.00019050058
166	0x3872c50e	5.7880818e-05
167	0x390d970e	0.0001350308
168	0x3c13fdd9	0.00903269
169	0x3c426879	0.011865729
170	0x3bdc82e2	0.0067294696
171	0x3c48b0fd	0.012249229
172	0x3c3c98ef	0.011511072
173	0x3c2585cf	0.010102703
174	0x3c8b23a1	0.016984763
175	0x3cc5b081	0.024132015
176	0x3c97dbb5	0.018537382
177	0x3c996f11	0.018729718
178	0x3cdcda6e	0.026959624
179	0x3c316c29	0.01082901
180	0x3c8b2397	0.016984744
181	0x3d4725bf	0.04861998
182	0x3c8b2393	0.016984737
183	0x3d6c4228	0.05768028
184	0x188a519f	3.575458e-24
185	0x1864c381	2.9567014e-24
186	0x3d136e32	0.035993762
187	0x3d2a026d	0.04150622
188	0x3c8b23a0	0.01698476
189	0x3e5f230d	0.21790715
190	0x3e8d023b	0.27540764
191	0x3de6740b	0.11252602
192	0x3e18688d	0.14883633
193	0x3e5203e1	0.20509292
194	0x3e3c633c	0.1839723
195	0x3edac64c	0.42729414
196	0x3ed07d25	0.40720478
197	0x3e998467	0.29983827
198	0x3eb9c5c4	0.36283696
199	0x3ebf69cb	0.373854
200	0x3e5de015	0.21667512
201	0x3edac65e	0.42729467
202	0x3f602357	0.87553924
203	0x3edac655	0.4272944
204	0x3f78d52d	0.9720028
205	0x17883d4f	8.80427e-25
206	0x183b404f	2.4201651e-24
207	0x3f32dce4	0.698683
208	0x3f69a924	0.91273713
209	0x3edac646	0.42729396
210	0x3c8e835f	0.017396627
211	0x3c217865	0.009855364
212	0x3c4e4984	0.01259077
213	0x3b5c4409	0.0033609888
214	0x3c27b1dc	0.010235276
215	0x3c0adcb9	0.008475476
216	0x3cee90ed	0.02912184
217	0x3c1badc6	0.00950188
218	0x3c6800df	0.014160364
219	0x3c8e6f48	0.017387047
220	0x3c735f43	0.014854255
221	0x3ca8d432	0.020608995
222	0x3cee90b4	0.029121734
223	0x3cbb4d00	0.022863865
224	0x3cee90d7	0.0291218
225	0x3d1183a2	0.035525925
226	0x165262dd	1.6994861e-25
227	0x15f06c50	9.7106115e-26
228	0x3cc503e7	0.024049712
229	0x3d3df107	0.04637244
230	0x3cee90fd	0.02912187
231	0x381ba97d	3.7112728e-05
232	0x38b26c3a	8.50786e-05
233	0x389cc727	7.475755e-05
234	0x38dd4fd1	0.00010552968
235	0x39023d82	0.0001242068
236	0x38a2faa6	7.771449e-05
237	0x37c06f55	2.2940027e-05
238	0x3921f3c5	0.00015444968
239	0x391448ae	0.00014141455
240	0x38f5a016	0.00011712329
241	0x3950f12c	0.0001992627
242	0x38dd7053	0.00010559023
243	0x37c06ddd	2.2939343e-05
244	0x3954d86d	0.0002029852
245	0x37c07016	2.2940378e-05
246	0x3916d657	0.00014384963
247	0x128f1cae	9.031639e-28
248	0x158a2940	5.580284e-26
249	0x391a6b86	0.0001472664
250	0x38309945	4.2104413e-05
251	0x37c0626e	2.2934018e-05
252	0x3a9bd498	0.0011888919
253	0x3a82a2f4	0.0009966777
254	0x39f9d922	0.00047654758
255	0x3a48bf40	0.0007657893

exp_avg f4 [48]
0	0xbb836c35	-0.004010702
1	0x3b23eebb	0.002501412
2	0xbbc9b888	-0.006156031
3	0xbb1dfcc4	-0.002410696
4	0xba17a550	-0.00057848264
5	0xbbe80353	-0.0070804744
6	0x3aafa3a9	0.0013400215
7	0x3b22ef77	0.002486197
8	0xbbde6170	-0.006786518
9	0x3db7032d	0.089361526
10	0x3c889f41	0.0166775
11	0x3b0cac72	0.002146509
12	0x3b7c59da	0.0038505704
13	0xbb61335d	-0.003436289
14	0x3bc2963a	0.0059383186
15	0x39d29bf0	0.00040170504
16	0xb831b3de	-4.2367603e-05
17	0xba0c04a5	-0.0005341268
18	0x3b76c5e8	0.0037654582
19	0x3b8e394f	0.004340328
20	0xbab16caf	-0.0013536419
21	0x3a7f5ee7	0.00097416196
22	0x3b8de32e	0.0043300604
23	0x3b23694b	0.0024934586
24	0x3b6a5751	0.003575761
25	0x3b505fb0	0.0031795315
26	0x3a7de09f	0.0009684655
27	0xbb62a6f5	-0.0034584377
28	0x3d8aec3c	0.067833394
29	0xb9a029b8	-0.0003054866
30	0xbc50a1da	-0.012733901
31	0x3bab2e03	0.005223991
32	0x3b9fde77	0.004878815
33	0x3a173334	0.0005767823
34	0xb9e642a4	-0.0004391867
35	0xbbc47947	-0.0059959027
36	0x3a4e3eab	0.00078676146
37	0x3c37d8b3	0.011221099
38	0xba17d460	-0.0005791839
39	0x3a9d51c3	0.0012002516
40	0x3c27e1be	0.010246692
41	0x3a986cf4	0.001162915
42	0xbc22e131	-0.009941385
43	0x3b9ca050	0.004779853
44	0x3a7e7c49	0.0009707851
45	0x3b8f347b	0.00437027
46	0x3a920b45	0.0011142275
47	0xbb2e982d	-0.0026640997

exp_avg_sq f4 [48]
0	0x39de95ff	0.00042454895
1	0x3985be16	0.00025509362
2	0x3c012cc7	0.007884211
3	0x3a27a833	0.0006395608
4	0x3a1a0062	0.0005874691
5	0x3a9e0ce6	0.0012058287
6	0x3b112853	0.002214928
7	0x39b838f4	0.00035137648
8	0x3ca95140	0.020668626
9	0x3eba5ecd	0.36400452
10	0x3bc9326e	0.006140045
11	0x3957262e	0.00020518221
12	0x3a060924	0.00051130564
13	0x3b57fc79	0.0032956882
14	0x398c4a99	0.0002675846
15	0x3738915d	1.10011e-05
16	0x366a291e	3.489265e-06
17	0x3b12eb9a	0.0022418262
18	0x39bb03ae	0.0003567016
19	0x3ba26622	0.004956023
20	0x3aafeb72	0.0013421609
21	0x39fd6dd5	0.00048337752
22	0x39455673	0.00018819589
23	0x39888d4b	0.00026045213
24	0x3a5601e6	0.0008163735
25	0x3a0437e7	0.00050437305
26	0x38fbc0ff	0.00012004561
27	0x392d36fd	0.0001651905
28	0x40510aaf	3.266277
29	0x36841cca	3.937258e-06
30	0x3a69730d	0.00089053885
31	0x3bf51e8c	0.007480448
32	0x3a9804e0	0.0011598133
33	0x3877990f	5.9031936e-05
34	0x38d7a65c	0.00010282986
35	0x3ae0daec	0.0017155088
36	0x397fab91	0.00024382609
37	0x3a1d2229	0.0005994165
38	0x3999378e	0.00029223826
39	0x39e3c09f	0.00043440328
40	0x3c030415	0.007996579
41	0x394dd75c	0.00019630551
42	0x3b48f279	0.0030662103
43	0x3ab27753	0.0013615884
44	0x3b755820	0.003743656
45	0x3c0cf04e	0.008602215
46	0x38966e50	7.173105e-05
47	0x39f571ea	0.00046814914
