backend/data/models_fixed_span_12ft/neural_v1.pt (torch, 58478 bytes, 48 tensors)

model.0.weight f4 [48, 16]
000000 a4 c3 96 be 2c d8 f0 bd 46 36 e4 bc bb 8e 49 3d
       -0.29446137 -0.117599815 -0.02785791 0.049208384
000010 38 0e a3 bd c4 d0 83 be a9 c6 0a 3e 3d 70 36 bd
       -0.079616964 -0.25745213 0.13552345 -0.044540633
000020 ef 79 8d be 9a 26 5c 3e 0c d0 84 be 1b 3f c1 3c
       -0.2763209 0.214991 -0.25939977 0.023589661
000030 bf c1 2d bd c9 9b 8a bd 01 a4 28 3d 9e 60 39 3e
       -0.0424211 -0.06767995 0.04117203 0.18103263
000040 f1 18 b1 3e 85 5e 0d be b4 c1 a8 3d 61 f3 37 3e
       0.3458934 -0.13805588 0.08240071 0.17963935
000050 a0 8c af bc 6b 64 19 be 6d 3b cd bd e6 aa a8 bd
       -0.02142936 -0.14979713 -0.100211 -0.08235721
000060 be fd a9 3b 8f 18 db bd 65 78 2b 3e 79 0f d1 bc
       0.005187719 -0.106980436 0.16745146 -0.025520073
000070 42 8d af be c8 0a 9d 3d 4b 4f a7 be 0c 73 cb bd
       -0.3428746 0.07668072 -0.32677683 -0.09934053
000080 7b cd 61 bc 50 a1 5d be 07 fa 91 3d c7 ba 05 bd
       -0.0137819005 -0.21643567 0.07127767 -0.032648828
000090 12 e7 71 be 23 db 01 3f 43 ca 21 be 18 68 8f 3e
       -0.23623303 0.50725 -0.15799813 0.28009105
0000a0 b9 44 5f 3d c7 59 ac 3d 10 32 ac 3d ae b0 17 bd
       0.0545089 0.08415561 0.08407986 -0.03703373
0000b0 42 60 66 bd f0 62 db bd 57 09 2e be 6a 3f 1a 3e
       -0.056244142 -0.1071223 -0.1699575 0.15063253
0000c0 89 80 bd 3c 3d aa 7d 3d fe 27 4f be 86 89 80 bd
       0.02313258 0.06192993 -0.202301 -0.062762305
0000d0 14 d7 93 3e e4 da 0f be ed e9 fa bd a5 66 16 bd
       0.2887503 -0.14048344 -0.12251649 -0.036718983
0000e0 5d 96 a8 3e d0 06 00 bc 2a 5b 1c 3e 2e 7a 5c 3d
       0.32927218 -0.007814124 0.15269151 0.053827457
0000f0 f7 36 b2 3d d6 42 e7 bc c9 7a 41 3e 95 36 81 be
       0.0870189 -0.028230112 0.18894495 -0.25236955
000100 7b d3 ee bd 72 76 39 be 32 b7 26 3e 76 cb 21 3e
       -0.116614304 -0.1811159 0.16280821 0.1580027
000110 da 29 bd bd 73 0c ba 3e 88 15 3f 3d 7d 06 08 be
       -0.09236498 0.36337623 0.046651393 -0.13283725
000120 7b ea 80 3d bc 49 cd bd 36 14 d0 3c cc e7 d0 bc
       0.062947236 -0.10023829 0.025400262 -0.025501154
000130 17 f9 69 be cf 62 3a 3d aa e5 78 be af b5 6c bb
       -0.22848926 0.045504387 -0.2430636 -0.0036119034
000140 cd 16 93 39 ca 22 c2 3a a1 19 a4 b8 1d 2d a2 ba
       0.00028055013 0.0014811393 -7.824903e-05 -0.0012373064
000150 b5 18 c9 38 f1 6b 3b b7 1c a9 fd bb 83 c9 07 bc
       9.589029e-05 -1.1171201e-05 -0.0077411067 -0.00828779
000160 38 c6 f7 b7 80 c2 0c 3b 8a 1b e0 ba b5 a4 c6 3a
       -2.9536997e-05 0.0021478236 -0.0017098051 0.0015155288
000170 03 b2 17 3c ce df 12 bc 10 01 10 3b e1 24 77 3b
       0.00925875 -0.008964492 0.002197329 0.003771119
000180 cf ef 8d 3b bd a4 56 3e c1 d9 81 3e 6f d6 23 be
       0.004331566 0.2096128 0.25361446 -0.15999769
000190 c7 53 cf ba 3e 3f df bd 0e 4f 8f ba 8b 38 df 3d
       -0.0015817814 -0.10900734 -0.0010933594 0.108994566
0001a0 32 f1 e5 bd e2 2a 51 3e 5a bd 15 3d c3 ba c6 3e
       -0.11227645 0.20426515 0.036557533 0.38814363
0001b0 24 59 35 3c 7d 8d 4f bd d7 f1 04 3d 78 ce 37 3e
       0.011068616 -0.050672043 0.0324572 0.17949855
0001c0 4e 7d d5 3e d8 0b 4b be 0f c6 d5 bd 09 a5 6b 3e
       0.41697162 -0.19828737 -0.10438167 0.23012175
0001d0 c1 ab 4d bc 75 62 8b bd 5e 85 67 3c 2e 9d 8e 3d
       -0.012553156 -0.068058886 0.014130918 0.069635734
0001e0 73 a9 63 3e dc 9d 3c 3e fe d9 1c bd c0 54 59 bd
       0.22232608 0.18419594 -0.03829383 -0.05305934
0001f0 2c c6 fe bd cd ca 0d 3d e6 33 06 3d 7f af d8 bd
       -0.12440142 0.034617234 0.032764338 -0.10580348
000200 47 2e 59 be 86 98 2b 3e ae f8 33 3d ad 09 07 3e
       -0.2120906 0.16757402 0.04393833 0.13187285
000210 5f 29 15 3e 1e 66 bf be 32 cc 8f 3e 80 de 96 3d
       0.14566563 -0.37382597 0.28085476 0.07366657
000220 ae 77 35 be 72 21 82 bd bd 43 95 be 18 04 32 3d
       -0.17721435 -0.063540354 -0.29153243 0.043460935
000230 b6 ad 1d bd de 06 df bd 97 04 75 bd 0b 5a 1e 3e
       -0.03849574 -0.10889982 -0.05981883 0.15464036
000240 07 41 28 3e e8 d8 0b 3e b3 07 9c be f0 25 03 bb
       0.16431056 0.13656962 -0.30474624 -0.0020011626
000250 85 ce 8d 3e 24 fb b7 be de a1 b4 3d e3 a0 87 3d
       0.27696624 -0.35933793 0.08819936 0.066224836
000260 9e 2b 4b 3e f0 c8 a7 3d 6b 1f b2 3c ec 6c be bd
       0.19840857 0.08192623 0.021743497 -0.09298119
000270 81 db 03 be 39 71 1b be ce 4e c2 3d c3 e2 18 bd
       -0.12876703 -0.1517991 0.09487687 -0.03732563
000280 f9 49 46 be 2d b5 8e be 4f 55 4f bc 98 89 56 be
       -0.19364156 -0.278726 -0.0126546165 -0.20950925
000290 6c 76 8d 3d 32 c0 e9 bd 2d 06 c7 3d c0 2a 67 be
       0.06907353 -0.114136115 0.09717975 -0.22574902
0002a0 6e 14 f4 3c f3 7f 0e be 1b 31 b5 be 53 25 5d bd
       0.029794898 -0.13915996 -0.35389027 -0.053990673
0002b0 6d ff fd bb ee b0 d4 bd ec 48 cb 3d 94 0b 50 3e
       -0.0077513964 -0.10385309 0.09926018 0.20316917
0002c0 43 6c 98 3b 88 83 14 3e 2f 95 24 3c fb be aa 3b
       0.0046515777 0.145033 0.010045334 0.005210755
0002d0 ac 4c 3c 3d 9e cf 25 3e f9 01 6e bc d6 b1 47 bd
       0.045971557 0.16192481 -0.0145268375 -0.048753582
0002e0 35 4d ab 3c d6 6a e4 3d 57 80 95 3c 6b 03 16 3b
       0.020910839 0.1115319 0.018249674 0.002289022
0002f0 ad b6 c7 bd 15 b6 d1 bc 49 32 0a 3e 88 d7 9e bd
       -0.097516395 -0.025599519 0.13495745 -0.07755953
000300 64 68 87 3e dd 88 33 be 80 1b b8 3a c5 08 aa bd
       0.2644683 -0.17532678 0.0014046282 -0.08302454
000310 61 e1 ea 3c 7c c3 a5 be 24 f8 62 be e2 6e 96 3d
       0.028671922 -0.32375705 -0.2216497 0.07345368
000320 93 ac dc bc 50 e8 46 bd 8d 53 08 3e f9 09 20 bc
       -0.026937759 -0.048561394 0.13313122 -0.009768003
000330 ce 49 e3 3d 1a dd 85 3d f5 d0 0b be 7d c1 a6 bd
       0.110980615 0.065363124 -0.1365393 -0.08142374
000340 16 69 70 be 19 ed 25 3d 73 67 7e bc e2 3a d2 3d
       -0.23477587 0.040509317 -0.015527594 0.10265137
000350 47 01 ba 3d 2b 76 34 be 3c 44 53 3e f4 50 ef bd
       0.09082275 -0.17623203 0.20631498 -0.116853625
000360 93 cb 3c be 77 19 53 3d 51 62 42 be 97 b6 0c bc
       -0.18437032 0.051537957 -0.18982817 -0.008588455
000370 67 2e 78 bd b9 4c 27 bd 0f 51 46 bd 01 19 b4 bc
       -0.060591128 -0.040844653 -0.048417147 -0.021984579
000380 e9 c2 8e 3e a4 2c 00 3e 08 e7 70 3d d5 95 45 be
       0.2788308 0.12517029 0.05881408 -0.19295438
000390 48 32 a8 bb ff b6 24 bf 1b 95 ad 3d a8 f4 77 bd
       -0.005132947 -0.6434173 0.08475705 -0.060536057
0003a0 4c 3e 91 bc 78 72 35 bd 77 3d e7 3c c5 6d 2e 3d
       -0.0177299 -0.04429862 0.02822755 0.042585153
0003b0 c2 77 42 3d bf 60 af 3d f0 82 6c 3b fb 75 b1 be
       0.04747749 0.08563375 0.0036088787 -0.34660324
0003c0 09 8e 2a 3e f2 b6 d8 3c a6 de 34 bc 3b 80 f4 3d
       0.16655745 0.026454423 -0.011039412 0.119385205
0003d0 17 71 80 be 43 c1 cd be 59 93 8f 3d e2 4f f7 bc
       -0.2508628 -0.4018651 0.07010526 -0.030189458
0003e0 56 2f a9 3c a8 bd 14 3e 81 5f 10 be ef a0 59 3d
       0.020652454 0.14525473 -0.14098932 0.053131994
0003f0 ca 46 17 3e c6 02 30 bd 04 b7 66 3c 8c fb 43 3e
       0.14773098 -0.042971395 0.01408172 0.19138926

model.0.bias f4 [48]
000000 88 11 36 be f1 e7 94 be d3 26 b2 bd 94 cd f5 bb
       -0.17780125 -0.29083207 -0.086988114 -0.0075013135
000010 39 5a d3 3e bb b8 44 bd 23 55 f4 be 9d f0 73 3e
       0.41279772 -0.048027735 -0.47721204 0.23822255
000020 c2 8a f6 3e 48 40 f0 bd e0 26 cd be 4a 82 e1 be
       0.4815274 -0.11731011 -0.40068722 -0.44044715
000030 2f 89 8f 3e 49 9a 4c 3f 63 6e cd bd 37 12 f7 3d
       0.2803435 0.7992292 -0.1003082 0.12064021
000040 60 9c db be fd e2 cf be 15 f3 dd be d8 28 ca 3e
       -0.42892742 -0.40602866 -0.4334952 0.39484286
000050 72 58 95 be dd 37 ca 3d cd 58 d8 be 7d 62 0e bf
       -0.2916904 0.09873936 -0.4225525 -0.5561903
000060 f3 f1 38 bf f0 86 57 3c ad 47 22 bf 1e df 0c bf
       -0.72244185 0.01315473 -0.6339062 -0.5502795
000070 0f b6 07 3d 35 07 b8 be 9c 88 58 3b 73 d0 6c bd
       0.03313261 -0.35943 0.003304041 -0.05781598
000080 1b e9 ce be 3f ac d7 3c 1c 32 e5 be 03 d8 ed be
       -0.4041222 0.02632725 -0.44764793 -0.46453866
000090 c0 a1 9b be 13 7e 9a be 0f b6 1d be 64 58 6c be
       -0.30396843 -0.30174312 -0.15401481 -0.23080593
0000a0 ef db 3e 3f 40 68 6f be 7e 0f 81 bd aa c4 f1 be
       0.7455434 -0.23379612 -0.06301783 -0.47220355
0000b0 df 8c 34 3c 27 72 c4 be 92 f7 ca be ef 54 6c 3d
       0.011019914 -0.3836834 -0.39642006 0.057698186

model.2.weight f4 [48]
000000 46 0b 32 3f ad a0 7a 3f 9e 8d 52 3f f2 24 5c 3f
       0.6954845 0.9790142 0.8224734 0.85993874
000010 04 19 54 3f a5 87 36 27 bf 85 4d 3f 41 81 7e 3f
       0.8285067 2.5331107e-15 0.80282205 0.99415976
000020 a3 f1 33 3f 29 31 68 3f 82 31 51 3f ff 0b 6e 3d
       0.70290583 0.9070001 0.8171617 0.05811691
000030 ae 42 85 3f 57 94 12 3f bd 57 66 3f 2e d5 2c 3f
       1.0410974 0.572576 0.8997763 0.67512786
000040 0d c4 78 3f 1c 58 51 3f c0 0d 4f 3f 2f e1 83 3f
       0.9717415 0.8177507 0.80880356 1.0303096
000050 ea 75 53 3f 54 3e 8a 3f 35 69 3d 3f d5 5d 54 3f
       0.826018 1.0800271 0.7398866 0.82955676
000060 ae f7 7d 3f 5d af 7e 3f 2f f4 70 3f 16 af 2c 3f
       0.99206054 0.99486333 0.94122595 0.6745466
000070 29 c5 7c 3f 14 0d f7 3c 9a 6c 84 3f 01 ac 4c 3f
       0.9873834 0.030157603 1.0345643 0.7994996
000080 43 0a 59 3f 1b c5 2e 3f b9 37 34 3f 1f 98 66 3b
       0.84781283 0.6826951 0.70397526 0.0035185886
000090 e1 9c 69 3f 11 5d 64 3f 1f d6 42 3f 3f 9e 4b 3f
       0.91255003 0.8920451 0.7610797 0.7953834
0000a0 41 9f 13 3f fc ec 43 3f 4f de 21 3f a8 fb 65 3f
       0.5766488 0.76533484 0.6322984 0.8983712
0000b0 86 3b 41 3f 12 54 5b 3f d2 eb 4b 3f 11 02 65 3f
       0.7548145 0.85675156 0.7965671 0.8945628

model.2.bias f4 [48]
000000 96 e8 01 be 38 bc 4f be d6 10 4e 3e 81 ad ab 3e
       -0.1268638 -0.20286644 0.2012361 0.3353081
000010 0d 1e 16 3e 46 4c b3 be 8f 2b e8 be 65 51 31 3d
       0.14659901 -0.3501913 -0.45345733 0.043290514
000020 68 cd ca bd a9 92 83 3e 7d 58 78 be 90 0a 37 be
       -0.099024594 0.2569783 -0.24252506 -0.17875123
000030 bf 66 d0 3e 1b e9 8a bd 5d 38 bc 3e 88 11 a2 be
       0.4070339 -0.067827426 0.36761752 -0.31654
000040 4a dd 8f 3c 61 53 cf 3c ae d3 96 be cd c8 d7 3e
       0.017561574 0.025308313 -0.29458374 0.42145386
000050 7c fb d0 be c9 e0 7b 3e 29 a4 8c 3d cc 9b 9a be
       -0.40816867 0.24597467 0.068672486 -0.3019699
000060 5c 46 a8 be 0e e6 04 bd de 70 ed be 74 00 96 be
       -0.3286618 -0.03244596 -0.46375173 -0.2929722
000070 e2 59 90 3e 8d 53 ba be 5d bb 5a 3e 34 71 11 3d
       0.28193575 -0.3639187 0.21360536 0.03550835
000080 e1 3b ca be 7d 24 a6 bc e8 a1 1e be e4 b8 bb be
       -0.3949881 -0.02028107 -0.1549145 -0.36664498
000090 87 67 79 bd 7e b3 35 3e 68 f0 82 bd 78 79 b6 be
       -0.060889747 0.17744252 -0.0639351 -0.35639548
0000a0 dd e5 97 3c b5 b2 7b 3d e6 ca 87 be e2 17 ee be
       0.018542225 0.061449725 -0.26521987 -0.46502596
0000b0 c6 2d ca 3d 6e e6 22 be 85 54 5d be b2 01 4b 3e
       0.09872012 -0.15908214 -0.21614273 0.19824865

model.2.running_mean f4 [48]
000000 ef 4a 11 3e ee a3 e1 3d 98 10 25 3e 66 4d 64 3e
       0.14188741 0.11017595 0.16119611 0.2229515
000010 52 d0 c1 3e 04 00 00 00 6d 03 0b 3d 45 40 8b 3e
       0.37854248 6e-45 0.033938814 0.2719747
000020 08 be 0b 3f 77 3f e8 3d 2c 4d 6e 3d 04 00 00 00
       0.5458684 0.1134023 0.058179066 6e-45
000030 30 8a 9c 3e 32 9c 4d 3f 78 12 2c 3e aa 54 83 3e
       0.3057418 0.8031646 0.1680392 0.2565053
000040 f6 7f e3 3c 20 cb 99 3c 50 ec f6 3a 16 1e cf 3e
       0.027770977 0.018773615 0.0018838737 0.4045264
000050 bd 81 9f 3d 7f d2 6f 3e d6 d0 ca 3a fa 80 6d 3d
       0.077884175 0.23420142 0.0015473615 0.05798433
000060 de b8 31 3b 0c ac 68 3e ac 18 56 3b 99 13 de 3c
       0.0027118246 0.2272188 0.0032668514 0.027108954
000070 69 ca 4f 3e 04 00 00 00 97 ed 82 3e 93 06 82 3e
       0.20292057 6e-45 0.25571892 0.2539564
000080 48 79 91 3d a0 43 21 3e c3 e7 bc 3b 04 00 00 00
       0.07103211 0.15748453 0.005764933 6e-45
000090 b7 f9 83 3d e3 ce 85 3d a3 a2 9c 3d ff 76 c2 3d
       0.06444114 0.06533601 0.07648208 0.09495353
0000a0 f8 4c 3f 3f cd 4c 30 3d fa 9e f8 3d 96 3f ff 3c
       0.7472682 0.043041993 0.121396974 0.03115825
0000b0 db 3a a4 3e 13 5f b8 3d 15 80 9d 3d 8a 46 8d 3e
       0.32076153 0.09002509 0.07690445 0.2759288

model.2.running_var f4 [48]
000000 93 d6 6e 3d fe d4 18 3d 79 c7 86 3d 10 6d e3 3d
       0.058310103 0.0373125 0.06581015 0.111047864
000010 31 c1 9f 3d 04 00 00 00 64 35 c2 3b 4a aa 99 3d
       0.0780052 6e-45 0.005926775 0.07503183
000020 da ea d8 3d 80 db 15 3d b2 2d 99 3c 04 00 00 00
       0.105916694 0.036586285 0.018698547 6e-45
000030 05 14 b1 3d 7a 36 b9 3d b6 7a 88 3d 59 b5 6f 3d
       0.086463965 0.09043594 0.0666403 0.058522556
000040 9b bd 08 3c a2 b1 28 3b 1e 54 5e 39 0b 07 c2 3d
       0.008345987 0.0025740643 0.00021202906 0.094739996
000050 9a 34 fb 3c 97 34 b5 3d 1d 1e ce 38 29 df df 3c
       0.03066473 0.08847921 9.8284545e-05 0.02732809
000060 b3 5c 34 3a 1b 8e ca 3d 20 5d ee 39 8e 3d 2a 3c
       0.00068802683 0.09890386 0.0004546428 0.010390652
000070 9e 15 9b 3d 04 00 00 00 d2 a7 3a 3e 5d da ed 3d
       0.075724825 6e-45 0.18228081 0.11613915
000080 e6 fc c6 3c d9 86 3f 3d d7 08 66 3a 04 00 00 00
       0.024290513 0.04675946 0.0008775121 6e-45
000090 ce f0 9e 3c 32 f4 d2 3c d1 37 b6 3c 7a e0 13 3d
       0.019401934 0.025751207 0.022243412 0.03610275
0000a0 3b 87 a3 3d a6 d3 35 3c 2f f4 16 3d 39 19 17 3c
       0.079847775 0.011097824 0.036853965 0.009222322
0000b0 95 6b 37 3e bb 57 18 3d 82 59 d8 3c 4a 2c f7 3d
       0.17912133 0.03719304 0.026409868 0.12068994

model.4.weight f4 [24, 48]
000000 42 61 3b 3d dc a4 3f bd 1d 66 04 bb 6e c5 0a 3d
       0.04574705 -0.04678808 -0.0020202466 0.03387969
000010 d7 8f 81 be 2a f4 38 be 53 af 76 3d 9a 1d 41 be
       -0.25305054 -0.18061891 0.060225796 -0.18858948
000020 08 2a 82 3e 4e b9 1e be b1 c3 04 be ea 7d 40 bd
       0.25422692 -0.15500376 -0.12965275 -0.04699508
000030 dc e4 e7 bc 9e 5d 04 3e f5 db 74 3e 8f df ae 3d
       -0.02830737 0.12926337 0.23912032 0.08538734
000040 12 37 3b 3e a6 5c dd bc d1 1b 67 3d b8 1c 8e bd
       0.18282726 -0.027021717 0.056423012 -0.069390714
000050 1f 97 92 bd 46 a0 eb 3d e6 d9 37 be 76 33 0e bc
       -0.0715773 0.11505179 -0.17954215 -0.008679261
000060 ca c6 df bc 54 91 13 be e7 65 bb bd 2e dc 18 bd
       -0.02731647 -0.14410907 -0.09150296 -0.037319355
000070 a6 8b cc bc 32 c6 52 be 81 4b a1 3d 80 34 79 3e
       -0.024968933 -0.20583418 0.07875729 0.24336433
000080 49 de 3e 3c 34 25 2a 3d e5 87 2a 3e 42 51 f8 bd
       0.011649677 0.041539386 0.16653402 -0.12124874
000090 2a ef 08 be 33 56 e9 3d 2f 25 84 3e bd c8 8f 3b
       -0.13372484 0.11393394 0.2580962 0.0043879435
0000a0 57 7d 09 3d aa d8 e0 bd aa 94 be 3d da 7b 53 bd
       0.0335668 -0.109788254 0.09305699 -0.051631786
0000b0 ee 46 da 3d f4 7c 23 bd 0e 5d 46 be bb b9 54 3e
       0.1065806 -0.039914086 -0.19371435 0.20773976
0000c0 09 20 85 bc e6 93 6e 3d a0 12 0c be 34 89 86 bd
       -0.016250627 0.058246516 -0.1367898 -0.06569138
0000d0 dd f2 c3 bd ee 96 6f 3e 59 88 35 3e f9 43 a0 3d
       -0.09567807 0.23397419 0.17727794 0.07825465
0000e0 b5 97 ac bc b7 be 9e bd e6 43 70 3d 13 24 ca 3c
       -0.021068433 -0.0775122 0.058658503 0.024675405
0000f0 1b 47 70 3d 29 a2 d6 3c be 46 3b be 5b 0e 1b 3c
       0.05866156 0.02620037 -0.18288705 0.009463872
000100 d8 23 b2 3d fd d9 73 3d 52 ce 68 3e 71 3b e5 bc
       0.08698243 0.05953406 0.22734955 -0.027982445
000110 31 ed 9c 3d c1 70 4c be 50 85 92 bd af 84 cf 3b
       0.07662428 -0.19964887 -0.071543336 0.006332956
000120 9d b0 d5 3b a1 6e 3f bc 64 82 de 3c 52 bc 04 3e
       0.006521298 -0.011684091 0.027161784 0.12962463
000130 fc ca a0 3d df c0 04 3e d7 b7 10 be 49 fc 0f 3e
       0.07851216 0.129642 -0.1413263 0.14061083
000140 77 c4 a4 3e 03 11 d9 3c 46 59 43 bd bb 28 d9 3d
       0.3218114 0.02649737 -0.04769256 0.10603472
000150 9d d3 cb bd 2d e4 3a bd 15 87 54 bc 0e da 69 3b
       -0.099524714 -0.04562776 -0.012971659 0.003568295
000160 32 ae 4f 3d e9 8a aa 3d c2 49 7c bb a6 3a 2d 3d
       0.050703235 0.08327276 -0.0038496112 0.04229226
000170 8b 3f 10 3e 26 f5 81 3e 4a e8 89 bd 74 43 00 3c
       0.1408674 0.25382346 -0.06733759 0.007828582
000180 96 38 23 3e 74 d0 47 bd 6b d1 c7 3c 70 67 84 bc
       0.15939555 -0.04878278 0.02439185 -0.016162604
000190 31 fa 60 be a2 e3 90 bd ed 90 fa 3c 2d e5 37 be
       -0.2197044 -0.070746675 0.030586684 -0.17958517
0001a0 41 1c 7c 3e 54 a5 96 bd 80 c2 7c 3c 11 60 8d 3d
       0.24620153 -0.073557526 0.015427232 0.06903089
0001b0 5f e7 9c 3d 89 dd 2f 3e c8 3c 0a 3e 9e ef da bc
       0.07661318 0.17174353 0.13499749 -0.026725587
0001c0 f9 77 b6 3d c0 72 84 bd 94 b1 49 3e 98 1e 1f bb
       0.08909602 -0.06467199 0.19696647 -0.002427971
0001d0 7d 2b 07 3d d3 ff b0 3c e4 a3 68 bd 91 90 37 3d
       0.033000458 0.021606361 -0.056796923 0.044815604
0001e0 42 3b 81 3d 75 2a 81 bd 8d e7 1e 3c 63 c6 14 3e
       0.06310131 -0.06306926 0.009698761 0.14528804
0001f0 76 c8 09 3e 7b 86 b3 3c 22 df 8a bd e9 1e 88 3e
       0.13455376 0.021914711 -0.067808405 0.26586083
000200 a8 27 56 3e 48 04 bb 3d 62 27 cd 3d 13 42 e7 bb
       0.20913565 0.09131676 0.10017277 -0.007057437
000210 1e 12 3f bd c3 ec 0f be 20 72 b8 3d 2a 9c e1 3d
       -0.046648137 -0.14055161 0.090061426 0.11016114
000220 f7 44 5d 3d 39 38 af be af 1a 93 3c 7e 28 57 bd
       0.054020848 -0.34222582 0.01795706 -0.05252885
000230 49 65 5a 3e 82 f4 86 3e 26 14 1d bd 4b d0 1f 3e
       0.213277 0.2635842 -0.038349293 0.15606801
000240 af 31 09 3e 04 7b c9 3c 20 8a 06 be fc 0c 6b bc
       0.13397859 0.024594791 -0.13138628 -0.014346357
000250 76 16 04 3d 63 d8 32 3a 01 dd 10 3d 37 9d 1d be
       0.032247983 0.0006822405 0.035367016 -0.15392004
000260 3d 6d 95 3b 8a 2a 32 be 00 8e fd 3d 1e 7f 13 3b
       0.0045601414 -0.1739904 0.123806 0.0022506188
000270 96 c2 83 be af 72 9c 3d 0a fc 5e be f3 14 5d 3c
       -0.25734395 0.07639062 -0.21775833 0.013493764
000280 cf 88 b9 3c a5 ce aa be 6b 33 68 3d bd 02 f3 be
       0.022648243 -0.33360782 0.05668966 -0.47463027
000290 d3 03 ed ba d0 49 c4 bd 0b 45 90 bd af 36 08 3e
       -0.0018082805 -0.09584391 -0.07044419 0.1330211
0002a0 b8 dd 62 3c 42 fb 8d bb eb 58 57 3d de 63 19 bd
       0.013846807 -0.004332931 0.052575033 -0.037448756
0002b0 8e 67 df be a3 94 1c bd b3 d5 61 3d b3 00 8b bd
       -0.43633693 -0.03822769 0.05513544 -0.06787243
0002c0 fd 7b 0e bb b7 c1 ba bb 0f 27 aa 3d 37 5a 47 3c
       -0.0021741383 -0.005699362 0.08308231 0.012167505
0002d0 ef 4c ac 3c a4 2c 91 3d ee a0 ba 3d 4b 7d 7e 3d
       0.021032779 0.07088593 0.09112726 0.062131207
0002e0 0a 43 82 3e 3d f3 93 bb 9a ef 8e 3e 4c 82 0b bb
       0.25441772 -0.0045150802 0.27917176 -0.002128738
0002f0 9d b6 44 3c 46 62 0d bd 6b 7a ea 3b bc 12 f5 3d
       0.012006429 -0.03451755 0.0071557066 0.11966464
000300 9b fc 72 bd 84 19 a7 bc 9d 19 06 be f4 90 31 bd
       -0.059322935 -0.020397909 -0.13095708 -0.04335113
000310 73 cf 99 bd 6d 5a bf 3d bb 96 9c 3d 74 19 e2 bd
       -0.07510271 0.09343419 0.07645937 -0.11040011
000320 42 1a aa 3b 5a 75 a3 bb ae fd 9a 3d ba 86 89 3d
       0.0051911185 -0.0049883546 0.07567917 0.0671515
000330 60 20 e7 bd d7 8f 05 3c 51 3c 37 be 41 88 ce bb
       -0.11285472 0.00815197 -0.17894103 -0.006302864
000340 34 59 df 3d 2e a9 63 bd a6 00 56 3e 36 18 68 bd
       0.10905686 -0.055581264 0.20898685 -0.056663714
000350 04 e8 85 3d 7f 09 10 3d 2e d3 20 bc cd 97 87 3d
       0.06538394 0.035165306 -0.009815974 0.066207506
000360 c4 e8 bc 3c af 61 e9 bc 62 41 ba 3d 27 d5 a4 3d
       0.02306021 -0.028488962 0.09094502 0.08048468
000370 36 b8 44 3d f6 64 65 3c 26 ce a6 bd 57 60 8e 3e
       0.04802724 0.014001122 -0.081447884 0.27807876
000380 1b 5b 86 3e 4b b0 4e 3b b2 dd 76 3c 55 96 35 3d
       0.26241383 0.0031538184 0.015067505 0.04433282
000390 ee 78 a7 bd 4f 5c 1b bd 0a d7 6e 3e 35 b3 42 3d
       -0.081773624 -0.03792983 0.23324218 0.047534186
0003a0 f7 9d 65 3d 7e a1 9b 3d b9 db c8 3d f4 d2 5e bb
       0.05605885 0.075991616 0.09807534 -0.003400025
0003b0 ec f4 46 3e 7d 46 f7 3e e5 15 68 3d 79 38 30 3d
       0.19429368 0.48295966 0.056661505 0.043022607
0003c0 3f 56 19 be f2 37 51 3e 3c d3 6a 3d d4 4c d4 bc
       -0.14974307 0.20431498 0.057330355 -0.02591554
0003d0 43 15 56 3a 7d ba c5 bc 4a 6f 17 be 49 b7 2a 3e
       0.00081666204 -0.024136776 -0.14788547 0.1667148
0003e0 50 3a 1b bd 7e bc 06 3d f4 cb d5 3d e3 da f8 bd
       -0.037897408 0.032894604 0.104392916 -0.12151124
0003f0 13 bd 13 3e 22 00 c5 3b 86 b1 75 3d af 9b 44 3d
       0.14427595 0.0060119787 0.059983753 0.048000034

model.4.bias f4 [24]
000000 d7 0f 81 3e 89 e3 35 bf 53 27 f2 3d 76 e9 8e bd
       0.25207397 -0.71050316 0.11823907 -0.06978123
000010 c3 ec a3 be 8a ed 17 3e a5 d1 7a 3e 29 3d 4e 3e
       -0.32016572 0.14836708 0.24494036 0.20140518
000020 70 ab 4a 3e 6d 51 16 3e 58 1b 9c 3e 30 ee 7d 3b
       0.1979196 0.14679499 0.30489612 0.0038746707
000030 01 09 aa bd fd 14 a5 be d8 f9 05 bf a9 93 f8 3e
       -0.083024986 -0.32242575 -0.52334356 0.48550156
000040 78 48 55 3e 12 8a 61 bd 45 4d 97 3d a7 30 45 be
       0.20828426 -0.055063315 0.07387785 -0.1925684
000050 f7 9c 89 3d e9 a7 f1 bd ea 50 3c 3f 43 63 90 3d
       0.06719392 -0.117996044 0.73560965 0.07050183

model.6.weight f4 [24]
000000 2a fa 55 3f fd 48 37 3f 5b 25 35 3f e4 f4 45 3f
       0.83584845 0.71595746 0.70760125 0.773268
000010 5d ba 44 3f 39 35 6c 3f 8c 39 2e 3f 1f 69 7d 3f
       0.7684687 0.9226871 0.6805656 0.9898853
000020 c8 04 58 3f 73 aa 46 3f 9b 62 45 3f ab 82 6d 3f
       0.84382296 0.77603835 0.77103585 0.9277751
000030 0a 27 6f 3f 1b 2d 73 3f ac c3 78 3f 28 f2 26 3f
       0.93418944 0.949907 0.9717357 0.6521325
000040 77 63 4b 3f 3a 5f 5c 3f 8a de 57 3f bb 14 5e 3f
       0.79448646 0.86082804 0.8432394 0.8675038
000050 5a 73 50 3f cd bb 68 3f f7 c5 48 3f ba c0 64 3f
       0.8142601 0.9091156 0.7842707 0.8935658

model.6.bias f4 [24]
000000 d0 fa a8 bd f6 7c 1e 3e 6c e7 8a 3e 71 40 89 3e
       -0.08250964 0.15477356 0.27129686 0.26806977
000010 db 62 7f 3e 89 2f d7 3c 65 26 c6 3a 29 2e e4 3d
       0.24940054 0.026267784 0.0015117644 0.11141617
000020 05 92 2d bd 04 e8 bd 3d 96 a0 57 3c 30 db 2b bd
       -0.042375583 0.09272769 0.013160845 -0.04195708
000030 58 f8 48 bc d0 9d a2 3e 69 82 3d 3e 05 ef 96 bd
       -0.012266241 0.31761026 0.18506779 -0.07369808
000040 e2 19 5c 3d 6e 1e 8d be 0d 26 1e be a0 f8 be bd
       0.05373562 -0.27562279 -0.15444203 -0.09324765
000050 67 55 c4 3c 96 b0 d4 3d 99 d5 8a be 5a 4a a5 3d
       0.023966504 0.103852436 -0.27116087 0.08070822

model.6.running_mean f4 [24]
000000 7c 85 6b 3f 5d 66 a1 3d dd 70 09 3f 56 1e bb 3e
       0.92000556 0.07880852 0.5368784 0.36546582
000010 f4 8a 97 3e c9 af 44 3f 5f 87 93 3f b6 fb 88 3f
       0.295982 0.76830727 1.1525687 1.0701816
000020 0e 3f 0f 3f 95 d7 08 3f 9a 90 2e 3f 57 06 eb 3e
       0.5595559 0.5345395 0.68189394 0.45903274
000030 ac ec 63 3e d1 26 3c 3e ce a9 b8 3d f5 cc 8f 3f
       0.22258252 0.18374182 0.09016763 1.1234423
000040 13 97 5b 3f 81 92 53 3e 36 04 e0 3e 89 fd 56 3e
       0.85777396 0.20661356 0.43753213 0.20995153
000050 c7 fc 3d 3f 7e 5a 8e 3e 60 3a a2 3f 13 b3 21 3f
       0.7421383 0.27803415 1.2674065 0.6316387

model.6.running_var f4 [24]
000000 15 eb 8e 3f ca ce 3e 3e c0 d2 94 3f 86 29 e6 3e
       1.1165491 0.18633571 1.1626816 0.44953555
000010 b3 c2 40 3f 38 8a 50 3f 22 b9 33 3f 03 b3 2f 3f
       0.7529709 0.81460905 0.70204365 0.68632525
000020 b9 c1 f3 3e 84 d7 97 3e 87 e6 16 3f 00 76 e8 3e
       0.47608736 0.29656613 0.58945507 0.45402527
000030 3a 93 c0 3e b8 e1 9d 3e 5c aa 38 3e 5c 4a 24 3f
       0.37612325 0.30836272 0.18033737 0.64175963
000040 54 4c 18 3f a9 3f 60 3e 4b f7 a2 3e 71 a2 56 3e
       0.5949147 0.21899284 0.31829295 0.20960404
000050 16 56 31 3f fd fc 73 3e a9 33 01 3f d3 82 40 3f
       0.6927198 0.23826976 0.5046945 0.7519962

model.8.weight f4 [12, 24]
000000 38 32 a4 3d 52 82 24 bc e4 09 96 3d 0c 4c 8c 3d
       0.08017391 -0.010040836 0.07326105 0.06850442
000010 18 b0 10 3d 29 70 6b be d5 a6 4c 3b f1 7e 16 3e
       0.035324186 -0.22992004 0.003122737 0.14696862
000020 00 e1 66 3d 3e 81 0e 3c 56 82 c9 bd 5c 09 7d bd
       0.05636692 0.008697806 -0.09839313 -0.061776504
000030 11 dd a5 bd a8 9b e5 be 54 52 ce be e1 21 66 bd
       -0.08098806 -0.4484532 -0.40297186 -0.056184653
000040 57 81 b4 bc f0 04 ff 3d e8 69 d6 bd d6 93 8b bc
       -0.02203433 0.12452114 -0.10469419 -0.017038267
000050 41 87 ce 3d 99 ab 02 bd 76 e2 f3 bd 90 5b 5c be
       0.100843914 -0.03190193 -0.11908428 -0.21519303
000060 e8 96 d8 3c 7f 66 d6 3c 36 11 a3 bc 68 b1 12 be
       0.026439145 0.02617192 -0.019905668 -0.14325488
000070 2a 82 a5 3c 73 7f 67 bd f6 fc 91 3e 4d 5b 53 bc
       0.020203669 -0.05651803 0.28513306 -0.012900186
000080 25 81 ed bc 4c 5b e5 bd 07 32 70 3d e8 20 04 bc
       -0.028992245 -0.11199054 0.05864146 -0.008064486
000090 2e b1 37 bd 9e 0a 6a bd 87 fd 0e bd 08 0e 86 3e
       -0.044846706 -0.05713903 -0.03490975 0.2618258
0000a0 28 92 38 bb 7a 53 d5 3c f3 89 ce bc f2 3c 62 bd
       -0.0028163288 0.026040781 -0.025212264 -0.055233903
0000b0 c3 9e d5 3d 24 34 1b 3d 19 43 4e 3d a8 5f cf 3c
       0.10430672 0.037891522 0.050356958 0.025314167
0000c0 6f 3c a1 3e 97 f7 ad 3d 7e 7e 89 3e 89 4c 6b 3e
       0.3149142 0.0849449 0.26854318 0.22978415
0000d0 e3 b1 28 3e 9b e2 58 be 03 41 18 3b 36 c3 46 3d
       0.16474108 -0.21180193 0.002323211 0.04852601
0000e0 3f 09 bf bd 8b 94 32 bd 40 20 f7 bd 06 d9 b9 3d
       -0.093279354 -0.043598693 -0.12066698 0.09074597
0000f0 21 b6 02 3c 2b 55 6e bd a5 5c 52 bd 6c d4 03 3d
       0.007977993 -0.05818669 -0.051357884 0.032185003
000100 46 b6 bd bd a4 ca c9 3d 62 9d c5 bd 77 5c 58 bd
       -0.092632815 0.09853104 -0.09649159 -0.052822556
000110 23 6a 08 3e f0 aa 16 3e 23 49 7e be 07 ac 12 be
       0.13321738 0.14713645 -0.24832587 -0.14323436
000120 6b e2 19 bc cc eb 1c 3c ae d1 87 bc a6 88 c4 3c
       -0.009392361 0.009577703 -0.016579475 0.02399094
000130 fc 74 ac bc 94 9a ef 3d 2b c6 12 3a 30 57 74 3e
       -0.021051876 0.11699405 0.00055989873 0.23861384
000140 13 25 b0 be 91 93 21 bd 50 0a 06 3e 7e d8 cb 3e
       -0.34403285 -0.03944737 0.13089871 0.39813608
000150 56 56 0f 3d b4 6d 9d b9 dd da 9d be ec d5 bc bd
       0.034994446 -0.0003002711 -0.30831042 -0.0922049
000160 3e 27 2f be e9 51 9f 3c 38 40 34 be b7 d2 68 3d
       -0.17104813 0.019448237 -0.17602623 0.05684158
000170 3b 1a 70 bd b2 01 79 be a4 75 0d 3d 7b 00 79 3d
       -0.058618765 -0.24317053 0.03453602 0.060791474
000180 2a 53 9d bd 50 5e 18 be 96 da 00 bc f8 3e a3 be
       -0.07681878 -0.14879727 -0.007864615 -0.3188398
000190 2e 57 1f be 12 5c e1 3d 38 aa b5 bd 41 f6 3a bd
       -0.155606 0.11003889 -0.08870357 -0.045645002
0001a0 5c e0 86 bc 5a 42 9e 3d fa 2b c4 3d fc dd 0b bd
       -0.016464405 0.07727499 0.095787 -0.034147248
0001b0 7b 73 20 3d 97 c2 ae 3d 0e 6b 8c 3d 66 51 70 3d
       0.03917263 0.08533209 0.068563566 0.058671378
0001c0 0b 95 fd bd d6 29 7d bd 06 c7 87 3d 51 4f f3 bd
       -0.12381943 -0.061807476 0.066297576 -0.11880363
0001d0 92 c4 88 3d f4 9c 11 be 6b 1b 81 3e d3 98 a4 3d
       0.06678118 -0.14220029 0.2521623 0.080369614
0001e0 99 40 57 bc 96 82 ad be 62 ef 22 be bd 8e 35 be
       -0.01313796 -0.33888692 -0.1591163 -0.17730232
0001f0 27 dc 63 be c4 1f 0e 3e b1 b8 c8 ba d3 f1 90 bd
       -0.2225195 0.13879305 -0.0015313831 -0.07077374
000200 54 6a 09 be 06 6e 0d be fc 1b 98 bd 53 dc fd 3d
       -0.13419467 -0.13811502 -0.074272126 0.12395539
000210 67 9d e0 3d 7b 0e 1d 3d e9 09 a1 bc 51 9a 5b bd
       0.10967522 0.038343888 -0.019658046 -0.053613964
000220 8c 89 1a be 02 59 d9 bc 8f 7d 3b bd ac 7e 06 3e
       -0.15091532 -0.0265317 -0.04577404 0.13134259
000230 99 39 d4 bb ce ee 16 be b5 8e 16 3e ce df 87 3c
       -0.0064765927 -0.14739534 0.14702876 0.01658621
000240 91 dd 2b be 3e 07 7b 3d 4f df 0b bd 92 98 13 3e
       -0.1678374 0.061286204 -0.03414851 0.1441367
000250 16 a1 54 3d f3 30 58 be a7 8d 90 bd 7e f4 a1 be
       0.051911436 -0.21112423 -0.07058268 -0.31631845
000260 d0 4b be 3e 9e 15 0c be a5 55 67 bc 3c 46 8b be
       0.37167215 -0.13680121 -0.01411954 -0.27202022
000270 90 20 fe 3d ff f0 c4 3d f1 9c 0f 3e a1 16 d0 bb
       0.124085546 0.09616279 0.14024712 -0.006350354
000280 92 70 dd 3d a0 a8 7d 3d 54 14 13 3e 25 1f 66 3d
       0.10812487 0.06192839 0.14363223 0.056182045
000290 51 a8 d0 bd e5 d1 32 3e 17 60 d5 bd 26 d6 29 be
       -0.10188354 0.17462881 -0.10418718 -0.16585597
0002a0 f9 cf 0b 3d 5b b7 88 3c db 22 df bd ff bf b5 bc
       0.034133885 0.016688993 -0.1089532 -0.022186277
0002b0 ab 2c a8 3c 7d 7e 26 bd fb 11 97 be e7 39 27 bd
       0.020529112 -0.040647972 -0.29505906 -0.040826704
0002c0 99 c7 2f be d2 30 bc 3c e2 ea 45 be f1 8b 22 3e
       -0.17165984 0.022972498 -0.19327882 0.15873696
0002d0 f4 a1 f0 3c f4 2f c8 bc 04 46 46 bc d1 9c 32 be
       0.0293741 -0.024436928 -0.012101654 -0.17442633
0002e0 93 38 3d be fc 57 9a 3d 28 df 92 bd b1 c4 e7 3e
       -0.18478613 0.07536313 -0.0717147 0.4526725
0002f0 dc c4 9a be 68 59 ad be 1d 0a ad 3d f8 3c 0d be
       -0.30228317 -0.33857274 0.084491946 -0.13792789
000300 eb dd 2a be d5 ad 03 3d a8 f1 8d bc 59 76 2a 3d
       -0.16686217 0.0321482 -0.017327145 0.04161677
000310 57 e6 1d 3d 43 54 46 3e 09 ff 0c 3d f3 89 9d be
       0.038549747 0.19368081 0.034422908 -0.3076931
000320 c9 3b 94 bd 57 ac be be f4 f8 f6 3d cb ae cc 3d
       -0.072379656 -0.3724086 0.12059203 0.099942766
000330 fc 1e dc 3e a9 90 47 3e 61 be 13 3d 41 70 b0 bd
       0.4299239 0.19488777 0.03607023 -0.08615161
000340 34 db 94 be ca ee 93 3d 32 f4 e8 bc 8d cf 00 3e
       -0.2907349 0.0722328 -0.028436754 0.12579174
000350 6a 1b 34 be 56 dd 2b be 21 52 ee 3d ac 4a 8c bd
       -0.17588583 -0.16783652 0.116367586 -0.0685018
000360 0d c9 07 be d4 be dc be ac 7d 87 be e1 9a f0 3d
       -0.13260289 -0.4311434 -0.26463068 0.11748291
000370 43 de b8 be de e2 1a 3d 9b 8c 6d bd 49 12 d2 bd
       -0.36107072 0.037814014 -0.05799542 -0.10257394
000380 62 c9 0d bd ce 7d b1 bd 36 7f 34 3e d1 d8 86 3d
       -0.03461588 -0.086665735 0.17626652 0.06584323
000390 db bf 01 3e 30 1d a5 3d 59 85 b2 3c 12 17 d9 bc
       0.12670843 0.08062208 0.0217921 -0.026500259
0003a0 6a aa 69 bd 58 a9 c1 bc 8d b3 e8 3d 06 81 45 3d
       -0.057047285 -0.02364032 0.113623716 0.04821875
0003b0 b2 69 67 bd 15 5e d3 3b 09 7f 17 bd ec 44 4d 3a
       -0.056497283 0.0064504244 -0.036986385 0.00078303996
0003c0 ca 8c a5 bb f0 f8 f3 bb cc 02 8f bd 8f 0b 5c bd
       -0.0050521838 -0.007445447 -0.06982955 -0.05372196
0003d0 87 74 c0 bd 42 d4 5c 3d 4d fb af bd d9 7d 62 3e
       -0.09397226 0.053913362 -0.08592854 0.2211832
0003e0 45 f2 34 be b2 5c 28 3e a9 ba 91 3d b7 05 25 3e
       -0.17670543 0.1644161 0.07115681 0.16115461
0003f0 94 63 28 be 27 2c 23 bd 73 e9 77 bd 5b 6b d8 bc
       -0.16444236 -0.03983703 -0.06052537 -0.026418379

model.8.bias f4 [12]
000000 b7 68 d6 bd 9a 5b 3d 3f d7 d9 3c 3e 92 2d 82 3e
       -0.104691915 0.739679 0.18442474 0.25425392
000010 89 05 00 3f 4e ea cc 3e 52 a1 79 bd fd df ec 3e
       0.50008446 0.4002251 -0.060944863 0.4626464
000020 3f 64 14 3f 35 21 f3 3e bc 63 2a 3f ae b8 f0 bd
       0.57965463 0.47486272 0.6655843 -0.11753975

model.10.weight f4 [12]
000000 d1 54 af 3f 10 40 8d 3f 28 3d 90 3f 75 b5 81 3f
       1.3697759 1.1035175 1.1268663 1.0133501
000010 0c 2d 84 3f 32 b5 9f 3f a3 aa 86 3f c8 ee 80 3f
       1.0326247 1.2477171 1.0520824 1.007287
000020 ad 2f ad 3f 87 1f a4 3f 67 28 87 3f 21 31 aa 3f
       1.3530174 1.2822121 1.0559205 1.3296243

model.10.bias f4 [12]
000000 53 ec a2 3d 61 85 92 bd 67 6a 2c bd c5 09 b4 bd
       0.079552315 -0.07154346 -0.04209366 -0.08790926
000010 cc db 2f be 33 1d d0 3d 94 7a 5e 3d 3f f0 10 3e
       -0.1717369 0.10161819 0.05431612 0.14154147
000020 7c e7 39 bd 81 c9 2d bd 3b 6e c7 bb 60 1a 54 3d
       -0.045386776 -0.042428497 -0.0060861385 0.051782966

model.10.running_mean f4 [12]
000000 0c 77 af 3e 7d e7 2d 3f ff 56 23 3f 90 1b 11 3f
       0.34270513 0.6793135 0.6380462 0.5668268
000010 fa b1 14 3f bc ae ed 3e d8 c7 df 3e 2e ac 11 3f
       0.5808407 0.46422374 0.43707156 0.5690335
000020 ca 99 3e 3f b5 dc 0a 3f b3 9f 36 3f cc 14 1f 3f
       0.74453413 0.5424302 0.7133743 0.6214111

model.10.running_var f4 [12]
000000 ff 8b 70 3e 54 11 91 3e 5c 4e 67 3f ee 53 04 3f
       0.23490904 0.28333533 0.9035394 0.51690567
000010 60 89 dc 3e 97 79 be 3e 10 7f 1f 3f f4 82 41 3f
       0.4307356 0.3720214 0.62303257 0.75590444
000020 ac bd 9f 3f fb 55 8c 3e b4 74 1b 3e 33 02 62 3f
       1.2479758 0.27409348 0.15181237 0.88284606

model.11.weight f4 [5, 12]
000000 ee 63 a7 bd 8f cf 41 be a2 d2 ae 3e 59 56 3a 3e
       -0.08173357 -0.18926834 0.34145075 0.18197002
000010 57 f6 22 3e f7 c4 a9 be 01 90 0d be 38 8e 8d 3e
       0.15914284 -0.33158085 -0.13824464 0.27647567
000020 ce 62 98 3e 22 7e ca be 97 90 a1 3b 7b ee 00 3c
       0.29762882 -0.39549357 0.0049305665 0.007869358
000030 37 05 a1 bd bf 15 41 be 38 ae ae 3e 7b 1f 39 3e
       -0.07862323 -0.18855952 0.34117293 0.18078415
000040 1c b1 22 3e 08 0c aa be 36 df 0b be 13 31 8e 3e
       0.15887874 -0.33212304 -0.13659367 0.27771816
000050 95 71 99 3e d8 f7 ca be 41 14 bd 3b a8 ba a0 3b
       0.2996947 -0.39642215 0.0057702367 0.0049050637
000060 90 0b f4 bc 70 0b 8d 3e 7b d9 9d bd ac 63 b1 3d
       -0.02979067 0.2754779 -0.07707497 0.08661589
000070 26 81 69 3e 79 7d 90 3e ff 3a a9 bd a0 cd 0c bd
       0.22803172 0.28220728 -0.08263206 -0.034375787
000080 17 5d 6c 3c 0b 69 99 3c 7a 2f e3 3c 2c e7 b6 3c
       0.014426491 0.018726846 0.0277326 0.022327028
000090 e6 b5 aa bc 6a ab a7 3e 52 03 b8 bd 53 fe dc 3c
       -0.020838689 0.32747966 -0.08985008 0.02697674
0000a0 8d 92 82 3e 89 20 5b 3e 3d 75 9e bd 93 f2 10 bc
       0.25502434 0.2139913 -0.07737205 -0.008846897
0000b0 8f e1 ad bb 23 de c8 3d 24 d1 15 3d 63 9c f7 3c
       -0.0053064297 0.09807994 0.036576405 0.030225938
0000c0 86 81 42 bf 85 56 b4 3d 7c db 50 3e fe c5 a9 be
       -0.7597889 0.08805565 0.20396227 -0.3315887
0000d0 e0 fd 49 be bd 20 6a be c6 6b ca 3e 29 4e 4e 3e
       -0.19725752 -0.22864051 0.3953535 0.20147003
0000e0 94 a3 28 3f 54 52 97 be 55 4e c7 3e 7d fd 2e 3f
       0.658746 -0.29555 0.3892695 0.6835554

model.11.bias f4 [5]
000000 0b c9 46 3d f3 3f 45 3d 25 c6 41 3d 47 00 5d 3d
       0.048531573 0.04815669 0.047308106 0.053955343
000010 81 ec f7 bc
       -0.030264141

exp_avg f4 [48, 16]
000000 67 09 7c 3b 6c 0f 3c bc ff 28 e4 bb f8 1f 9d 3a
       0.0038457753 -0.011478286 -0.006962895 0.0011987677
000010 dc e5 49 bc 90 19 35 bc f3 48 a2 bb 74 b2 f1 3b
       -0.012322869 -0.011053458 -0.004952544 0.0073760096
000020 f6 c6 f4 bb 9f e4 77 bc 2d 5c 1b bc 4f cf 41 3c
       -0.007470007 -0.015130191 -0.009482426 0.011829211
000030 39 de a2 bb 40 7d c0 3b 19 98 a2 bb 88 23 f7 bc
       -0.0049703387 0.005874306 -0.004961979 -0.03016831
000040 7b 32 a5 ba e9 37 24 3a 6b 33 e8 bb 48 38 96 3b
       -0.0012603545 0.0006264435 -0.0070862076 0.004584346
000050 ee c0 3f bb 0d 9e 9b bb 8b 3a 73 39 98 75 8c 3b
       -0.0029259282 -0.0047490657 0.00023196095 0.004286479
000060 dd 7e f4 3a 8b c2 cb bb 66 ee c2 3a d5 1a 2b 3c
       0.0018653531 -0.0062182597 0.0014872074 0.010443409
000070 7b c8 59 39 97 0e f4 3a 9e 78 5b 39 16 a2 fc bb
       0.00020769417 0.0018620071 0.00020930401 -0.007709752
000080 74 e8 b5 bb bd 90 f1 3b 9c 90 f3 3b f4 42 12 bb
       -0.005551392 0.0073719905 0.0074330103 -0.002231774
000090 bc 25 f2 3b f9 c6 ce 3b 8f d6 00 3c ac 14 cb bb
       0.007389752 0.0063103405 0.007863655 -0.0061975326
0000a0 2d 97 1a 3b ed 57 4d 3c e2 c3 90 3b bf f4 bf bb
       0.0023588643 0.01253317 0.0044178823 -0.0058580334
0000b0 3d 01 01 3c 6a 18 1a 3b 89 d1 00 3c 94 db a4 3c
       0.00787383 0.0023513087 0.007862457 0.020124234
0000c0 63 40 8d 3b 98 c3 c8 39 4a 6f 4a b9 c6 3d c7 bb
       0.004310654 0.000382927 -0.0001930568 -0.006080362
0000d0 19 af c6 3a b9 3f 49 3a 49 67 09 bb 4d e5 cd bb
       0.0015158384 0.0007677037 -0.0020966104 -0.0062834383
0000e0 6a a4 d2 3a 15 11 e0 38 44 a2 7d bb 01 55 59 bb
       0.0016070728 0.00010684334 -0.0038701454 -0.0033162239
0000f0 bd 07 08 bb 3d 9c bc 3b bd 5c 07 bb d8 fe b0 3a
       -0.0020756566 0.0057559297 -0.0020654642 0.0013503684
000100 ff 24 10 bc 68 86 0f 3c 76 d9 19 3c 34 3a 47 bb
       -0.008797883 0.008760072 0.009390226 -0.0030399682
000110 33 a3 4d 3c e4 6c 82 3c ed e1 49 3c 85 ea 00 bc
       0.012551117 0.015921064 0.012321931 -0.007868414
000120 70 3c c6 3b 3f a7 7c 3c 84 4d 03 3c 93 f2 6a bc
       0.006049685 0.015420734 0.008014087 -0.014340061
000130 85 6e 49 3c 64 48 9c ba 67 68 49 3c 4b c5 00 3d
       0.012294416 -0.001192343 0.012292958 0.031438153
000140 c8 10 f4 32 18 00 21 34 a2 5b 09 b2 e4 3c 06 b4
       2.841297e-08 1.4994328e-07 -7.995284e-09 -1.2501874e-07
000150 6d 1c 28 32 83 59 9d b0 33 6f 51 b5 46 4c 60 b5
       9.78535e-09 -1.1448694e-09 -7.8020383e-07 -8.3557495e-07
000160 ca cd 4f b1 e4 72 69 34 71 51 39 b4 95 ca 24 34
       -3.0239442e-09 2.1741613e-07 -1.7259096e-07 1.5347389e-07
000170 20 79 7a 35 71 99 72 b5 2c d7 6d 34 ac 38 cc 34
       9.330852e-07 -9.037531e-07 2.2150624e-07 3.8039195e-07
000180 b3 64 14 3c c5 67 88 bc d3 0f a8 bb 00 03 ed 3a
       0.009057212 -0.016651044 -0.0051288395 0.0018082559
000190 a5 95 72 bc a7 9f a7 bc 01 4c 32 bc dd 36 34 3c
       -0.014806186 -0.02046187 -0.010882379 0.010999409
0001a0 7d 9a 33 bc 33 32 8f bc 94 5a 32 bc 6a b5 37 3d
       -0.010962126 -0.017479992 -0.010885853 0.044850744
0001b0 eb 46 32 bc 11 bb 81 3b f1 3d 32 bc 7c f6 58 bd
       -0.010881166 0.0039590676 -0.010879026 -0.05296944
0001c0 d9 6a 60 bb bb 53 87 3b 90 e3 ea bb 2e c4 9a bb
       -0.0034243374 0.0041298545 -0.007168241 -0.0047230935
0001d0 52 2c 9e bb cf ca a2 bb b1 55 62 3b ae e4 e0 bb
       -0.0048270607 -0.0049680243 0.003453594 -0.0068631982
0001e0 ea 2f 1a 39 f3 e5 6f bb 5a 7d 02 bc 0d d0 5f 3c
       0.00014704434 -0.0036605566 -0.007964456 0.013660443
0001f0 47 6d 61 3b 7c cf f9 3b f3 74 62 3b d5 5e c1 bb
       0.003439741 0.007623611 0.003455457 -0.0059011974
000200 b7 dd aa 3b db 33 fd ba e1 bc 87 ba e8 c5 05 3b
       0.0052144188 -0.0019317822 -0.0010355973 0.002041215
000210 b3 31 c0 bb c4 7c b7 bb 6a 97 c7 bb 5b a9 4b 3b
       -0.0058652996 -0.00559959 -0.006091048 0.0031076286
000220 ca 5f a5 bb 30 14 21 bb c3 5b 56 bb f3 cb b4 3b
       -0.0050468193 -0.0024578683 -0.0032708503 0.0055174767
000230 4e a3 c8 bb 5e 97 e4 3a 31 b5 c8 bb 97 e6 09 bc
       -0.006122983 0.001744013 -0.0061251153 -0.008416793
000240 92 63 3a bb 72 6b 9d ba e7 97 e9 b8 3c f7 1d bb
       -0.0028440696 -0.0012010171 -0.000111386 -0.0024103662
000250 41 24 95 39 35 7b e7 ba 02 a3 05 3b 00 4a e5 ba
       0.00028446506 -0.001766062 0.002039135 -0.0017493367
000260 88 77 a9 39 88 71 81 ba 56 ac ef ba 43 c9 ba 39
       0.0003232325 -0.0009875754 -0.0018285613 0.00035626636
000270 ff 36 04 3b 84 f3 8f 39 36 ae 05 3b b2 8a d5 ba
       0.0020174382 0.0002745652 0.0020398027 -0.0016291945
000280 b4 62 b5 3c 01 e0 24 bd 57 b0 dc bc 6b c8 9a bb
       0.022141792 -0.04025269 -0.026939554 -0.0047235987
000290 c4 e3 24 bd 34 23 f8 bc 68 ae d6 bc ab 6d 8c 3c
       -0.040256277 -0.030290224 -0.02620621 0.017142138
0002a0 02 ba af bc 44 09 64 bd f8 04 1c bd 94 12 0a 3d
       -0.021451 -0.0556729 -0.038090676 0.033709124
0002b0 69 c4 d6 bc 10 05 04 3c f8 ad d6 bc 24 3d c3 bd
       -0.026216703 0.008057848 -0.026206002 -0.09533146
0002c0 ee 01 fa 34 94 93 73 37 9d 04 87 35 0e 16 0c 35
       4.6567533e-07 1.4518289e-05 1.0059626e-06 5.218616e-07
0002d0 8d 7f 9a 36 6c fe 87 37 fa 1d c3 b5 9c bd a3 b6
       4.6044065e-06 1.6211729e-05 -1.4537356e-06 -4.879852e-06
0002e0 d7 83 0c 36 e0 44 3b 37 85 32 f5 35 a2 22 76 34
       2.0938367e-06 1.1162105e-05 1.8268626e-06 2.2923135e-07
0002f0 17 b9 23 b7 db eb 2b b6 33 95 62 37 db 2f 02 b7
       -9.758652e-06 -2.5618272e-06 1.3505388e-05 -7.759746e-06
000300 d1 f3 44 bb d3 7e 18 bb d8 71 a9 bb b4 b2 ec 3b
       -0.0030052552 -0.0023268953 -0.005171042 0.0072234515
000310 e4 2d 52 bb 82 88 88 3b d9 2d f1 3a eb 82 0c 3c
       -0.003207081 0.0041666636 0.0018400504 0.008576135
000320 6b aa a4 39 5a 78 d9 bb 4b 57 65 3b ea 6b 13 3c
       0.0003140749 -0.0066366615 0.0034994658 0.008997897
000330 f9 89 f5 3a 1f a5 a7 39 6b 4b f2 3a 9d 30 77 bb
       0.0018733136 0.00031975747 0.0018485611 -0.0037718185
000340 ce 87 20 3b c1 e2 bc ba 54 bd b3 3a 20 6e 0e b8
       0.0024495008 -0.001441084 0.001371304 -3.3958e-05
000350 b3 a4 84 bb b0 87 e1 b9 ef 7a 5b bb b5 58 3f 3a
       -0.004047954 -0.0004301644 -0.0033490022 0.000729929
000360 08 6b 9f bb 34 99 50 39 a0 7a 64 bb 94 26 c3 3a
       -0.004865054 0.00019893498 -0.003486313 0.0014888817
000370 bb 3a 5d bb cc 45 30 3b 4f 26 5d bb 51 68 b4 ba
       -0.003375693 0.002689707 -0.0033744758 -0.0013763999
000380 d8 b8 06 3c 23 fd 77 ba d5 80 ff 3a 87 71 07 bc
       0.008222781 -0.00094600226 0.0019493351 -0.008266813
000390 c9 d5 c0 3b 5c f1 32 3b b6 30 d7 bb 1e b5 fc bb
       0.00588486 0.0027304506 -0.006567086 -0.0077120205
0003a0 5f ac 92 3b 3f 5e 8a 3a a9 2d 02 bb 4e 67 94 bb
       0.0044761146 0.0010556652 -0.0019863641 -0.0045289164
0003b0 fb 4f d7 bb 77 ef ab 3b c9 74 d7 bb 82 c7 6f 3b
       -0.0065708137 0.0052470523 -0.006575201 0.0036587422
0003c0 ae 67 4e 3c 69 07 24 bc 11 8b 48 bc e3 02 ef 3b
       0.012597961 -0.010011532 -0.012240187 0.0072940453
0003d0 37 f8 95 bc b9 8b 73 bc 2b 6d 8d bc f4 e3 4f 3c
       -0.018306835 -0.014864855 -0.01726397 0.012688626
0003e0 26 29 20 bc 15 7a 9b bc e4 1b 19 bc ae 24 32 3c
       -0.009775436 -0.018979112 -0.009345029 0.010873003
0003f0 e3 5c 8d bc 18 38 7e ba eb 78 8d bc 0c cd 1b bd
       -0.017256206 -0.00096976897 -0.017269572 -0.038037345

exp_avg_sq f4 [48, 16]
000000 fb 14 05 39 91 23 82 39 c6 91 0d 39 76 c6 6d 39
       0.00012691684 0.0002482203 0.00013501113 0.00022676014
000010 83 03 4a 39 7f a0 cc 39 3b 85 8c 39 72 ed c9 39
       0.0001926553 0.0003902949 0.00026802145 0.00038514618
000020 15 98 0b 39 d1 fa 77 39 39 91 8b 39 7c 59 94 39
       0.00013312728 0.00023649192 0.00026620345 0.0002829543
000030 28 86 8c 39 fe 9b 95 39 bb 85 8c 39 9c c2 81 3a
       0.00026802835 0.00028535718 0.00026802518 0.0009899917
000040 16 21 4c 38 59 34 15 39 1a c1 21 39 51 b4 12 39
       4.8668204e-05 0.00014229248 0.00015426092 0.00013990818
000050 a8 1c 25 39 4f ce 1b 39 f1 14 cc 37 04 c5 34 39
       0.00015746302 0.00014858808 2.4328447e-05 0.00017239532
000060 9b b0 4e 39 ae da 4f 39 6a d0 5e 39 ab 79 5e 39
       0.00019711482 0.00019822523 0.0002124921 0.00021216895
000070 a6 1d cc 37 9a 12 33 39 e6 1c cc 37 e7 81 22 39
       2.4332501e-05 0.000170777 2.4332152e-05 0.00015497916
000080 3a e9 8a 39 23 6f c7 39 65 42 81 39 2b 6d c4 39
       0.00026495178 0.0003803904 0.00024654265 0.0003746537
000090 e7 98 8f 39 8f 01 dc 39 c8 e6 f0 39 2d 7e 31 3a
       0.00027389007 0.0004196283 0.00045948313 0.0006770816
0000a0 80 a6 b1 39 6f 88 42 3a 88 f6 19 3a 83 cf 4e 39
       0.00033884123 0.0007420843 0.0005873223 0.00019722995
0000b0 25 e7 f0 39 e8 95 88 3a b7 e6 f0 39 13 a7 2c 3b
       0.00045948583 0.0010420652 0.00045948263 0.0026344701
0000c0 51 30 ee 39 63 9d e0 39 cf 31 28 39 e5 8c bd 39
       0.00045430896 0.00042841872 0.00016040284 0.00036153864
0000d0 40 77 19 39 60 f8 81 39 2e 9a 55 3a d8 0b 44 3a
       0.00014635641 0.0002478985 0.000814828 0.00074785715
0000e0 0e f8 36 38 cb b9 5a 39 01 65 e3 39 38 7a 40 3a
       4.36232e-05 0.00020859313 0.00043372068 0.0007342431
0000f0 cf 99 55 3a 0b 6d e3 39 94 99 55 3a b4 bd af 39
       0.00081482244 0.00043378057 0.000814819 0.0003351994
000100 18 cd 8b 3a b9 40 88 3a 80 66 fa 39 90 aa 8e 3a
       0.0010665981 0.0010395265 0.00047760084 0.0010884572
000110 c9 3b 3c 3a a0 59 9f 3a 92 ba c3 3a 82 35 0f 3b
       0.00071805395 0.0012157448 0.0014932922 0.0021851962
000120 c2 c2 78 3a 29 43 af 3a 32 16 ec 3a 22 17 4f 3a
       0.00094894704 0.0013371456 0.0018011986 0.00078998704
000130 9c b9 c3 3a ac 5e 3d 3b 8c b9 c3 3a 9d e5 8b 3b
       0.0014932635 0.002889554 0.0014932617 0.0042693154
000140 3f 93 da 2d 37 f0 e8 2d 7b cd 1a 2d 3c d6 22 2e
       2.4849121e-11 2.6482023e-11 8.799512e-12 3.7024814e-11
000150 11 52 2e 2d 50 64 f0 2c 0e 35 8d 2e 77 41 82 2e
       9.908977e-12 6.832347e-12 6.421362e-11 5.9233445e-11
000160 b8 a8 02 2d a3 3d ec 2d 12 40 46 2e ed 67 dd 2d
       7.4271075e-12 2.6857466e-11 4.5076894e-11 2.5170943e-11
000170 1b 38 90 2e 60 ea 83 2e c3 64 86 2e ff eb 67 2e
       6.558328e-11 5.998824e-11 6.1115134e-11 5.2732926e-11
000180 fa 2e 5d 3c 42 90 f3 3b a2 f5 c0 3b 83 52 2c 3c
       0.01349997 0.0074329684 0.0058886567 0.010517719
000190 ef 9a 32 3c 52 27 10 3c 3c 81 bf 3c c4 4a 97 3c
       0.010901197 0.008798437 0.023377053 0.018468268
0001a0 c6 c4 43 3c c2 ab 9c 3b 39 af ac 3c 63 45 42 3c
       0.01194877 0.0047812173 0.021079646 0.011857363
0001b0 45 81 bf 3c f0 4c fa 3c 4d 81 bf 3c 1c 20 c6 3c
       0.02337707 0.030554265 0.023377085 0.024185233
0001c0 4d 21 ce 38 10 d2 2e 39 ae 72 47 39 92 6e 8a 39
       9.829048e-05 0.00016672187 0.0001902084 0.00026403792
0001d0 a1 79 35 39 28 bf 44 39 47 2c 07 39 37 c4 bb 39
       0.00017306815 0.00018763228 0.00012891098 0.0003581361
0001e0 69 06 85 39 57 a8 95 39 e6 0b b5 39 0e 89 89 39
       0.00025372513 0.00028544918 0.00034531875 0.0002623279
0001f0 a8 2a 07 39 6b 05 a8 39 77 2c 07 39 6f 27 b2 39
       0.00012890494 0.00032047494 0.00012891168 0.00033980186
000200 2f a4 d4 38 a9 f9 a2 39 e2 41 45 39 1c 41 c6 39
       0.00010139529 0.0003108506 0.00018811927 0.00037814013
000210 fd 34 5d 39 ca 7d 05 3a 6b 0f 26 39 fe 4d 37 3a
       0.00021095942 0.00050922914 0.00015836737 0.0006992518
000220 b3 fd 80 39 e8 07 cc 39 5d 01 04 3a 5b 50 c1 39
       0.00024603083 0.00038915803 0.00050356035 0.00036871698
000230 be 11 26 39 25 d6 5b 3a e1 11 26 39 8a 64 b7 3a
       0.00015837603 0.0008386097 0.00015837654 0.0013991755
000240 d4 f1 41 39 5c 44 dc 38 85 8a b6 38 b1 74 d3 38
       0.00018496002 0.000105031504 8.7042376e-05 0.000100829995
000250 f5 2d 84 38 a5 12 d7 38 aa 2e 52 39 b9 39 fe 38
       6.302811e-05 0.00010255472 0.00020044544 0.000121224155
000260 f8 d2 90 38 fc f8 11 39 23 7a d0 38 77 de 44 39
       6.905751e-05 0.00013921031 9.9409626e-05 0.00018774891
000270 b7 2e 52 39 ca 58 dc 38 99 2e 52 39 82 99 c4 38
       0.00020044563 0.00010506956 0.0002004452 9.374601e-05
000280 84 56 71 3a 53 cf 9f 3b 1e e3 d3 3a 60 07 45 3a
       0.0009206312 0.00487701 0.0016165709 0.00075160526
000290 31 27 20 3b 1f 28 4f 3b 2c e3 f8 3a 79 e2 56 3b
       0.0024437422 0.0031609607 0.0018988601 0.0032788797
0002a0 25 2f 2b 3b ec 4a c4 3b b9 ce 0e 3b 2b 3b 40 3b
       0.002612063 0.0059903767 0.0021790697 0.0029332142
0002b0 b6 e3 f8 3a b0 84 c3 3b 29 e3 f8 3a 38 b2 82 3c
       0.0018988762 0.0059667453 0.0018988597 0.015954122
0002c0 ff b2 57 31 f0 08 7a 31 bb 0f 04 31 72 01 eb 30
       3.1388365e-09 3.6384868e-09 1.921747e-09 1.7098911e-09
0002d0 9c 09 d7 30 7c 32 3d 31 35 4a fe 31 68 06 9d 31
       1.564604e-09 2.7531817e-09 7.4008093e-09 4.5700297e-09
0002e0 cf 33 1a 31 c0 bf d0 31 1e 90 77 31 96 53 01 31
       2.24394e-09 6.075396e-09 3.6025152e-09 1.8819484e-09
0002f0 40 ed 00 32 6e 76 f8 31 8d 97 02 32 5b 32 8b 32
       7.504525e-09 7.231214e-09 7.601455e-09 1.6204629e-08
000300 15 4b 0d 39 db 00 76 39 fc eb 4a 39 03 bc 57 39
       0.00013474778 0.00023460707 0.00019352132 0.00020574038
000310 9d 1e 57 39 81 7a 8f 39 9d d9 4b 39 fd 49 8a 39
       0.00020515402 0.00027366358 0.00019440656 0.00026376537
000320 c7 a3 a1 39 de ce a0 39 1d e7 a8 39 8c be a0 39
       0.00030830337 0.00030671706 0.0003221565 0.00030659547
000330 64 da 4b 39 b2 9d 9b 39 c9 d9 4b 39 5f 71 dc 39
       0.00019440945 0.00029681396 0.0001944072 0.00042046138
000340 10 c5 96 38 41 dc 31 39 b9 5b ed 38 93 fa 49 39
       7.189263e-05 0.00016962086 0.00011318125 0.000192622
000350 89 36 d8 38 9c 37 8b 39 be 12 dd 38 4d 38 a5 39
       0.000103098406 0.00026553578 0.00010541592 0.000315132
000360 ae 94 fa 38 28 b7 55 39 a7 d8 48 39 fd c1 58 39
       0.00011948623 0.00020381494 0.00019154196 0.00020671632
000370 e0 12 dd 38 ab ac 9a 39 d8 12 dd 38 a8 08 2d 3a
       0.00010541617 0.00029501817 0.00010541611 0.0006600716
000380 5e 1d 16 3a 63 32 17 3a 39 21 85 39 42 00 20 3a
       0.0005726422 0.0005767701 0.0002539249 0.0006103554
000390 d4 0d bd 39 7f c8 fe 37 a8 ae 8d 3a e4 4c ac 3a
       0.00036059192 3.0372523e-05 0.0010809498 0.0013145474
0003a0 7b df 23 3a f5 51 45 3a 0f 6b a0 3a 2d b3 dc 39
       0.0006251258 0.0007527166 0.0012238937 0.00042095166
0003b0 72 ae 8d 3a 13 25 1a 3b 51 ae 8d 3a c8 3d 12 3a
       0.0010809435 0.0023520633 0.0010809397 0.0005578664
0003c0 4e aa 6e 3a fc 8e d3 39 11 81 98 39 63 7e f0 39
       0.0009104357 0.00040351588 0.0002908786 0.00045870533
0003d0 c7 64 94 39 63 18 59 3a 4d 15 af 3a 2e 50 45 3a
       0.00028303845 0.0008281527 0.0013357789 0.00075269013
0003e0 e5 ca 63 39 2f 8c f0 39 1f 38 06 3a 52 8b fd 39
       0.00021723991 0.00045880812 0.0005120057 0.00048359722
0003f0 e6 14 af 3a 27 be 2c 3a 95 15 af 3a 6f cb f9 3a
       0.0013357669 0.0006589614 0.0013357872 0.001905782

exp_avg f4 [48]
000000 57 51 b8 bb c9 3f a8 3b 60 7b 5d 3b 3d ba ec 3a
       -0.005624931 0.005134557 0.003379546 0.0018060874
000010 6f f8 c4 b9 7f 0c a2 b6 50 1d c8 3b cb 8f 56 3c
       -0.0003756913 -4.829431e-06 0.00610701 0.013095806
000020 96 d4 a5 39 b8 63 87 38 b0 f1 48 bb 38 de 38 b8
       0.0003162964 6.455876e-05 -0.0030661635 -4.4075976e-05
000030 d7 72 93 3b 85 bd 48 b8 3b e8 86 3b cd e1 cb bb
       0.004499774 -4.786022e-05 0.0041170395 -0.006221986
000040 9f 92 10 bd a8 56 30 3b 2d 30 3e be cf ca a8 3b
       -0.03529608 0.002690712 -0.18573065 0.00515113
000050 e4 b9 d2 3c 54 6e 99 bc 78 ba bf 3c 62 f2 71 bc
       0.025723405 -0.018729366 0.023404345 -0.014767261
000060 58 c0 83 bd 2f 9a a1 3b 1e 63 03 3d 4d 72 8f bb
       -0.06433171 0.00493171 0.032076947 -0.0043776394
000070 a0 63 4d 3b ef df 16 b8 1f 85 ce bb 49 e3 10 bb
       0.0031339899 -3.597134e-05 -0.0063024904 -0.0022108129
000080 28 1b a1 bb c5 62 08 3b 8e 29 38 bc 8f f9 42 b8
       -0.0049165674 0.0020810824 -0.011240376 -4.6485624e-05
000090 e6 6b 88 3b cf 96 df 3c 8e 68 75 bb 4f 84 60 bc
       0.004163253 0.02729359 -0.0037446353 -0.01370342
0000a0 c5 3e 94 38 d9 ef 3b bb a6 26 ad 3a 6b 83 47 3b
       7.068882e-05 -0.0028676896 0.0013210371 0.0030443321
0000b0 5e c1 68 ba dd 82 44 bb 72 85 8b 3b 7e 83 34 bb
       -0.00088789116 -0.0029985227 0.0042578513 -0.0027544196
