backend/data/models/neural_v1.pt (torch, 76782 bytes, 48 tensors)

model.0.weight f4 [64, 17]
000000 a2 8a a7 3d 4c ec 03 be a5 27 10 3e 87 f4 60 bd
       0.08180739 -0.12883109 0.14077623 -0.0549207
000010 f9 a6 0a be 38 0a 9a 3d 90 06 d7 be ad af 30 3e
       -0.13540258 0.0752148 -0.41997194 0.17254515
000020 8c b2 c6 bd 5b f6 40 3d ac a4 51 3d 4d e2 73 bd
       -0.09702024 0.047109943 0.051182434 -0.05954199
000030 b9 98 69 be ca 6c 05 be 7c ee 09 be 9a 6a 01 3e
       -0.22812165 -0.13029781 -0.13469881 0.12638322
000040 07 83 58 be 9e cd 10 be 62 9d b1 3d fb 19 5b bd
       -0.21143733 -0.14140937 0.086725965 -0.053491574
000050 eb 41 38 3e c7 48 35 3e 26 39 e6 bc c8 8c b8 bd
       0.17993896 0.17703544 -0.028103422 -0.09011227
000060 0e 45 a7 3e 09 88 b3 bd df 47 33 be 9d 16 52 3e
       0.32669872 -0.08766181 -0.17507885 0.20516439
000070 68 13 72 be d2 2f 0b 3e bd aa 99 3d 31 0d 07 3e
       -0.23640215 0.13592461 0.07503269 0.13188626
000080 09 82 3c 3e ab 79 d3 bd 77 d5 f4 bc 92 2a 71 3d
       0.1840898 -0.10325941 -0.029886944 0.05887849
000090 74 ed 8a 3e a2 62 84 3d 07 60 0d bd 6c df a6 be
       0.27134287 0.06464125 -0.034515407 -0.32592332
0000a0 2a df 41 bb 32 fe 89 3a 1b ce d3 3d 1e 47 ac bd
       -0.002958248 0.0010528027 0.10342046 -0.08412002
0000b0 a9 2f 8e 3e dd ef 64 3e ee 4a 86 3d 1e 31 e8 bd
       0.27770737 0.22357126 0.065572605 -0.11337493
0000c0 43 96 39 be fa dc c8 3d 89 6b d6 bd c6 34 3a 3e
       -0.18123727 0.09807773 -0.104697295 0.18184194
0000d0 fd 09 3e be 25 f9 8a 3e cb 7f 13 3e f5 f4 32 3e
       -0.18558498 0.27143207 0.14404218 0.17476256
0000e0 bb 8b bf 3c 7b c6 f8 bb 8e 77 0b be 0f ef 20 ba
       0.023382058 -0.00759202 -0.13619825 -0.0006139138
0000f0 76 f0 c3 bd 4d 8c 21 3d 45 59 44 bd f7 70 9d 3d
       -0.09567349 0.039440442 -0.047936697 0.07687562
000100 6c d0 7f 3e 19 dc 04 3d 77 f8 81 be 6c 79 42 3d
       0.2498185 0.032436464 -0.25384876 0.04747908
000110 fd 37 9c be 75 9f 11 be 07 0e 48 be 18 03 9b 3d
       -0.30511466 -0.14220984 -0.19536601 0.075689495
000120 11 2a 22 be 56 45 ae bd 9b a6 85 bd f3 f9 09 3d
       -0.1583636 -0.085093185 -0.06525918 0.033685636
000130 22 e4 c9 3d a4 9a e0 bd 73 b1 e0 3c fc fc 1b 3e
       0.09857966 -0.10966995 0.027428364 0.15233225
000140 83 33 a7 3d 35 e8 ac 3e 7b ef 52 bc 33 af 6f be
       0.08164122 0.3377091 -0.012874479 -0.23406677
000150 00 4a 40 be 71 b8 0c be 34 45 c5 bd cd 1e 6d 3d
       -0.18778229 -0.13742234 -0.0963234 0.057890702
000160 0b 81 02 3e 07 c3 6c bd b0 82 54 3e 58 14 96 3d
       0.12744538 -0.05780318 0.20752978 0.07328099
000170 e5 ff 8d 3d cc da 4c be 63 28 f7 3c 2f 86 0d be
       0.06933574 -0.2000534 0.030170625 -0.13820718
000180 37 bf 03 be 74 03 86 3d 4b 8c c9 3e df 9c 22 3e
       -0.12865911 0.065436274 0.39364848 0.15880154
000190 00 fc 47 be 26 34 0d 3e 01 59 da 3e ec b6 1b 3e
       -0.19529724 0.13789424 0.4264603 0.15206498
0001a0 1d 50 bd bd 25 aa 99 bd f6 3d 10 3d 6a 44 50 3d
       -0.09243796 -0.075031556 0.03521534 0.050846495
0001b0 0c c0 14 3e 93 0a 87 be df 2c c7 3c d7 c1 36 3d
       0.14526385 -0.26375255 0.024313388 0.044618454
0001c0 d9 09 21 bd 0f 65 32 3e 8d b1 82 3c 77 c5 7f 3c
       -0.039316032 0.17421363 0.015953803 0.015611044
0001d0 bc ab 89 3c 0c 71 79 3c 44 77 d1 3c 0c 7d 4e 3b
       0.016805522 0.015224706 0.025569566 0.003150764
0001e0 a6 78 39 3e 53 1d 9a 3c 4b e6 f8 bc a2 3b 0e 3e
       0.1811243 0.018812811 -0.03038325 0.13889936
0001f0 fd ef 21 be ea 61 e6 3e 9a 4b 08 bd e1 dd 84 3e
       -0.15814205 0.44996578 -0.033275224 0.2595053
000200 f9 46 3b 3e 79 5d 06 3d b7 e7 ac bd 62 3f 09 bc
       0.18288793 0.032803986 -0.084426336 -0.008376928
000210 98 d6 76 3e fe 3a 44 3e 7d 81 9c 3c 9e ac 35 3e
       0.24105299 0.19163129 0.019104714 0.1774163
000220 5c 2c 34 3e bb ca 1e be 39 29 a9 bd 63 7d c7 bd
       0.17595047 -0.15507023 -0.08259816 -0.097407125
000230 51 1b 89 3e 3f fe 47 3d e6 9e ff bd ae 59 28 be
       0.26778653 0.048826452 -0.12481479 -0.1644046
000240 76 0c bd 3c ac 60 91 3d fc 3d 2f be 86 6d 30 3e
       0.02307723 0.07098517 -0.17113489 0.1722928
000250 f8 6b da bd 94 cd 08 bc 2c 5d 0d 3e 14 92 94 bc
       -0.10665125 -0.008349795 0.13805073 -0.018136062
000260 0a 91 7c 3d 5d 81 72 3e c6 f4 32 be 6f 10 57 be
       0.061661758 0.2368216 -0.17476186 -0.21002363
000270 9a 74 fa bb 53 5b dd 3d 0b be de 3c 46 65 a4 3b
       -0.0076432945 0.10808434 0.027190229 0.0050169555
000280 af f9 09 be 2f bb 4a 3e 7b 1c 57 3e e5 ca 32 3b
       -0.13474153 0.19797967 0.21006958 0.002728158
000290 4c a8 44 3e 55 a5 cb 3d 17 8b a8 be 77 df 53 bd
       0.19204825 0.09943644 -0.32918617 -0.051726785
0002a0 ef b8 2a 3e cc 40 86 3b a2 98 e0 3d 45 9e f0 bd
       0.16672109 0.00409708 0.109666124 -0.117489375
0002b0 d6 e8 87 bd 37 3a 4f 3c ba 0d 60 be 57 13 24 be
       -0.06636207 0.012648157 -0.21880236 -0.16023003
0002c0 b6 ec b2 be d4 03 30 3d 7d 4a 1d be 27 8b 33 bd
       -0.3494622 0.0429724 -0.15360446 -0.043833878
0002d0 ed 1c b5 3c c2 2d e3 3d 60 f3 a0 3d 9e b8 56 be
       0.02210852 0.11092712 0.0785892 -0.20968863
0002e0 8f 63 12 3d ec d9 97 bc 5f 7c 90 be e2 20 71 be
       0.035739478 -0.01853653 -0.28219888 -0.235477
0002f0 34 a8 55 be f7 ab 50 bc bb c1 b7 bd fa af 61 be
       -0.20864946 -0.012736312 -0.08972498 -0.22039786
000300 e2 11 ac bc f3 86 2f 3e 24 4c bb bd d0 8f d4 bd
       -0.021004621 0.17141323 -0.09145382 -0.103789926
000310 fd a2 ae bd 4f 32 bb bd d4 20 48 3e 9f f4 c4 bc
       -0.08527181 -0.09140455 0.19543773 -0.024042426
000320 1b ee f0 3c 9b fd df 3c 7d 7b 1d be 89 77 b6 3d
       0.029410413 0.027342608 -0.15379138 0.08909518
000330 2f 36 19 be 6e 3c 25 be c3 93 65 3e 1a d7 93 3d
       -0.14962076 -0.16136333 0.22419648 0.07218762
000340 db 53 ea 3d 24 a2 f2 3d 5e de 6c bd c2 d1 8e 3e
       0.114417754 0.11847332 -0.057829253 0.27894408
000350 b7 27 8c bd 1c 0f 50 be 7b 86 60 3e 75 b4 32 3d
       -0.068435125 -0.20318264 0.219263 0.04362913
000360 ef fc 01 3e f5 18 03 3d 6b a3 c6 bd 61 b1 b4 3d
       0.12694143 0.032006223 -0.09699138 0.08822895
000370 6f a4 5c bd 69 e7 93 3e e7 82 ef bd 29 44 2a 3e
       -0.053867754 0.2888749 -0.116948895 0.16627564
000380 f3 32 37 be 7a e5 d2 3c 10 e3 53 3e 83 d3 dd bd
       -0.1789053 0.025744189 0.20692086 -0.10831358
000390 fe 29 0c be 4a cf 05 3e 6f ab 58 3e 88 26 71 3d
       -0.13687894 0.13067356 0.21159147 0.058874637
0003a0 f2 ac d6 bd d3 bd f2 bd 0b ba 99 bd 52 a1 17 be
       -0.104822055 -0.11852612 -0.07506188 -0.14807633
0003b0 50 d4 4e 3e 24 37 71 be 54 df 71 3e 6d 7e 1d 3d
       0.20198178 -0.2355619 0.23620349 0.038450647
0003c0 47 7a e8 bd a3 95 21 3e df 8b 72 3e 86 cc e1 bc
       -0.113514476 0.15779738 0.23686169 -0.027563345
0003d0 18 ea 96 3d 8f e3 ce 3d ec e5 03 3e b9 06 2b 3d
       0.073688686 0.10101997 0.12880677 0.041754458
0003e0 e6 ca 36 be a2 02 70 3d b4 74 db 3c 87 a2 b1 be
       -0.17850837 0.05859626 0.026789047 -0.3469431
0003f0 25 10 0c be 5f 3a b8 3c 5a 53 21 3c a5 0f c0 bb
       -0.13678034 0.022488771 0.009846533 -0.00586124

model.0.bias f4 [64]
000000 6c d2 dd 3d 59 ff 45 3e 57 22 94 be fd 0e 03 bd
       0.108311504 0.19335689 -0.2893245 -0.031996716
000010 c9 5a 3e 3e b5 f1 a1 bd 05 1e e0 bd af 42 d7 bd
       0.1858932 -0.0790743 -0.10943226 -0.10510766
000020 ee 0c a6 3e 83 b5 0a 3e 3f 2c 99 bd 30 99 fd 3e
       0.3243174 0.13545804 -0.074791424 0.49530935
000030 dc 48 a8 be 84 df 3c 3e cd 70 04 be 9f 80 67 3c
       -0.32868087 0.1844464 -0.12933655 0.014129787
000040 b8 70 f9 be c0 03 69 be ae b2 ae be 90 ec f3 bd
       -0.4871881 -0.22755337 -0.34120697 -0.11910355
000050 e9 33 33 be 2e 13 cb bd ce 2c 86 be b1 2e 38 bd
       -0.17500271 -0.099157676 -0.26206058 -0.044966403
000060 dc c1 2b be ef b1 0e bf ab 69 02 be 17 ea 8d be
       -0.1677317 -0.55740255 -0.12735622 -0.2771766
000070 64 08 0c be 4f 5f c8 3d 84 c6 7b be 27 6b 99 be
       -0.13675076 0.09783804 -0.24587446 -0.29964563
000080 4e 7b f0 be 78 5a e0 be a0 9b e5 be 34 d8 75 3c
       -0.46969074 -0.43819022 -0.44845295 0.01500516
000090 2b cc 29 3d 83 2c c3 3e 52 3f b4 3d 10 ad 87 be
       0.041454475 0.38119897 0.0880114 -0.26499224
0000a0 27 46 24 be 45 8a 77 be 9a 6d c1 3d 00 be 04 bf
       -0.16042386 -0.2417384 0.09444733 -0.51852417
0000b0 59 8d b5 be 5d a5 33 be eb 80 2c 3e da de ae be
       -0.35459402 -0.1754355 0.16846053 -0.34154397
0000c0 74 5c a3 3e e4 b5 35 3b 66 68 01 be 10 7a d5 be
       0.31906474 0.0027726823 -0.12637481 -0.4169469
0000d0 56 a7 ec 3a 36 46 32 be fb 92 91 be 86 b1 f0 be
       0.0018055241 -0.17409596 -0.2843245 -0.4701044
0000e0 f1 a8 4d 3e 3d 36 c2 3d 0f a4 db be 3b b8 90 3e
       0.20083977 0.094830014 -0.42898604 0.28265557
0000f0 57 58 7a 3d 1e 63 6b 3e 18 c5 4d be 1d 40 56 3e
       0.061119404 0.22987029 -0.20094717 0.20922895

model.2.weight f4 [64]
000000 26 ca 68 3f bb 31 30 3f 9d 3b 4e 3f 48 3f 5f 3f
       0.90933454 0.6882588 0.8055971 0.87205935
000010 7b 1f 60 3f 2c 21 6d 3f 66 7a 5b 3f 36 f1 65 3f
       0.87548035 0.9262874 0.8573364 0.89821184
000020 93 1c 7c 3f bb 91 77 3f 80 37 5f 3f 05 94 48 3f
       0.984811 0.9670674 0.8719406 0.7835086
000030 a8 98 6c 3f 0b ad 7f 3f dc 26 75 3f 15 d0 4a 3f
       0.92420435 0.9987342 0.9576242 0.7922376
000040 df ce 57 3f 19 9c 6d 3f 6a 47 92 3f ac 0b 65 3f
       0.84300035 0.9281631 1.1428044 0.89470935
000050 e1 c2 66 3f fc 03 60 3f b5 99 66 3f a3 03 7f 3f
       0.9014111 0.8750608 0.9007829 0.99614924
000060 c4 34 73 3f 52 f3 71 3f 74 ae 5b 3f bf 7e 50 3f
       0.9500239 0.945119 0.8581307 0.814434
000070 e8 8f 63 3f 2a 1f 59 3f 5e d1 5a 3f 94 04 87 3f
       0.8889146 0.8481318 0.8547572 1.0548272
000080 6c a1 5f 3f 8c dc 67 3f 4b 45 63 3f 4e 75 2e 3f
       0.87355685 0.905709 0.8877761 0.6814774
000090 99 e6 3d 3f 63 4f 50 3f 25 ca 41 3f 98 cb 41 3f
       0.7417999 0.81371135 0.75699073 0.75701284
0000a0 60 ee 89 3f 28 5f 54 3f 4b da 48 3f 71 76 72 3f
       1.0775871 0.82957697 0.7845809 0.9471198
0000b0 63 b1 7a 3f 08 64 7e 3f 15 04 26 3f 02 58 5b 3f
       0.9792692 0.99371386 0.6484998 0.85681164
0000c0 72 11 89 3f 1f a0 64 3f 34 a9 8a 3f 08 c7 6e 3f
       1.0708449 0.89306825 1.0832887 0.9327245
0000d0 f7 1c 73 3f 4d d9 66 3f 9b f3 64 3f cf d5 78 3f
       0.9496607 0.90175325 0.8943421 0.97201246
0000e0 f1 61 6d 3f 23 28 5c 3f 2a 83 6a 3f 55 a4 4b 3f
       0.9272757 0.85998744 0.9160639 0.79547626
0000f0 68 71 51 3f 03 be 73 3f a0 39 80 3f c1 8f 73 3f
       0.8181367 0.9521181 1.0017586 0.95141226

model.2.bias f4 [64]
000000 15 07 15 3e e6 ea ed be b7 45 fe bc 11 7a a4 3e
       0.14553483 -0.46468276 -0.031039102 0.3212438
000010 fc bc bd 3e 6a b5 70 be 1d cd eb bd a1 c8 e9 3d
       0.37058246 -0.23506704 -0.11513732 0.1141522
000020 c2 97 bb 3c 51 da 8b 3d b9 9c e4 bd 62 f0 69 3e
       0.022899512 0.0682875 -0.11162705 0.22845605
000030 5e c8 8d be 1b d3 29 3d 51 0e 87 bd d7 28 db be
       -0.2769193 0.04146109 -0.065945275 -0.42804596
000040 f9 64 01 bf 71 b6 81 bd d5 1b 8a 3e 9a 20 dc be
       -0.505447 -0.06333626 0.2697436 -0.42993623
000050 f4 b9 f7 be 73 72 d5 bd 82 4e ed bd 11 79 b2 3e
       -0.48384058 -0.1042222 -0.1158724 0.3485799
000060 a6 f5 b6 be be 7d c9 be f9 d8 a3 3d cb 64 eb bd
       -0.3573429 -0.39353746 0.080003686 -0.11493834
000070 7a 5e 87 be b1 47 59 be 23 a3 49 be 72 b0 55 3e
       -0.26439267 -0.21218754 -0.19691138 0.2086809
000080 5e f7 c5 be 53 01 0b bf 26 5f dc be d3 13 32 be
       -0.3866529 -0.54298896 -0.43041342 -0.17390375
000090 88 5b 95 3e 13 ff 7b be e9 e7 2e 3d df 53 a8 bd
       0.29171395 -0.24609022 0.042701636 -0.08219122
0000a0 0f f6 be 3e c9 7e 2a 3d 82 f1 b7 be f2 88 18 bf
       0.37297103 0.041624818 -0.35926443 -0.5958396
0000b0 35 be 26 3e e5 06 21 be de 79 c3 3d b9 86 cd be
       0.16283496 -0.15725286 0.09544729 -0.40141848
0000c0 9c ee 99 3e 5f 83 bc 3d 7e 07 c3 3e 2d 33 24 be
       0.30064857 0.092047445 0.38091654 -0.16035147
0000d0 cd ac 6f be 9c 1c a3 3e a6 4f 06 bf 64 e3 5b bd
       -0.23405762 0.31857765 -0.52465284 -0.053683653
0000e0 22 81 ae 3e 0c 3d 0c 3d 5e 3e d5 be e7 24 31 3d
       0.34082896 0.034237906 -0.41649145 0.043248083
0000f0 e3 76 b9 3c 32 65 c5 3d 55 a1 8b 3e bb b7 ac 3d
       0.022639697 0.09638442 0.27271524 0.08433481

model.2.running_mean f4 [64]
000000 17 a6 52 3e 9c e9 c3 3e 52 ee 30 3d a4 c7 81 3e
       0.20571171 0.38264167 0.04319603 0.25347626
000010 aa 8e a6 3e fe bf 7f 3e 0d cc e0 3d ee d4 18 3e
       0.3253072 0.24975583 0.109764196 0.14924976
000020 af 99 b0 3e a1 56 82 3e 94 d5 fd 3d 27 43 02 3f
       0.3449225 0.25456718 0.123942524 0.50883716
000030 74 28 5c 3d 51 4d 73 3e bd a7 0b 3e 35 6d 4f 3e
       0.053749517 0.23759963 0.13638206 0.20256503
000040 fa b3 a4 3a 2d 66 e8 3d 72 66 25 3d 3c 9b ec 3d
       0.0012565844 0.113476135 0.040380903 0.11553046
000050 43 38 a3 3d 80 01 15 3e 63 51 8a 3d 70 50 8d 3e
       0.079697154 0.14551353 0.067538045 0.2760043
000060 aa 90 04 3e 68 c2 ce 3a f2 74 d5 3d 54 35 d1 3d
       0.1294581 0.001577449 0.10422696 0.1021525
000070 be a1 0d 3e 08 93 2a 3e 13 e7 5e 3d 4a 4d 8b 3d
       0.13831231 0.1665765 0.05441959 0.06801851
000080 d8 ee c8 3c 72 af 96 3c 5a da 30 3c 6a c8 62 3e
       0.024527952 0.018394206 0.010794247 0.22146764
000090 d2 af 46 3e 83 b0 c4 3e 8e 16 7f 3e 7e 26 26 3d
       0.19403008 0.38415918 0.24910948 0.040564053
0000a0 6c 29 1e 3e 55 a3 e3 3c b1 57 87 3e fa 74 10 3c
       0.15445489 0.027787844 0.2643409 0.008816952
0000b0 25 2d c6 3c e5 61 ba 3d ae 4e 8e 3e 15 10 38 3d
       0.024191448 0.09100703 0.27794403 0.044937212
0000c0 e1 dd 90 3e 56 bb 2a 3e 42 4a 49 3e b4 b4 98 3c
       0.2829428 0.16673025 0.19657233 0.018640853
0000d0 26 f8 45 3e 3d 3f 17 3e a9 e9 99 3d d3 ff 36 3b
       0.19332942 0.14770217 0.0751527 0.002792348
0000e0 7c bc d5 3e ff 61 7c 3e 1b 33 cb 3c 2e 2c b4 3e
       0.41745365 0.24646758 0.024804642 0.35189956
0000f0 41 f4 3f 3e a0 6c 8e 3e 9e fe fb 3d 2b 24 7c 3e
       0.18745519 0.2781725 0.12304424 0.24623172

model.2.running_var f4 [64]
000000 17 2a 84 3d 1f 51 45 3e 7f b2 56 3c 40 ea 00 3e
       0.064533405 0.19269226 0.01310408 0.1258936
000010 9a 51 1c 3e f8 b4 1e 3e d6 d5 0d 3d 53 c2 4e 3d
       0.15265504 0.15498722 0.034627758 0.05047829
000020 96 20 da 3d e5 d4 ce 3d fe 6b 20 3d 81 82 e8 3d
       0.106507465 0.100992 0.03916549 0.11353017
000030 4a b5 9b 3c 38 f7 97 3d 23 0c 54 3d c1 68 89 3d
       0.019007344 0.074202 0.051769387 0.06709433
000040 1f 18 44 39 da b3 36 3d 55 37 20 3c 57 79 27 3d
       0.00018701002 0.044605114 0.009778817 0.040887203
000050 35 e7 c8 3c 63 6f 35 3d f9 89 b0 3c fa c8 18 3e
       0.02452431 0.04429568 0.021550165 0.14920416
000060 8c 6e 2b 3d a1 91 2d 39 a1 b8 0b 3d a6 4c 31 3d
       0.041853473 0.00016552817 0.034111623 0.04328599
000070 8c fd 53 3d 2f 72 46 3d 6c 84 84 3c ae d9 b4 3c
       0.051755473 0.048448738 0.016176425 0.022076454
000080 7d 23 f1 3b 3e 33 9b 3b fe 85 ed 3a a5 b2 bd 3d
       0.007358967 0.004736333 0.0018121598 0.09262589
000090 0d 6a 7c 3d 69 0d 77 3d 40 cb bc 3d 91 ed 20 3c
       0.061624575 0.060315523 0.09218454 0.009822265
0000a0 a3 fa 96 3d 94 ae 95 3b 28 ac f8 3d d8 e9 aa 3a
       0.07372024 0.0045679305 0.12142211 0.0013039662
0000b0 30 cb cc 3b 10 b8 db 3c ce ba ee 3d 9c a8 50 3c
       0.006249808 0.026821166 0.11656724 0.012735512
0000c0 0e 84 26 3d 92 6d 62 3d d0 75 bf 3d 14 c5 66 3b
       0.04065328 0.055280276 0.09348643 0.0035212683
0000d0 ff a3 96 3d 1d 60 7b 3d 5e 52 b1 3c a4 ac 87 39
       0.073554985 0.061370958 0.021645721 0.00025877834
0000e0 62 9e 6a 3e df d2 b5 3d a4 9e d8 3b 3d 72 d8 3d
       0.22911981 0.08878111 0.0066107083 0.10568664
0000f0 73 3b 96 3d 53 dd a9 3d 5b e4 3a 3d 51 3b 95 3d
       0.07335558 0.08294167 0.045627933 0.07286704

model.4.weight f4 [32, 64]
000000 e9 46 27 bd b6 bb da bc 81 84 c4 3d 3a 50 9f bd
       -0.04083911 -0.026700836 0.095955856 -0.07778974
000010 be dd c9 bd 8e 4a c6 bd 39 5e 8d bd b6 59 d7 38
       -0.09856747 -0.09682189 -0.06902737 0.00010268709
000020 35 93 7a bd e3 31 6b 3d c2 92 13 bd fd e4 89 bd
       -0.061175544 0.057420623 -0.03602863 -0.06733129
000030 8f 60 07 bc 44 9d 12 bc c5 9f 65 3d 72 5b da 3d
       -0.008262767 -0.008948628 0.05606057 0.10661973
000040 98 1d 08 3e 99 8e 93 3d 3a 1e e4 bd e9 c4 40 bd
       0.13292539 0.07204933 -0.11138578 -0.04706279
000050 5c 98 c4 3d be 23 99 bc 71 9e 91 3c aa 5e 74 be
       0.09599373 -0.018693801 0.017775746 -0.23864236
000060 04 a3 21 3d 83 c3 a6 3d 29 6a 68 3a ae 00 5e 3c
       0.039462104 0.0814276 0.0008865917 0.013549967
000070 94 b7 8f 3d f0 9c 85 3d e3 ae 55 3c 30 8e 00 be
       0.070174366 0.06524074 0.0130421845 -0.1255424
000080 29 66 6c 3d c3 5d 3c 3d fb bb 84 3d b6 a1 1e bd
       0.057714615 0.045987856 0.06481167 -0.03872844
000090 89 a8 38 be 5a a3 82 3e 9b 05 77 bc fe dc b9 bd
       -0.18033041 0.25515252 -0.01507702 -0.09075354
0000a0 05 2d a9 be 58 d4 19 3d f5 b8 18 3e 7f f3 cd 3d
       -0.3304216 0.037556022 0.14914306 0.10056209
0000b0 71 43 3d 3d 39 52 f6 3c 83 55 1c 3d 5c 49 a5 3d
       0.046206895 0.030068504 0.038167488 0.08070633
0000c0 69 b8 6f bd ec 7f 06 3e d4 1a b2 be 80 b5 f5 3d
       -0.058525477 0.13134736 -0.34786093 0.11997509
0000d0 f9 5f fa 3c 9f 61 1d be af 97 78 3e 85 47 ea bc
       0.030563341 -0.1536927 0.24276613 -0.028598556
0000e0 57 80 27 be 32 d7 08 3b 5c 07 be 3b 1a 10 62 3d
       -0.16357552 0.002088022 0.005799217 0.055191137
0000f0 5d 4a c2 3d eb 6a cb bd 96 7c 12 be ca 4d 10 3e
       0.0948684 -0.09932502 -0.14305338 0.14092174
000100 62 1c 86 3d 91 67 ae bc cc 4b a7 bd 38 30 da 3b
       0.06548382 -0.021289619 -0.08168754 0.00665858
000110 fe 46 74 bd d7 aa fe 3d 63 52 5c 3d 29 6d 28 bd
       -0.059638016 0.12434929 0.053789508 -0.04111973
000120 c0 ad ae 3d c2 f6 56 bb 3c 4c b2 3d d3 79 c5 bb
       0.08529234 -0.0032800888 0.08705947 -0.0060264855
000130 c2 24 85 bd 0d ec 39 3d ef 9b 25 3d 8d 4b 02 3e
       -0.065011516 0.04539113 0.040431913 0.12724133
000140 4c f9 89 bd a2 a2 2a 3b 2d 34 c4 3e ff 2e 2b 3e
       -0.06737003 0.0026036878 0.38321057 0.16717146
000150 7a 0b 77 3d 34 81 79 3b e4 cb a6 3d 4d b5 02 3d
       0.06031368 0.0038071396 0.08144358 0.031911183
000160 98 df 87 3d 74 e6 8a 3d 4f d0 0c be ec 80 b4 3d
       0.06634444 0.06782237 -0.13751338 0.088136524
000170 a9 4c ea 3d 46 1d 24 bd f5 d5 89 3d c6 b7 40 bc
       0.11440403 -0.04006698 0.06730262 -0.011762565
000180 9d 54 19 3d 1d 7d 07 bd aa e4 25 3d 72 1c 92 3c
       0.03743421 -0.0330783 0.040501274 0.01783583
000190 a2 bf a1 bd 04 c1 00 be 76 b7 25 bd a1 2f 2f be
       -0.07897879 -0.1257363 -0.040458165 -0.17108013
0001a0 d0 fb b2 3c 19 12 29 3e 9d 8c b1 bd 3c bd aa bc
       0.02184859 0.1651081 -0.08669398 -0.020842187
0001b0 11 df 1d be 02 01 a2 bb 91 e7 81 bd 74 0c 70 bb
       -0.15417124 -0.004943968 -0.06342996 -0.0036628516
0001c0 e6 f5 09 bc fb 6c 40 3d 78 01 00 3d 52 f2 9d bd
       -0.008420443 0.046978932 0.0312514 -0.077122346
0001d0 f2 dd 2c 3e 81 09 f1 3d 83 36 30 bd fb 6e 8f bc
       0.1688154 0.11769391 -0.043020736 -0.017508974
0001e0 b1 0e 0e 3d 13 db 06 bd 17 31 dc 3d e4 80 a1 3b
       0.03468198 -0.03292377 0.10751551 0.004928695
0001f0 89 69 23 be b0 b6 af bc 44 7e 28 3d 45 1f 99 3d
       -0.15958227 -0.021449417 0.04113604 0.07476667
000200 32 18 18 3d 32 e2 38 bd a7 88 9e bd 66 e4 91 3d
       0.03713245 -0.04513759 -0.07740908 0.07123642
000210 53 d2 de 3d 80 20 cd 3d c5 2f 53 be 56 1d 26 bc
       0.1087996 0.100159645 -0.20623691 -0.01013883
000220 bb 24 91 bd 5d fb 95 bd 5b 3b f7 bd 59 69 a6 3d
       -0.07087084 -0.07323334 -0.12071868 0.08125562
000230 e8 70 cc bc ae da f6 bd aa 4d 14 be ff d6 ce bc
       -0.024956182 -0.120534286 -0.14482751 -0.025249003
000240 bf 29 4f be d5 aa bf bd ca d3 35 bd 87 a8 9a bd
       -0.20230769 -0.093587555 -0.04439143 -0.07551675
000250 17 6b 97 bd a1 59 a2 3d 20 5b 2d be 94 55 ce 3d
       -0.07393473 0.079272516 -0.16929293 0.100749165
000260 e2 22 0b be ee 48 d8 3c 57 16 03 3e a8 5b 9b bd
       -0.13587525 0.026401963 0.1280149 -0.075858414
000270 e0 5b f4 bc d8 33 2c bd f6 28 66 bd 9c 19 5d 3a
       -0.029828966 -0.04204163 -0.056191407 0.0008434297
000280 02 c5 4c bd 8a 04 2e be bb 1e cb bd fb 22 eb 3d
       -0.04999257 -0.16993919 -0.09917971 0.11481281
000290 8f 5d e6 3d 86 41 9a bd bf 81 20 bd b4 c5 37 bd
       0.11248314 -0.07532029 -0.039186236 -0.04486628
0002a0 d1 e0 1c 3e d6 2b b5 3c 04 e9 c2 bd 13 de b4 bc
       0.15320136 0.02211563 -0.095171005 -0.02207855
0002b0 21 49 87 3d 90 7c 24 bd 9d 4d 35 bd 1a bd 29 bd
       0.06605745 -0.040157855 -0.04426347 -0.041440107
0002c0 b6 b8 7c bd 6f fb a5 be 0c ce ab 3d ca b4 85 bc
       -0.06169959 -0.3241839 0.0838891 -0.016321559
0002d0 52 fc 0d be f1 6d c1 bc 15 82 b5 3b 6d 03 be 3c
       -0.13865784 -0.023611994 0.0055391886 0.023194993
0002e0 eb 71 a0 3d 3a ac d8 3c 9e 3f d0 bc ff 86 da bd
       0.07834228 0.026449312 -0.02542096 -0.1067028
0002f0 6a 99 4c 3d c6 d5 fa bb a9 1a 71 3c aa c6 76 be
       0.049950995 -0.0076548783 0.014715829 -0.24099222
000300 0c cd 98 3b d0 75 12 3d f6 6e 30 3d 88 5f 77 bd
       0.0046631154 0.035756886 0.04307457 -0.06039384
000310 d3 a3 26 be e1 b2 33 be e8 4e 61 bb 31 ea f2 3d
       -0.16273431 -0.17548706 -0.0034379307 0.11861075
000320 f1 fd 9a bd 22 9a d5 3b 50 9c 30 bd 4a 65 67 be
       -0.07567967 0.006518618 -0.04311782 -0.22597232
000330 4a 40 b7 bc 7d 07 0d 3d ed 08 85 3d 43 b2 42 bd
       -0.022369523 0.03443097 0.06495843 -0.047533285
000340 f8 9b d1 3d a4 60 ff 3d 10 61 0c bd 55 94 8b bd
       0.10234827 0.124696046 -0.034272254 -0.068154015
000350 3d fe 8e 3c 7c aa 79 3e 97 7b c6 bc 42 9c 1b be
       0.017455215 0.24381441 -0.024228854 -0.15196326
000360 cb 36 6e bd 6b 0d a9 bd 5e 45 01 3d 77 61 27 be
       -0.058157723 -0.082545124 0.031560294 -0.16345774
000370 d7 69 32 3e 83 3f a6 bd a6 ec a9 be 13 0b 28 bd
       0.17423187 -0.08117583 -0.3318836 -0.041026186
000380 45 4c 5d bd a9 6f da 3d c0 1e 39 3d b4 cf 6f 3b
       -0.054027814 0.10665829 0.04519534 0.0036592307
000390 7e 55 02 3e 72 fa bc bd 17 a4 3b be 30 8a 84 3d
       0.12727925 -0.09227456 -0.18324314 0.0647167
0003a0 3d 36 fb bd 6e 52 a7 3c 68 7d 9e 3d 31 f9 12 be
       -0.122662045 0.020425048 0.07738763 -0.14352871
0003b0 09 b5 f1 3d 51 3e e0 3d 82 69 8d 3d 4a 11 ec bd
       0.11802108 0.10949386 0.0690489 -0.11526735
0003c0 97 c0 d0 bd 10 98 ae 3d 52 a2 1d 3c 7a 83 39 3d
       -0.101929836 0.08525097 0.00962122 0.0452914
0003d0 a5 d4 b1 bc 10 b4 84 3c b8 8c 08 3e 77 bf 23 bd
       -0.021707842 0.016199142 0.1333493 -0.039977517
0003e0 a0 8f 60 bd 5b 8b e6 bd ef 9d 1a 3d b1 39 0d 3e
       -0.05482447 -0.11257049 0.037748273 0.13791539
0003f0 07 02 5a 3d 9f 36 29 bc 46 a6 01 3e 43 21 70 3d
       0.05322459 -0.010327964 0.12661085 0.05862547

model.4.bias f4 [32]
000000 09 37 4a be 67 cb 5d be 96 ef 04 3e 1b 30 64 3e
       -0.19747557 -0.21659623 0.1298202 0.22283976
000010 29 d6 ac 3e 16 f1 d5 bd 1d 40 de bd 49 a1 e4 bd
       0.3375714 -0.10446374 -0.108520724 -0.11163575
000020 2d 43 47 3e c4 69 b8 3e fc 66 f7 3d 72 8a 96 3d
       0.1945922 0.36018193 0.120801896 0.07350625
000030 0a ad cc 3d 63 93 48 3d b5 b9 b9 3d b9 ef 97 be
       0.09993942 0.048968684 0.09068624 -0.2967508
000040 13 07 d9 bd dc 24 db be 64 76 76 3d 45 74 dc be
       -0.105970524 -0.4280156 0.0601715 -0.43057457
000050 3c 2e 9f 3e 7a 90 6f 3e 74 14 c4 3e 89 e7 17 3e
       0.31089962 0.23394957 0.38296854 0.14834417
000060 05 8b 0e 3c c4 e9 9c bd 4d 8a b5 3e 4a 87 5c bd
       0.008700137 -0.07661775 0.35457078 -0.05383996
000070 a1 d2 d7 bd 43 29 b7 3d d6 a5 db bd b0 61 4a be
       -0.10538221 0.08943417 -0.1072499 -0.19763827

model.6.weight f4 [32]
000000 dd 9c 52 3f f1 b8 81 3f 76 03 6a 3f 99 31 6a 3f
       0.82270604 1.0134565 0.9141153 0.9148193
000010 66 ba 53 3f 49 e0 5c 3f 18 76 89 3f ea 13 46 3f
       0.82706296 0.8627973 1.0739164 0.77374136
000020 62 d5 61 3f da 54 81 3f 81 75 5c 3f 1d 90 5b 3f
       0.8821622 1.010402 0.86116797 0.85766774
000030 27 56 6b 3f 70 40 4d 3f 51 58 55 3f b8 4d 82 3f
       0.91928333 0.8017645 0.83337885 1.0179968
000040 c7 5e 68 3f b7 fb 82 3f 37 9e 58 3f de f8 7b 3f
       0.9076962 1.0233067 0.84616417 0.98426616
000050 bc 2f 55 3f c6 85 44 3f d9 64 65 3f 3b 82 6c 3f
       0.8327596 0.7676662 0.89607006 0.92386216
000060 51 aa 58 3f 54 43 55 3f 2b b8 70 3f 4f e9 83 3f
       0.8463488 0.8330586 0.9403102 1.0305575
000070 a8 30 66 3f bc 6c 44 3f b2 f8 5d 3f 86 9d 65 3f
       0.89917994 0.76728415 0.86707604 0.89693487

model.6.bias f4 [32]
000000 4f 9f 2d 3e a3 35 83 3e 97 20 3c 3e bf 27 9a 3e
       0.16955303 0.2562686 0.18371807 0.3010845
000010 64 89 98 be 03 21 4a 3e 70 20 1b 3e 1a 20 78 be
       -0.2979232 0.19739155 0.15149093 -0.24230996
000020 0e 03 0c 3e 98 21 37 3e 85 d1 90 bc ac bd 63 3e
       0.1367304 0.17883909 -0.017678032 0.22240323
000030 0d ed b4 3e 9b 47 a3 3e 27 36 92 3d 95 ea 19 3e
       0.35337105 0.31890568 0.07139235 0.15030892
000040 1c 14 3d 3c 79 19 08 3e 1c 4f c9 3d 54 c6 0b 3e
       0.011540439 0.13290967 0.09829542 0.13649875
000050 0c 12 fd 3c b4 63 b3 3d 92 36 3c 3e b1 e6 3e 3e
       0.030892394 0.08759251 0.18380192 0.1864269
000060 79 fd a7 bc f7 02 a0 3d 49 f8 65 3e 51 72 24 3e
       -0.020506607 0.078130655 0.22457995 0.16059233
000070 f6 cf 79 3e d0 3d b6 3d e3 1d 97 3e 20 bf 36 3d
       0.24395737 0.088985085 0.2951499 0.044615865

model.6.running_mean f4 [32]
000000 04 9b 35 3e d4 7a 94 3e e5 b7 95 3f dd ae 38 3f
       0.17734915 0.2899996 1.1696745 0.7214182
000010 a3 f7 89 3f 68 70 1d 3f ca 53 5a 3f 57 21 9a 3d
       1.0778698 0.61499643 0.852841 0.0752589
000020 64 b6 9d 3f a7 67 a2 3f 29 2b e4 3e b1 1b 2a 3f
       1.2321286 1.2687882 0.4456418 0.66448504
000030 b0 7e 96 3f 26 6f df 3e 0a 4d 13 3f d2 a0 a3 3d
       1.1757412 0.43639487 0.5753943 0.079896584
000040 b2 af 65 3e 82 24 e5 3d 69 98 b6 3e 6b 82 8f 3d
       0.22430304 0.11188604 0.35663155 0.07007297
000050 1b 33 4d 3f 43 0e f2 3e c3 45 74 3f 39 80 2b 3f
       0.80156106 0.47276506 0.9541895 0.6699253
000060 d8 2b 49 3f 8d 6b 8c 3e 2c 21 81 3f 9d 2a 06 3f
       0.78582525 0.27425805 1.0088248 0.5240877
000070 d9 b1 91 3e 36 f6 f1 3e 75 e3 94 3e 22 03 03 3e
       0.28456 0.47258157 0.29079786 0.12794164

model.6.running_var f4 [32]
000000 6d 79 64 3e 71 ca a8 3e 5c 08 92 3f e4 40 7f 3f
       0.22311945 0.3296695 1.1408801 0.9970839
000010 e0 6b 83 3f 07 4d 0d 3f d8 f3 27 3f ed c4 88 3d
       1.0267296 0.5519566 0.6560645 0.066781856
000020 3a c1 bc 3f eb 45 9b 3f cd 1c ee 3e 06 29 2d 3f
       1.4746468 1.2130712 0.46506348 0.6764072
000030 74 c5 9e 3f 76 89 0a 3f 55 88 2e 3f 40 ea c9 3d
       1.2404008 0.54116 0.68176776 0.09859133
000040 28 ae 6f 3e 46 c7 20 3e ad 68 a7 3e 3d cf cd 3d
       0.23406279 0.15701017 0.3269705 0.10049293
000050 d7 86 4a 3f ac 6f 0f 3f f0 14 92 3f 5f 0c 64 3f
       0.79112 0.5602977 1.141264 0.89081377
000060 3b 3e 1e 3f 98 81 db 3e b2 f7 88 3f 86 7e d9 3e
       0.61813706 0.4287231 1.0700591 0.42479342
000070 04 3c da 3e d4 2c 00 3f 92 2a bd 3e 36 c7 33 3e
       0.42623913 0.500684 0.3694654 0.17556462

model.8.weight f4 [16, 32]
000000 cd 12 0d be 24 ac 2f 3e b4 e2 ad bd 15 4e a0 bc
       -0.13776703 0.1715551 -0.08490506 -0.019568482
000010 ce d3 1d bc 93 d5 ac 3d ee 95 ac 3d c1 f7 a7 3c
       -0.009633018 0.084391735 0.08427034 0.02050388
000020 ad 8f aa 3c fc 7e 42 be d4 95 46 3e c0 53 de 3a
       0.020820463 -0.18993753 0.19393092 0.0016962215
000030 44 92 45 be 0f c4 f8 3d b8 92 8d 3d 31 a7 c6 be
       -0.19294077 0.1214677 0.0691275 -0.38799432
000040 86 24 9a 3d f0 0f a3 bc 02 e1 51 3d bc 2b 4b bd
       0.075264975 -0.01990506 0.051239975 -0.049602255
000050 4b 0c 29 bc 72 26 53 bc df e2 6d be ba 37 86 bc
       -0.010317872 -0.012887584 -0.23231076 -0.016383994
000060 01 46 a3 3d d9 2f db 3d 9c 26 4d be 31 d9 31 3d
       0.079723366 0.107024856 -0.2003426 0.04342002
000070 43 f3 6a 3d 5c 64 36 3c 9a c6 db 3d 36 1b d9 bc
       0.0573609 0.011132326 0.107312396 -0.026502233
000080 89 00 df 3d 66 54 5f bd d7 e3 5b be 70 b4 c7 3d
       0.10888774 -0.054523848 -0.21473633 0.097512126
000090 94 4a 3e 3e f2 41 65 be e8 a1 93 be ae 05 2d 3d
       0.18583137 -0.22388437 -0.28834462 0.042241745
0000a0 51 c5 72 be 52 77 0c 3d 5e 5d 25 3c a1 79 e1 3b
       -0.23708083 0.03429348 0.010093061 0.0068809544
0000b0 e6 fc 90 be af 1e 89 bb 48 05 f3 3c f5 99 95 3d
       -0.28317946 -0.004184566 0.029665604 0.073047556
0000c0 6a 4e de 3d c8 73 7a 3e db bb 36 be 2d 0a 27 3e
       0.108548 0.2445823 -0.17845099 0.16312476
0000d0 0d 1c ad 3c 7c 1c 71 3c 73 0b a0 bd 15 11 46 3e
       0.02113154 0.014716264 -0.07814684 0.19342454
0000e0 58 31 5c 3e cb 2e 53 3e af c1 41 be c4 85 1a be
       0.21503198 0.20623319 -0.1892154 -0.1509009
0000f0 04 d4 0d 3e ff c7 9a bc eb 87 a0 bb 09 17 e9 3d
       0.13850409 -0.018894194 -0.004899015 0.11381347
000100 6d e9 09 3e 31 fb fa bd 3e 95 50 bb 69 94 59 be
       0.13467951 -0.12254942 -0.0031827237 -0.2124802
000110 ae 64 20 3d 31 1e 61 be 31 aa 4a be 83 5e 4b 3d
       0.039158516 -0.21984173 -0.19791485 0.04965068
000120 eb 75 b4 3a ff f8 8e 3e 7c e6 5e bd 2d 63 4f be
       0.0013768052 0.27924344 -0.054419026 -0.20252676
000130 89 2d b4 3d 93 f0 a2 bd 5d b2 9d bc 65 ec 20 3e
       0.08797748 -0.07956042 -0.01925009 0.15715177
000140 af 90 3e 3d d4 c1 01 3e 37 f8 34 be 4b 44 0a 3e
       0.0465247 0.12671596 -0.17672811 0.13502614
000150 75 bb ac bd 01 4f 93 3c 47 3d 41 3e f6 fa 00 be
       -0.08434192 0.017982008 0.18871032 -0.12595734
000160 3f 9d d4 3c 55 35 64 3d 9f 9d 47 3d 1b d9 54 be
       0.025953887 0.055714924 0.048734304 -0.20785944
000170 23 cb b8 bd 7c 96 9b 3d a1 2d 18 be fa 03 15 3e
       -0.0902312 0.07597062 -0.14861156 0.14552298
000180 13 f9 70 bd b4 e2 5b 3d a6 8a fc 3d af c1 d6 bd
       -0.058831286 0.053682998 0.123311326 -0.10486161
000190 e4 5c b3 bd 33 dc 59 3d 07 33 20 3e e1 08 29 bd
       -0.08757952 0.053188514 0.15644465 -0.041268233
0001a0 d9 3b 16 3b f1 18 df bd dd 59 2f 3b 73 77 a2 3c
       0.0022923856 -0.10893429 0.0026756444 0.019832348
0001b0 c9 7a 4c 3b 10 3d 08 be 26 40 35 3e 6c 16 69 be
       0.0031201115 -0.13304543 0.17700252 -0.2276246
0001c0 98 5f 28 3d e4 c8 33 bd c3 95 b1 3c 7c 84 a5 be
       0.04110679 -0.043892756 0.021677857 -0.3232764
0001d0 e4 94 ef bd 8f dc 89 3d ef 55 a4 3c 12 6d 47 be
       -0.116983205 0.06731521 0.020060508 -0.19475201
0001e0 a8 4a 41 be 58 58 43 bc 41 86 ee 3d fe ab ba 3d
       -0.18876135 -0.011922918 0.11646701 0.09114836
0001f0 1e dc 79 be e3 8e 16 3e a0 e6 01 be bf 79 89 bc
       -0.24400374 0.14702944 -0.12685633 -0.016781686
000200 21 2a 7e 3e ee fa 31 be d3 a1 0a bc 88 30 8c 3d
       0.24820758 -0.17380878 -0.008461433 0.06845194
000210 85 12 9b bd 4a 3e ae 3d c0 5d 5b 3e 6e 65 55 be
       -0.07571892 0.085079744 0.21422482 -0.20839474
000220 89 9b cb bd 59 5d 45 be fc b1 f7 bc 3b 8c da 3d
       -0.09941775 -0.1927389 -0.030236237 0.10671278
000230 be 6b d3 bd 18 60 e9 3c 3e 1c 0b be 56 f9 78 be
       -0.103232846 0.028488204 -0.13584992 -0.24313864
000240 0e d7 7a be c4 53 4e bc 5a 03 9e 3c df 0b 0b 3d
       -0.244961 -0.0125932135 0.019288708 0.033946868
000250 dc c9 fb 3d d4 a9 b8 3c 76 b7 05 be cb 4d 89 3d
       0.12294361 0.022541918 -0.13058266 0.06704291
000260 ba 36 1e bd cc a7 8b 3b c0 b3 90 bc 99 e0 34 3e
       -0.03862641 0.0042619463 -0.017663836 0.17663802
000270 48 d0 62 bb 4c e7 1e bd 07 90 1e bd ed 64 f5 3d
       -0.0034609009 -0.0387948 -0.038711574 0.11982141
000280 4e a6 00 be ae 9d ab be fe 42 a8 3d e0 9d 60 3d
       -0.1256344 -0.33518738 0.08215903 0.05483806
000290 72 fe d8 bd 9d fa 3f 3d aa 9f e4 bd f3 bb 36 be
       -0.105954066 0.046869863 -0.11163266 -0.17845134
0002a0 c3 6b 84 bc c5 94 80 3d 05 0b 36 3e 0f cc b7 3b
       -0.016164666 0.062783755 0.17777641 0.0056090425
0002b0 93 80 36 3e ac f9 ce 3d b6 50 00 3d da af 22 be
       0.17822485 0.10106215 0.031326972 -0.15887395
0002c0 49 80 e8 bc bc 98 af bd bf 9d 92 3d 35 b2 26 3d
       -0.028381484 -0.08574054 0.07158994 0.040697295
0002d0 ea 96 ab be 74 9d 11 3e 81 b2 69 bd 1a 03 58 3d
       -0.33513576 0.1422022 -0.057055 0.052737333
0002e0 f4 43 88 bd 87 ec dc 3d 88 57 24 3d 51 13 bb bd
       -0.06653586 0.107873015 0.04012254 -0.09134544
0002f0 72 8e 27 3e b7 54 5a 3e d1 69 1f 3e 8b 6a 10 be
       0.16362932 0.21321379 0.1556771 -0.14103143
000300 11 61 58 bd 2e 81 12 3d 95 8a c0 bc 10 2a ed 3c
       -0.052826945 0.035767727 -0.023503581 0.028950721
000310 81 d7 f4 3c a9 ff 62 bd e7 d9 41 be b0 dd 91 bc
       0.029887917 -0.055419598 -0.1893078 -0.017805904
000320 ad 51 87 3d 73 17 71 3e c5 d9 98 3d 07 af 14 be
       0.06607375 0.23544101 0.07463411 -0.14519893
000330 36 21 23 3e 67 4c ac 3d 14 dc 22 be 90 54 5b 3d
       0.15930638 0.0841301 -0.15904266 0.053547442
000340 57 2b fe bb e8 85 36 3c dd 28 65 3d fa 9b 9f 3d
       -0.0077566314 0.011140324 0.055947173 0.07793422
000350 5f c8 a4 3c eb 24 33 be 3e 8a 38 3e 94 e4 86 3d
       0.020115076 -0.17494552 0.18021485 0.065865666
000360 34 49 7a 3d 6a 41 30 3d 5f 6d bb bd e7 b9 a0 bd
       0.06110497 0.043031134 -0.0915172 -0.07847958
000370 7a 85 83 3d 86 36 9a bd 12 b4 b8 3d b7 2d 70 bd
       0.06421943 -0.07529931 0.09018721 -0.058637347
000380 68 4c 72 3d f4 67 73 3e 02 19 a8 bd c4 6d 99 be
       0.059154898 0.23770124 -0.08207895 -0.29966557
000390 fa 62 2d 3d 99 61 c0 bd 71 24 8e bd 6f 5a 1b 3e
       0.04233072 -0.09393615 -0.069405444 0.15171216
0003a0 4c 73 f3 3c cf 98 2e bb 06 89 09 bd 20 0e 57 be
       0.029718064 -0.0026641374 -0.03357794 -0.21001482
0003b0 49 65 68 bd 3d 39 0a be 2f 52 85 3c 36 c8 eb 3c
       -0.056737218 -0.13498397 0.01627454 0.028781991
0003c0 c3 7c 1d 3d b1 1f ad 3d c0 e9 1d be 0a de 02 3e
       0.03844906 0.0845331 -0.154212 0.12780014
0003d0 80 87 df bb 6c d1 29 3d f4 b1 26 bc d5 4e 11 be
       -0.006821573 0.041459486 -0.010174263 -0.14190228
0003e0 99 bd 10 3d e6 92 1b 3d 54 a5 c5 bd ac c2 45 be
       0.035337064 0.03798189 -0.096506745 -0.19312543
0003f0 66 05 20 be 21 d7 c1 bc 6c 41 15 be 87 4b a5 3d
       -0.1562706 -0.023662152 -0.14575738 0.08071046

model.8.bias f4 [16]
000000 34 85 6b 3e e5 25 be 3d ee b2 af be 0c 1c c1 3e
       0.23000032 0.092845716 -0.343162 0.3771671
000010 d2 3c a3 3e de 2a e5 3d 80 6f 14 3f 39 58 db be
       0.3188234 0.11189817 0.57982635 -0.42840746
000020 2e 27 52 3e 9b 88 0d 3f 15 d8 65 3d a5 15 00 3f
       0.20522758 0.5528657 0.056114275 0.50033027
000030 58 a3 9b 3e 4b 61 f4 bd cc 00 10 3f f4 37 52 3e
       0.3039806 -0.1193262 0.56251216 0.20529157

model.10.weight f4 [16]
000000 ef f4 69 3f fa 8f 9b 3f 1f 5b 8f 3f a6 a9 73 3f
       0.91389364 1.2153313 1.1199683 0.9518074
000010 78 19 86 3f 9d c4 67 3f 63 88 5a 3f 49 e6 81 3f
       1.0476522 0.90534383 0.8536436 1.0148402
000020 eb a2 94 3f e0 53 88 3f c8 1a 93 3f da df 97 3f
       1.1612219 1.0650597 1.1492548 1.1865189
000030 80 88 89 3f 09 39 a0 3f e8 8d 77 3f 39 bb 8f 3f
       1.0744781 1.2517406 0.96700907 1.1229011

model.10.bias f4 [16]
000000 30 34 5a bd dc 37 10 bd 3d e2 07 3c ad b2 6e bd
       -0.053272426 -0.03520952 0.0082936855 -0.058275867
000010 bf a4 c3 bd 72 fe 8c bd dc e1 89 3d 09 d1 a1 3d
       -0.09552907 -0.06884469 0.067325324 0.079011984
000020 d6 3e d4 3c ca 16 9a 3c 98 c4 59 bd ba cb 3d 3b
       0.025908869 0.018809695 -0.053166002 0.0028960542
000030 ad bb 03 3d 08 d8 c1 bc d2 ae 90 3d f4 5e 65 3d
       0.032161403 -0.023662582 0.07064594 0.055998757

model.10.running_mean f4 [16]
000000 96 15 ee 3e 90 4f f5 3e 52 20 8d 3e 38 31 32 3f
       0.46500844 0.47912264 0.2756372 0.6960635
000010 ab e6 3a 3f b5 04 11 3f cc ce 4d 3f bb 43 b5 3d
       0.7300822 0.5664781 0.8039367 0.08850809
000020 11 ff 1b 3f 08 dc 48 3f de b2 2a 3f ec a4 7e 3f
       0.60936075 0.7846074 0.6667918 0.994704
000030 2c 0f 3f 3f 21 16 ef 3e e8 07 26 3f cf af 17 3f
       0.74632525 0.4669657 0.64855814 0.5925264

model.10.running_var f4 [16]
000000 54 39 a3 3e be 3c 66 3f a9 bb 9b 3e b2 a5 0b 3f
       0.31879675 0.89936435 0.3041661 0.54549706
000010 ee 72 48 3f d9 85 f6 3e ab a9 14 3f 86 a3 b8 3d
       0.7830037 0.48148993 0.5807139 0.090155646
000020 70 97 12 3f 78 f0 69 3e 86 2d 8c 3f c4 c6 b6 3f
       0.57262325 0.22845638 1.0951393 1.4279408
000030 01 68 5e 3f 51 ae 1e 3f 16 cc a9 3e d3 c1 48 3f
       0.8687745 0.61984736 0.33163518 0.7842075

model.11.weight f4 [5, 16]
000000 55 55 dc 3d 80 6a 07 3e 25 e6 27 3b dc 2b 4b be
       0.10758463 0.1322422 0.0025619355 -0.1984095
000010 af 70 ff 3d 6a f8 e1 3d 02 f3 69 be f9 36 8c bc
       0.124726646 0.11033709 -0.22846606 -0.017116057
000020 12 cb 9b bd 3b 92 2d 3b 30 eb c9 3d 5b 25 93 3e
       -0.07607092 0.0026484865 0.098593116 0.28739437
000030 08 e9 57 bd f4 18 8f bd eb b3 27 be e8 5b 3f be
       -0.05271247 -0.06987181 -0.16377227 -0.18687403
000040 af 15 dc 3d 89 42 07 3e 71 30 31 3b 25 fb 4a be
       0.10746323 0.13208975 0.002703693 -0.19822367
000050 12 be fe 3d 7d e5 e1 3d e3 13 6a be aa 01 8c bc
       0.12438597 0.110300995 -0.22859149 -0.017090637
000060 dc 99 9b bd e2 98 2b 3b cb 32 ca 3d 99 5f 93 3e
       -0.07597706 0.0026183655 0.09872969 0.28783873
000070 ba 8e 58 bd 2b 6b 8f bd 28 c5 27 be 6c 6f 3f be
       -0.05287049 -0.070028625 -0.16383803 -0.18694848
000080 24 84 27 bd b6 4c 85 3d e4 36 89 bd fe 25 fb bc
       -0.040897503 0.06508772 -0.06699923 -0.030657765
000090 72 9b 01 be bd e8 04 be 57 65 20 3e b4 c5 30 bc
       -0.12656954 -0.12979408 0.15663658 -0.010789324
0000a0 d9 af 0d be b2 48 c6 3d 2d 26 14 be 47 14 35 3e
       -0.13836612 0.09681834 -0.14467688 0.17683516
0000b0 67 62 7e 3e 71 60 a0 bc d1 16 4e bd 5d f6 6b 3e
       0.24842225 -0.019577237 -0.05031473 0.23043199
0000c0 52 cd 32 bd 50 dd 81 3d 5f 5e 95 bd da c4 48 bd
       -0.04365284 0.0634104 -0.072933905 -0.049015857
0000d0 87 d7 e0 bd b2 17 07 be f7 4d 77 3d 62 82 93 bc
       -0.109786086 -0.13192633 0.060377087 -0.018006507
0000e0 41 b6 21 be f2 89 e4 3d c4 ff 30 be 02 de 0c 3e
       -0.1579218 0.111591235 -0.17285067 0.13756564
0000f0 53 03 b0 3e 88 2a c4 bc a3 03 8e 3c 24 3e 7a 3e
       0.34377536 -0.023946062 0.017335718 0.24437767
000100 4c c9 8d be 61 50 f3 3e ed 34 a3 3e 8b 68 96 be
       -0.2769264 0.47522262 0.31876317 -0.29376635
000110 b4 ac ca be 5a d0 29 be 3f 83 69 be 8f 61 99 3e
       -0.39584887 -0.16583386 -0.22803973 0.29957244
000120 c2 d6 0d bf 7b 60 ca 3e d9 53 d4 3e 85 40 af be
       -0.5540582 0.39526734 0.4147022 -0.34228912
000130 fc 37 83 be 65 b4 03 3f 31 86 31 3e 3a e5 82 be
       -0.2562865 0.51447135 0.17336346 -0.2556551

model.11.bias f4 [5]
000000 01 06 82 3d dc fc 81 3d 23 d4 65 bd 99 d5 6f bd
       0.063488014 0.06347057 -0.056110512 -0.058553312
000010 e9 1d bb bc
       -0.02284141

exp_avg f4 [64, 17]
000000 51 3a a3 3a a7 94 0e bc 3b f8 fb 38 9b 55 af 3b
       0.0012453293 -0.008702434 0.00012014849 0.005350781
000010 b9 10 11 3c d3 f5 17 3c 43 7d ec bb 0f d7 15 bc
       0.008854085 0.009274918 -0.007217081 -0.009145512
000020 19 a6 0f 3c dc a9 b7 3b 16 3a a5 3b 8a 44 78 3c
       0.008767628 0.0056049656 0.005042325 0.01515306
000030 9a 8b 88 3a 0b a7 f5 3b fa 31 2a bc 6b ea 15 bc
       0.0010417581 0.0074967197 -0.010387892 -0.009150128
000040 8c b7 81 b9 ce 32 73 ba dd 73 84 b9 cf f5 0d 3b
       -0.0002474155 -0.0009277285 -0.00025263327 0.0021661406
000050 93 09 01 bb f0 a8 71 ba 1c d5 44 36 5e 48 e4 39
       -0.0019689545 -0.0009218594 2.9330322e-06 0.00043541467
000060 ba b1 d8 39 f1 aa 0b bb 18 e2 a6 3a 09 49 22 b9
       0.00041331147 -0.0021311606 0.0012732176 -0.00015476732
000070 cf 2c 51 ba df 59 54 39 bf 8c 40 3a 6d eb d0 3a
       -0.0007979394 0.00020251375 0.00073451916 0.0015939303
000080 a7 37 d1 39 a8 ec 95 3a 98 4b 00 3c c2 4a dd 3b
       0.0003990505 0.0011438327 0.007830523 0.0067532966
000090 c5 df 41 bb 15 e7 8c 3a b7 b3 27 3b a7 75 7e bb
       -0.002958284 0.001075002 0.0025589296 -0.003882745
0000a0 37 09 0a bc 62 3d 85 ba 1b 56 8b 3b cb 14 92 bb
       -0.008425049 -0.0010165388 0.004252208 -0.004458045
0000b0 11 42 a4 ba f5 82 8d ba 75 a4 b8 bb 90 d7 e5 bb
       -0.0012531896 -0.0010796475 -0.005634839 -0.0070142224
0000c0 97 d0 1c 3b d2 f7 83 ba 66 0d f2 bb d9 82 6f bb
       0.002392804 -0.0010068363 -0.007386851 -0.0036546497
0000d0 74 14 91 bb ac 0e af bb 48 b4 d6 ba af 59 03 3c
       -0.004427487 -0.005342325 -0.0016380632 0.008016988
0000e0 48 8b 94 3a 43 a3 d4 bb 0e 56 da ba 07 fa 31 3c
       0.0011333013 -0.006489189 -0.0016657726 0.010862834
0000f0 4f 9d 0d 3b b7 a5 b8 bb bd 6d f8 3b 7e e4 a4 ba
       0.0021608656 -0.005634989 0.007581441 -0.0012580303
000100 aa a3 98 3b 55 e5 2b bc d6 e0 db ba 63 d4 51 bc
       0.004658182 -0.010491689 -0.001677538 -0.012806985
000110 27 6a c3 ba 33 6e e0 3a 29 43 b8 b9 c3 0c 0c b9
       -0.0014908955 0.0017122686 -0.00035145253 -0.00013356195
000120 46 b7 58 bb 39 d1 81 ba b3 42 03 ba 8d 1c 8e 3b
       -0.0033068224 -0.0009904272 -0.00050071924 0.0043368996
000130 21 7b 44 bb e7 9a 64 ba 22 12 be b9 e4 5d 67 bb
       -0.0029980617 -0.0008720592 -0.00036253134 -0.0035303766
000140 c7 0c 64 3a b2 aa 7a ba 6b 41 e6 3b f2 3b 8d 3b
       0.0008699414 -0.0009562179 0.0070268414 0.0043101246
000150 8b 89 c7 3a 16 e4 12 3c 6d a0 be 3b 76 c9 78 3b
       0.0015223486 0.008965513 0.005817464 0.0037961877
000160 05 d2 b4 3a 9f ab de bb 0e 3d 1c 3b 37 ca b8 3b
       0.0013795501 -0.006795361 0.0023840102 0.0056393403
000170 12 67 22 ba bd 6e 10 bc 5a d7 bb 3a 04 1c 88 3b
       -0.0006195168 -0.008815465 0.0014331148 0.0041537303
000180 23 a7 6f bb e5 7c f6 ba 22 10 1f bc 69 aa dc 3b
       -0.0036568127 -0.0018805532 -0.009708436 0.0067341817
000190 fc 56 29 ba dd 1c 2f 3c fe 56 05 3b af cc cf 3a
       -0.00064598 0.010688034 0.002034604 0.0015853847
0001a0 f3 4e af ba 0e 36 9b bb 22 5e 42 bb a2 47 9a bb
       -0.0013374969 -0.0047366684 -0.0029658158 -0.0047082463
0001b0 52 31 1e b9 8a 8b b8 38 92 91 10 bb 17 87 ca ba
       -0.00015086427 8.799795e-05 -0.0022059423 -0.0015451637
0001c0 bb 80 b0 bb 2d 07 d2 bb 55 b3 90 3b c6 22 e1 ba
       -0.0053864396 -0.006409547 0.0044159093 -0.0017176501
0001d0 2f 42 36 3b 2a 0d f3 38 46 f6 a0 bb b7 b2 cd 3b
       0.0027810445 0.00011589595 -0.0049121706 0.006277408
0001e0 6f f6 aa bb 62 32 17 bc a0 d2 16 3a f5 58 2b 3b
       -0.0052173655 -0.009228321 0.00057534315 0.0026145552
0001f0 45 1d d1 3b ce 3d 25 3b 2f d3 2b bc 86 a0 fc 3b
       0.006381663 0.002521384 -0.010487362 0.0077095656
000200 d0 5d c1 3b 42 55 d5 bb 23 dd f6 3b 38 95 06 bc
       0.005901076 -0.0065104077 0.007533686 -0.008214287
000210 d7 39 6d 3b 7d e0 02 bc 36 bd 2b bc 79 83 a5 bb
       0.0036197805 -0.0079880925 -0.010482123 -0.005051073
000220 54 ea 91 3b e8 aa 00 3b b3 23 3a ba ed 32 9d bb
       0.004452983 0.0019633118 -0.00071006565 -0.0047973306
000230 3a c1 b8 3a 29 e3 33 bb b1 86 fd ba 45 13 e7 b9
       0.0014095672 -0.002744863 -0.0019342509 -0.0004407411
000240 ea 9e e0 3a eb 92 d6 39 ae 79 a3 bb 45 56 97 ba
       0.0017137204 0.00040926723 -0.0049888706 -0.0011546096
000250 b6 aa 3b 3b 0b c3 a9 bb 7d 6f aa ba 07 68 df b9
       0.0028635687 -0.0051807216 -0.0013003197 -0.0004261138
000260 9d 64 ba bb 3b fb b0 3a 0e d5 ba ba c8 d8 a3 ba
       -0.0056882636 0.0013502607 -0.0014254169 -0.0012500519
000270 c3 40 4b bb 78 8e 50 ba 34 cf ab ba 36 70 c4 ba
       -0.0031013943 -0.00079558 -0.0013108016 -0.0014987055
000280 b0 d6 01 bb a1 e3 06 b9 8b be 41 3a 82 ac 79 bb
       -0.0019811802 -0.00012864034 0.0007390759 -0.0038097207
000290 9c 7c e6 ba 08 11 93 39 7f 39 aa 39 d7 9b db 38
       -0.0017584744 0.00028050714 0.00032467765 0.00010471761
0002a0 d7 b9 ff ba 9a 91 a2 bb 06 67 31 3b 21 39 45 3a
       -0.0019510341 -0.0049612047 0.0027069463 0.00075234665
0002b0 2c 90 32 3b 3f ca 4b bb 1b 9e 8e 3a 1f b1 5c bb
       0.0027246578 -0.003109589 0.0010880859 -0.0033674908
0002c0 fe 46 0b 3b 2b bd e0 ba d2 91 ea b9 82 d7 a6 ba
       0.0021252031 -0.001714622 -0.00044740603 -0.0012729021
0002d0 01 d2 4f ba 97 d0 f7 ba 8a e0 38 ba bb 0e 18 bb
       -0.00079277164 -0.0018906769 -0.0007052502 -0.002320214
0002e0 43 1d 89 3a 8e 8b e1 ba e1 8e 50 39 33 74 08 3a
       0.0010460991 -0.0017207728 0.00019889652 0.00052053033
0002f0 00 48 ef ba 5f f9 63 bb 5a 13 e1 3a 9e 7e 85 ba
       -0.0018255711 -0.0034786088 0.0017171905 -0.001018483
000300 3b 0b f9 39 cb 30 35 bb 8a 1e 06 bb b1 0f 6f 3a
       0.00047501348 -0.002764749 -0.002046498 0.00091194647
000310 62 88 2c ba 8f 77 8c ba c7 32 d5 b9 f2 36 aa ba
       -0.0006581602 -0.0010716784 -0.00040664358 -0.0012986346
000320 50 48 cc 3a f7 72 21 bb 21 87 06 bb d1 be 5b bb
       0.0015585516 -0.0024635175 -0.002052732 -0.0033530483
000330 5e 7a 69 bc c5 6f ae 3b 80 00 34 bc 12 6e 09 bb
       -0.014250366 0.0053233826 -0.010986447 -0.0020970148
000340 14 08 04 bc 15 12 b4 3c 7f 7e 4a 3c 88 10 ba 3c
       -0.008058567 0.021981278 0.012359261 0.02271296
000350 55 69 f6 ba af ff ba 3c d1 fe 28 bc 78 35 41 3c
       -0.0018799702 0.022826998 -0.010314659 0.011792533
000360 20 42 ca bb 36 5d 82 3b 88 91 7b bc 8a e8 b9 3c
       -0.0061724335 0.0039783968 -0.015354522 0.022693891
000370 11 a3 d1 ba 93 ba 40 3b e9 79 a5 3b 44 e2 85 bb
       -0.0015994032 0.0029408082 0.005049933 -0.004085811
000380 24 1c 7b ba 1f 43 21 bb be 82 bd bb 5a b9 0b 3b
       -0.00095790834 -0.0024606658 -0.005783408 0.0021320195
000390 53 58 23 3b 0a 22 f6 b8 b0 24 a5 bb 2d 88 82 bb
       0.0024924472 -0.00011736534 -0.005039774 -0.0039835186
0003a0 65 fb e2 bb 81 87 47 bb 8c c3 5a bb 9e 5c 98 39
       -0.006926941 -0.0030445757 -0.0033380715 0.00029060704
0003b0 d7 90 25 3b 63 02 29 bb 02 79 a2 39 25 46 df 39
       0.0025263333 -0.0025788776 0.00030989206 0.00042586136
0003c0 51 da 44 bb e3 36 9f ba 35 62 04 bb 3b 6b ac 3a
       -0.0030037353 -0.0012147095 -0.0020200138 0.0013154516
0003d0 b6 e9 62 ba cf 80 5a 39 86 ee c4 b9 06 d6 08 3b
       -0.00086560415 0.00020838085 -0.00037561747 0.002087952
0003e0 26 a0 61 bb b6 d6 18 ba a5 05 df bb f8 8e 29 ba
       -0.0034427731 -0.0005830334 -0.006806093 -0.00064681424
0003f0 f1 09 22 3b b7 44 52 39 8f c0 7e bb 23 ff b1 3b
       0.0024725164 0.00020052759 -0.0038872098 0.005432026
