backend/data/models/neural_v1.pt (torch, 184302 bytes, 48 tensors)

model.0.weight f4 [128, 17]
0.18101752 0.03874542 0.034895264 0.086097024 -0.16901019 -0.110829264 -0.003860022 -0.0735696
-0.036584496 -0.01673926 -0.17950669 -0.061258566 -0.22168222 -0.35432976 0.25873157 -0.10854644
0.16982861 0.23769855 0.010793245 -0.06751674 -0.29896727 0.13481961 0.047142066 0.049470913
-0.08574512 0.17638958 -0.058403146 -0.15682508 -0.23660927 -0.02383776 0.078289814 0.3043047
-0.0153032215 0.17439963 -0.21621728 -0.2558973 0.057376023 -0.09118713 -0.19146793 0.14451784
0.278731 -0.056175247 0.2573003 -0.13194826 -0.110717915 0.14134549 0.3298659 -0.079017915
0.13525815 -0.08339212 -0.013674315 0.1246252 0.0021392659 -0.34548104 0.11816638 -0.4428195
0.10414362 0.04089611 0.2224326 -0.25770304 0.19423483 0.19892903 -0.17124492 -0.14600837
-0.054057647 0.16119748 -0.18600129 -0.08742582 -0.015802665 0.056996085 0.12755233 0.216141
-0.09365914 0.049674023 0.23367834 0.05076015 -0.11898328 -0.21979018 0.053379644 -0.2249738
0.19236164 0.26486543 -0.08233719 0.11580378 -0.025016915 -0.10843241 -0.09156317 0.3405548
-0.124272704 -0.21028514 -0.063999385 0.025547842 -0.19050466 0.0243777 -0.07179474 -0.2241894
0.17673427 -0.27815214 0.1466633 0.031777047 0.07633346 0.11653033 0.1666125 -0.18784587
-0.014855171 -0.10947262 -0.3210607 0.11823708 0.044876184 -0.25651547 -0.23354554 -0.033241067
-0.11674303 0.073810324 -0.057120454 -0.015654385 0.04377284 -0.105729245 -0.04185188 -0.1261289
0.05093162 0.06469527 0.27488574 0.010905186 0.050518837 -0.010826185 -0.055947788 0.024316633
-0.25059468 0.068181075 0.024376314 -0.13971741 -0.19899882 0.016593112 -0.06458404 0.41328746
0.03572161 0.0487183 0.22368194 -0.108924195 -0.101576984 0.053722005 -0.17060412 0.23243023
-0.20735651 0.03808513 -0.08406542 -0.0066417037 0.14202769 0.28805718 0.15516797 -0.016113434
0.13726756 -0.1572512 -0.23171806 0.26123473 0.06582668 0.27348605 0.12689376 0.089588486
-0.06780226 0.08274049 0.07044774 -0.029347409 -0.016122624 -0.13165732 0.20008756 -0.08147633
-0.018897256 0.1295663 0.22328682 0.05939183 -0.03013221 -0.082435265 0.20485413 0.15609036
-0.011698177 -0.08705641 0.17789145 -0.0227528 0.17416881 -0.15409607 -0.24957998 -0.17337996
-0.2197985 0.14199997 0.03486201 -0.2133082 0.049043287 0.12186814 -0.28303593 0.13512285
0.075689994 -0.044342097 0.22882815 0.103872806 0.0697188 0.17343263 0.16313991 -0.32443565
0.26259968 0.28887445 0.048918977 -0.1437286 -0.16126578 -0.2150598 -0.21188298 0.12737492
-0.20568147 -0.12510315 0.11728791 0.062168166 -0.15293069 0.18031645 -0.21934181 -0.14764096
-0.10966363 -0.049038954 -0.044018887 0.12094887 0.058065075 -0.08980423 0.1688049 -0.11298663
0.2466098 0.00785719 0.07395391 0.06655021 -0.19727148 0.2943418 -0.10214765 -0.14111581
0.19908346 0.026608674 0.12621927 0.058984745 -0.0977158 0.21034206 -0.12635241 0.31807286
0.44926202 -0.23107047 -0.110513344 -0.16907303 0.0006153764 -0.0761182 -0.13279375 -0.049076963
0.1366148 0.0018592018 -0.12604572 -0.20854542 -0.016032606 -0.12786672 0.0511666 0.048724268
00000000: a85c 393e 84b3 1e3d 56ee 0e3d a353 b03d
00000010: 0211 2dbe 74fa e2bd 6cf8 7cbb a9ab 96bd
00000020: a0d9 15bd c620 89bc 9ad0 37be 43ea 7abd
00000030: aa00 63be b66a b5be 7778 843e 994d debd
00000040: 8de7 2d3e 4067 733e 27d6 303c 3746 8abd
00000050: 3d12 99be 270e 0a3e 0a18 413d 03a2 4a3d
00000060: 239b afbd 789f 343e 2338 6fbd c196 20be
00000070: b349 72be 6847 c3bc 6956 a03d d3cd 9b3e
00000080: 5dba 7abc d195 323e 1068 5dbe f904 83be
00000090: 1f03 6b3d 51c0 babd 2b10 44be 7cfc 133e
000000a0: d4b5 8e3e 0418 66bd ddbc 833e 721d 07be
000000b0: 13c0 e2bd dfbc 103e 2fe4 a83e 25d4 a1bd
000000c0: 1d81 0a3e 7dc9 aabd 3c0a 60bc 7f3b ff3d
000000d0: ed32 0c3b e4e2 b0be 3701 f23d 3db9 e2be
000000e0: 4049 d53d ae82 273d 5fc5 633e a7f1 83be
000000f0: 7fe5 463e 0db4 4b3e d45a 2fbe 3883 15be
00000100: 8d6b 5dbd f410 253e 1f77 3ebe 4f0c b3bd
00000110: 9774 81bc ba74 693d 149d 023e 1154 5d3e
00000120: 5dd0 bfbd fd76 4b3d 6049 6f3e e0e9 4f3d
00000130: 82ad f3bd ad10 61be 9da4 5a3d 885f 66be
00000140: 73fa 443e 719c 873e 67a0 a8bd 882a ed3d
00000150: 46f0 ccbc d011 debd 7985 bbbd 335d ae3e
00000160: b082 febd fd54 57be 1c12 83bd b549 d13c
00000170: a713 43be beb3 c73c 1f09 93bd e891 65be
00000180: d4f9 343e f569 8ebe e72e 163e a628 023d
00000190: b854 9c3d 74a7 ee3d 789c 2a3e ab5a 40be
000001a0: 1a63 73bc 2e33 e0bd 1162 a4be 4826 f23d
000001b0: 17d0 373d ff55 83be 9026 6fbe c927 08bd
000001c0: f816 efbd de29 973d 23f7 69bd a03d 80bc
000001d0: 264b 333d 9388 d8bd e06c 2bbd ef27 01be
000001e0: ad9d 503d f47e 843d d3bd 8c3e aaab 323c
000001f0: d7ec 4e3d 5060 31bc 8229 65bd ad33 c73c
00000200: f24d 80be 85a2 8b3d d6b0 c73c 1512 0fbe
00000210: 59c6 4bbe 47ee 873c a344 84bd 6a9a d33e
00000220: d350 123d d78c 473d e10c 653e a613 dfbd
00000230: 9807 d0bd 9b0b 5c3d d9b2 2ebe 3102 6e3e
00000240: 4455 54be 27ff 1b3d 7e2a acbd a6a2 d9bb
00000250: b56f 113e 3b7c 933e 5ae4 1e3e 5200 84bc
00000260: de8f 0c3e 7506 21be 8047 6dbe 8fc0 853e
00000270: 23d0 863d 5d06 8c3e 70f0 013e 2b7a b73d
00000280: e9db 8abd d973 a93d e846 903d fa69 f0bc
00000290: 9813 84bc 2dd1 06be c1e3 4c3e 10dd a6bd
000002a0: 6bce 9abc 07ad 043e 4da5 643e d944 733d
000002b0: d3d7 f6bc d2d3 a8bd 48c5 513e 27d6 1f3e
000002c0: b6a9 3fbc a24a b2bd 2d29 363e 1464 babc
000002d0: 4f59 323e 5ccb 1dbe e591 7fbe 848a 31be
000002e0: dc12 61be 7168 113e 78cb 0e3d 776d 5abe
000002f0: 9de1 483d 0196 f93d 16ea 90be a55d 0a3e
00000300: 5b03 9b3d 0fa0 35bd ed51 6a3e 44bb d43d
00000310: bbc8 8e3d 5398 313e 260e 273e 6e1c a6be
00000320: 7773 863e 5ae7 933e 445f 483d 972d 13be
00000330: db22 25be a338 5cbe daf7 58be 926e 023e
00000340: 2a9e 52be 0a1b 00be a534 f03d 0ca4 7e3d
00000350: dd99 1cbe e0a4 383e 249b 60be 312f 17be
00000360: 5397 e0bd 12dd 48bd 264d 34bd 0bb4 f73d
00000370: a5d5 6d3d 48eb b7bd 31db 2c3e 8965 e7bd
00000380: 4887 7c3e 72bb 003c 2675 973d 7a4b 883d
00000390: 8901 4abe f8b3 963e ca32 d1bd aa80 10be
000003a0: 89dc 4b3e 6ffa d93c a03f 013e fd99 713d
000003b0: 391f c8bd e963 573e 8762 01be 72da a23e
000003c0: ac05 e63e bd9d 6cbe d254 e2bd 7b21 2dbe
000003d0: 3651 213a dce3 9bbd 16fb 07be ed04 49bd
000003e0: c0e4 0b3e 76b0 f33a 2112 01be ee8c 55be
000003f0: d056 83bc 7eef 02be 1294 513d 1993 473d

model.0.bias f4 [128]
-0.26135093 0.060689326 0.026267681 -0.005224503 -0.31073123 -0.1761946 -0.1481158 0.20136137
0.3114312 0.003428021 -0.15451518 -0.07253395 -0.17965242 0.067016706 -0.21271676 -0.07454839
0.23290738 0.06330135 0.23342751 0.075955264 0.1255256 0.16604982 -0.18442436 0.15856646
0.27335346 0.14270197 -0.25674525 0.050856605 0.17975691 0.054441538 0.01193489 0.13273467
-0.121304564 0.15000126 0.17307039 -0.11998507 -0.39801705 0.14255306 -0.062399965 0.06732353
-0.02151302 -0.5111258 0.03469991 0.13284315 -0.1464443 0.07414998 -0.5075222 -0.14396122
0.10915125 0.11604898 -0.07441572 0.19636624 -0.400392 0.12618767 0.089942634 0.21033609
-0.115474686 0.0020907547 0.07953409 -0.19110475 0.19364932 0.13366686 0.2329024 -0.09799787
-0.056810632 0.03977005 -0.11492958 0.1753411 0.041709058 -0.014887745 -0.2564091 -0.124803916
0.27606794 -0.07349641 -0.19970927 -0.02991526 0.12320553 0.04758267 0.16497925 -0.35296372
-0.047516845 -0.28001478 0.19905221 0.20226769 0.08252726 -0.108868435 -0.2506769 -0.40474936
0.02748428 0.10421288 0.012148932 0.03850531 0.1510836 0.07188198 0.13872597 0.044922262
0.032222547 -0.0069025783 -0.11866843 0.051548 -0.20891692 -0.3415494 0.075243086 -0.24095747
-0.020216718 0.14287893 0.09972943 0.2186663 -0.024795044 -0.26377106 -0.17975768 -0.030169213
-0.2689835 -0.12265218 0.023294406 0.09285401 -0.26594338 0.14872809 -0.29470626 0.091227286
-0.047971506 0.11331522 0.27813646 -0.0090765245 -0.06072767 -0.23718363 -0.3573033 0.12713611
00000000: cacf 85be 5f95 783d 522f d73c 4f32 abbb
00000010: 2a18 9fbe 5b6c 34be abab 17be ad31 4e3e
00000020: e973 9f3e a6a8 603b 3a39 1ebe ae8c 94bd
00000030: cef6 37be 0e40 893d 6cd2 59be d4ac 98bd
00000040: 467f 6e3e 23a4 813d 9f07 6f3e 6f8e 9b3d
00000050: c889 003e f708 2a3e bdd9 3cbe 3f5f 223e
00000060: fcf4 8b3e 7720 123e 1d74 83be 044f 503d
00000070: 3212 383e 17fe 5e3d 8f8a 433c 99eb 073e
00000080: 876e f8bd ee99 193e 5d39 313e bbba f5bd
00000090: e4c8 cbbe 6ef9 113e 1b97 7fbd ebe0 893d
000000a0: 133c b0bc 24d9 02bf 7e21 0e3d 0908 083e
000000b0: 7ff5 15be f2db 973d faec 01bf 926a 13be
000000c0: b18a df3d 16ab ed3d 4567 98bd 3b14 493e
000000d0: 2e00 cdbe 5737 013e d833 b83d 5862 573e
000000e0: fe7d ecbd 0b05 093b c5e2 a23d f7b0 43be
000000f0: 024c 463e f7df 083e f77d 6e3e 1bb3 c8bd
00000100: 44b2 68bd ece5 223d 3360 ebbd 9e8c 333e
00000110: 1ed7 2a3d baeb 73bc 0e48 83be 3299 ffbd
00000120: c758 8d3e 4985 96bd 9680 4cbe d910 f5bc
00000130: 2e53 fc3d 0ce6 423d 52f0 283e a9b7 b4be
00000140: 06a1 42bd 195e 8fbe 58d4 4b3e 431f 4f3e
00000150: 0d04 a93d 6af6 debd b958 80be 4f3b cfbe
00000160: b626 e13c 906d d53d 500c 473c beb7 1d3d
00000170: a9b5 1a3e dc36 933d 2e0e 0e3e 6800 383d
00000180: cafb 033d 062f e2bb 6f08 f3bd ff23 533d
00000190: 51ee 55be 90df aebe 0c19 9a3d 8ebd 76be
000001a0: 889d a5bc db4e 123e f23e cc3d 0fea 5f3e
000001b0: fa1e cbbc 000d 87be 6612 38be 6d25 f7bc
000001c0: 35b8 89be 1131 fbbd e9d3 be3c 3e2a be3d
000001d0: bb29 88be 2d4c 183e bde3 96be 5fd5 ba3d
000001e0: c57d 44bd cf11 e83d e767 8e3e b4b5 14bc
000001f0: 94bd 78bd 44e0 72be 75f0 b6be f82f 023e

model.2.weight f4 [128]
0.924084 0.7975259 0.91402096 0.99529403 1.0015694 0.95829433 0.8670929 0.96914953
0.74006295 0.9344116 1.0101333 0.98540115 1.0101221 0.93814707 0.9928042 0.8966443
0.84748507 0.9122453 0.90389407 0.78722984 0.90560734 0.84997064 0.7484267 0.7854248
0.91967195 0.74576 0.8456707 0.9646417 0.8900558 0.86792415 0.9218367 0.8420491
0.93017954 0.8703869 0.9539526 0.7953011 1.1467874 0.8461779 0.961219 0.95208895
0.8441146 1.0599091 0.7699362 0.87816256 0.8901689 0.8371561 1.0391866 0.9140492
0.92509234 0.8989482 0.8925685 0.95177984 0.95740247 0.8839951 0.92082214 0.7518794
0.91744 0.80840427 0.9178592 0.9074481 0.82619035 0.8808033 0.791873 0.8317301
0.7214032 0.9982405 0.918743 0.75653726 0.9542603 0.7643282 0.8739297 0.79684067
0.9065854 0.98542935 0.8563499 0.90395933 0.9381053 0.7726908 0.98436445 1.0303447
0.8411207 1.027741 0.92677635 0.9223422 0.91753715 1.0117272 1.1151278 1.0962945
0.8599674 0.82485634 0.80797875 0.8844099 0.8337383 0.9161501 0.6691861 0.8948724
0.8636612 0.84930533 0.8802628 0.77582175 0.9223762 1.012565 0.9245187 1.134986
0.7677571 0.92271864 0.8490933 0.96028364 0.9066889 0.8654694 0.8795933 0.86553574
0.8780212 0.8806123 0.8759357 0.9501067 0.8356773 0.85629666 0.9201213 0.98154217
0.8150558 0.8220342 0.91572046 0.7886578 0.8812665 0.7334273 1.0754601 0.81921136
00000000: c590 6c3f a82a 4c3f 47fd 693f 97cb 7e3f
00000010: 6d33 803f c752 753f cdf9 5d3f 2f1a 783f
00000020: c474 3d3f 9935 6f3f 0c4c 813f 4043 7c3f
00000030: ae4b 813f 682a 703f 6b28 7e3f 7b8a 653f
00000040: c8f4 583f e888 693f 9a65 673f e587 493f
00000050: e2d5 673f ad97 593f e498 3f3f 9a11 493f
00000060: 9f6f 6b3f 21ea 3e3f e07d 583f c2f2 763f
00000070: b2da 633f 4730 5e3f 7dfd 6b3f 8890 573f
00000080: 3f20 6e3f add1 5e3f 3d36 743f da98 4b3f
00000090: eec9 923f 1d9f 583f 7312 763f 1abc 733f
000000a0: e517 583f 1aab 873f 8a1a 453f 43cf 603f
000000b0: 1ce2 633f dd4f 563f 1104 853f 21ff 693f
000000c0: dad2 6c3f 7821 663f 5f7f 643f d8a7 733f
000000d0: 5418 753f 814d 623f 00bb 6b3f 2b7b 403f
000000e0: 59dd 6a3f 95f3 4e3f d2f8 6a3f 854e 683f
000000f0: 3681 533f 537c 613f 30b8 4a3f 44ec 543f
00000100: e1ad 383f b08c 7f3f be32 6b3f 6dac 413f
00000110: 674a 743f 03ab 433f dbb9 5f3f c0fd 4b3f
00000120: fb15 683f 1945 7c3f bf39 5b3f e169 673f
00000130: ab27 703f 10cf 453f 4fff 7b3f 56e2 833f
00000140: b053 573f 048d 833f 3741 6d3f 9e1e 6c3f
00000150: b7e3 6a3f 4780 813f 82bc 8e3f 6153 8c3f
00000160: d326 5c3f c929 533f b2d7 4e3f b068 623f
00000170: e06f 553f d088 6a3f c84f 2b3f 5c16 653f
00000180: e718 5d3f 136c 593f e758 613f 419c 463f
00000190: d920 6c3f bb9b 813f 42ad 6c3f 3947 913f
000001a0: bb8b 443f 4a37 6c3f 2e5e 593f 26d5 753f
000001b0: c41c 683f 678f 5d3f 072d 613f c093 5d3f
000001c0: ffc5 603f cf6f 613f 523d 603f 313a 733f
000001d0: f3ee 553f 4236 5b3f 128d 6b3f 5946 7b3f
000001e0: 7fa7 503f d570 523f a86c 6a3f 7ae5 493f
000001f0: ae9a 613f e4c1 3b3f ada8 893f d6b7 513f

model.2.bias f4 [128]
0.44272432 0.47494927 0.4877477 -0.46728605 -0.4191998 0.48389593 -0.4359983 0.45837033
-0.4261793 0.43312794 -0.50677276 0.46400148 -0.4688947 0.47787297 0.48204368 -0.16862893
-0.5595583 0.03656402 -0.47010368 -0.02765931 0.37218395 -0.38654056 -0.14431317 -0.36954203
-0.47265774 0.04788603 -0.48043868 -0.38087055 -0.2203746 -0.42032138 -0.5074163 0.026441969
0.504211 0.5586506 0.43955204 -0.33684948 -0.5203501 0.46424514 -0.4748177 -0.50325763
-0.42195457 -0.5556398 -0.49643123 -0.39860144 0.3760984 0.3474624 -0.4948019 -0.48178822
-0.4918489 0.20646435 0.4221417 -0.55055875 -0.50893074 -0.43361142 -0.4486184 0.29253796
-0.29489556 -0.03131743 -0.47611037 0.5174175 0.49350187 -0.5230758 0.46075973 -0.45230895
-0.16479048 0.50229836 0.43422288 -0.22414312 -0.40182728 0.26913917 -0.36896017 -0.06945466
-0.22671877 -0.41808814 -0.5539384 -0.5042761 -0.39989835 0.4804925 -0.43137664 -0.42234755
-0.4006239 0.42978078 -0.51050764 -0.3535685 -0.36535743 0.4155399 -0.4139929 -0.4988295
0.39110193 -0.29821813 -0.23325859 -0.50112087 0.24958415 0.09710123 -0.016898325 -0.40717095
-0.53339267 0.41849473 0.41469625 0.4347235 -0.4769339 0.5519205 0.1992318 0.39950034
-0.47380847 -0.42570436 -0.3978218 -0.54949194 0.24009171 0.08948459 0.24672118 -0.33113524
0.34022337 -0.37433714 -0.5006893 -0.4769094 -0.38340333 -0.3273433 -0.43746328 -0.527653
0.44451046 -0.45369762 -0.32858855 -0.52549034 0.045449648 0.38302094 -0.54153615 0.52865124
00000000: c3ac e23e 8d2c f33e 11ba f93e 1e40 efbe
00000010: 5ba1 d6be 35c1 f73e 2b3b dfbe 84af ea3e
00000020: 2c34 dabe f2c2 dd3e dcbb 01bf 9a91 ed3e
00000030: f712 f0be c4ab f43e 6ece f63e 10ad 2cbe
00000040: 363f 0fbf 27c4 153d 6eb1 f0be c795 e2bc
00000050: e58e be3e a5e8 c5be d5c6 13be 9d34 bdbe
00000060: 3200 f2be 2424 443d 0ffc f5be 7701 c3be
00000070: e1a9 61be 5d34 d7be 09e6 01bf d49c d83c
00000080: f913 013f ba03 0f3f f70c e13e 8977 acbe
00000090: aa35 05bf 8ab1 ed3e 4e1b f3be 7ed5 00bf
000000a0: 6e0a d8be 693e 0ebf 3c2c febe 7d15 ccbe
000000b0: f88f c03e 97e6 b13e ad56 fdbe f2ac f6be
000000c0: 9ed3 fbbe 646b 533e f522 d83e 6bf1 0cbf
000000d0: 4949 02bf 5102 debe 50b1 e5be 89c7 953e
000000e0: 8dfc 96be b546 00bd bdc4 f3be 7975 043f
000000f0: 47ac fc3e 4ce8 05bf b3e8 eb3e 0a95 e7be
00000100: d6be 28be a096 003f 7652 de3e c685 65be
00000110: 4ebc cdbe 9ccc 893e 59e8 bcbe 3f3e 8ebd
00000120: f728 68be a60f d6be e8ce 0dbf 3d18 01bf
00000130: 7abf ccbe 1d03 f63e 66dd dcbe f03d d8be
00000140: 931e cdbe 3a0c dc3e a1b0 02bf ee06 b5be
00000150: 2110 bbbe a5c1 d43e e1f6 d3be 9566 ffbe
00000160: 833e c83e 0cb0 98be 57db 6ebe 7549 00bf
00000170: fd92 7f3e 02dd c63d 5b6e 8abc b678 d0be
00000180: 6c8c 08bf f144 d63e 1153 d43e 1494 de3e
00000190: ae30 f4be a94a 0d3f 6c03 4c3e 4f8b cc3e
000001a0: 0697 f2be ecf5 d9be 4daf cbbe 81ab 0cbf
000001b0: 9ada 753e b243 b73d 7aa4 7c3e 8f8a a9be
000001c0: c231 ae3e 1ea9 bfbe 2d2d 00bf 782d f4be
000001d0: 714d c4be 8b99 a7be 30fb dfbe 4414 07bf
000001e0: e096 e33e 0e4b e8be c23c a8be 8986 06bf
000001f0: 6929 3a3d 521b c43e 1da2 0abf b055 073f

model.2.running_mean f4 [128]
0.09714789 0.2110553 0.16889778 0.23941241 0.084504865 0.056434657 0.122435555 0.38121086
0.44985434 0.21349019 0.074903175 0.14223899 0.07740291 0.2256536 0.078662604 0.14626384
0.38379088 0.30940765 0.33589542 0.2217132 0.3132366 0.42644182 0.121639766 0.32850856
0.32179973 0.33503997 0.15936396 0.3067356 0.389906 0.26920176 0.1806555 0.25410697
0.07810717 0.2561631 0.2170697 0.23454982 6e-45 0.23106386 0.2582944 0.26230973
0.15691216 0.008825585 0.20996833 0.262706 0.085407875 0.23464401 0.008362953 0.17353134
0.31922308 0.24988696 0.10495789 0.39236045 0.022567455 0.31125593 0.17567898 0.31235504
0.15710941 0.19476768 0.16354458 0.07708786 0.30456418 0.19493876 0.33842587 0.1589745
0.18832995 0.26454228 0.16303882 0.29671273 0.21213493 0.15487888 0.05452336 0.08810422
0.36309624 0.1137547 0.12835729 0.16080953 0.26179248 0.19766504 0.29597682 0.022866203
0.14038008 0.056661718 0.23828518 0.3798004 0.30238545 0.14892936 0.08369521 0.0147940945
0.24763535 0.23313558 0.25167704 0.17878948 0.26908877 0.2455805 0.22432372 0.22924992
0.2872191 0.17509033 0.16111554 0.18088627 0.1933519 0.062089577 0.31894562 0.0312089
0.15135077 0.21279678 0.19025777 0.25822774 0.28345817 0.07718653 0.18585058 0.21913536
0.124369584 0.22534493 0.21767947 0.22900093 0.10975485 0.20460226 0.07415937 0.27815166
0.16644809 0.29833138 0.3291191 0.2464902 0.17126578 0.05477987 6e-45 0.20767805
00000000: 79f5 c63d e11e 583e 8af3 2c3e 8728 753e
00000010: e310 ad3d 0728 673d 7ebf fa3d 122e c33e
00000020: 4f53 e63e 2c9d 5a3e d666 993d 19a7 113e
00000030: 6b85 9e3d bd11 673e dc19 a13d 30c6 153e
00000040: 3d80 c43e ae6a 9e3e 7cfa ab3e c908 633e
00000050: 8c60 a03e 9556 da3e 451e f93d 4632 a83e
00000060: efc2 a43e 5c8a ab3e 4e30 233e 730c 9d3e
00000070: c2a1 c73e d0d4 893e c1fd 383e 4f1a 823e
00000080: a7f6 9f3d cf27 833e 8547 5e3e d42d 703e
00000090: 0400 0000 019c 6c3e 2a3f 843e 764d 863e
000000a0: 95ad 203e 3099 103c f001 573e 6781 863e
000000b0: 53ea ae3d 8546 703e c404 093c 33b2 313e
000000c0: 3571 a33e 5ee2 7f3e 2af4 d63d 78e3 c83e
000000d0: 62df b83c f05c 9f3e 31e5 333e 00ed 9f3e
000000e0: 4ae1 203e 2e71 473e 3b78 273e 3de0 9d3d
000000f0: d6ef 9b3e 079e 473e 2846 ad3e 36ca 223e
00000100: 91d9 403e 1672 873e a6f3 263e bbea 973e
00000110: e639 593e 9298 1e3e e353 5f3d fc6f b43d
00000120: c0e7 b93e 39f8 e83d 1870 033e 41ab 243e
00000130: aa09 863e b468 4a3e 468a 973e e751 bb3c
00000140: ccbf 0f3e 1e16 683d 0801 743e 3375 c23e
00000150: 44d2 9a3e f080 183e 6568 ab3d ee62 723c
00000160: 1f94 7d3e 18bb 6e3e d0db 803e 9714 373e
00000170: 01c6 893e 7479 7b3e 1eb5 653e 7ec0 6a3e
00000180: 620e 933e e14a 333e 79fb 243e 403a 393e
00000190: 0afe 453e a451 7e3d d74c a33e cfa9 ff3c
000001a0: b2fb 1a3e 66e7 593e efd2 423e 6d36 843e
000001b0: 6e21 913e f913 9e3d 9d4f 3e3e 0565 603e
000001c0: 7bb5 fe3d d2c0 663e 5ee7 5e3e 387f 6a3e
000001d0: 27c7 e03d 4183 513e dee0 973d e569 8e3e
000001e0: 5e71 2a3e e4be 983e 4c82 a83e ed67 7c3e
000001f0: 4c60 2f3e db60 603d 0400 0000 8ea9 543e

model.2.running_var f4 [128]
0.04514025 0.054455664 0.054561462 0.113553524 0.02735182 0.014471298 0.04716282 0.21213795
0.14396822 0.09865214 0.022751318 0.05506507 0.022170536 0.08324101 0.026213659 0.05525322
0.17481753 0.13113837 0.12242151 0.07999768 0.15933618 0.24214087 0.048160687 0.16454516
0.096305884 0.15029526 0.0883286 0.17846476 0.20453237 0.11434544 0.0677671 0.096643716
0.025305541 0.08440048 0.07728753 0.14559443 6e-45 0.07491389 0.13269405 0.11813739
0.055240612 0.0018733292 0.09274944 0.11249147 0.025007894 0.085103035 0.0016304605 0.07540737
0.16334397 0.08087071 0.03304206 0.20622474 0.0059479694 0.13223043 0.055178113 0.123239495
0.06369222 0.090117395 0.04805308 0.026233094 0.15152548 0.05999544 0.14681317 0.06568985
0.07648963 0.14354178 0.0721616 0.100791246 0.060521413 0.059337422 0.015353993 0.025697874
0.11013059 0.039681833 0.061870366 0.056678236 0.13299249 0.08910282 0.12125275 0.0060341517
0.04635567 0.017530583 0.050127637 0.18899314 0.13305308 0.0650481 0.032255247 0.0030074376
0.11863208 0.07927609 0.12276831 0.059410196 0.11269099 0.11573411 0.071864426 0.09762635
0.15579812 0.058543872 0.08133054 0.066644505 0.12559438 0.024925277 0.15560067 0.006036318
0.05565703 0.07145351 0.058278855 0.06502595 0.16582245 0.03015198 0.10694183 0.10168713
0.05510578 0.101283066 0.08115227 0.08812547 0.052081913 0.06709717 0.0274087 0.14098388
0.059315797 0.12833303 0.13286223 0.11570267 0.058349773 0.014290584 6e-45 0.05755343
00000000: fce4 383d e70c 5f3d d77b 5f3d c08e e83d
00000010: ed10 e03c 0619 6d3c cd2d 413d b13a 593e
00000020: 686c 133e 220a ca3d f960 ba3c e98b 613d
00000030: fc9e b53c 437a aa3d 07be d63c 3351 623d
00000040: 5e03 333e 2349 063e 21b8 fa3d d3d5 a33d
00000050: 0629 233e c7f3 773e 2444 453d 877e 283e
00000060: 053c c53d 00e7 193e a0e5 b43d 77bf 363e
00000070: ef70 513e f12d ea3d 7ac9 8a3d 24ed c53d
00000080: 914d cf3c 29da ac3d ed48 9e3d b516 153e
00000090: 0400 0000 746c 993d f3e0 073e 04f2 f13d
000000a0: fb43 623d 7f8a f53a 6bf3 bd3d ee61 e63d
000000b0: 5bdd cc3c 804a ae3d 2db5 d53a 2e6f 9a3d
000000c0: a443 273e 8b9f a53d 1c57 073d 942c 533e
000000d0: 2fe7 c23b 6a67 073e 7202 623d fd64 fc3d
000000e0: 1171 823d 788f b83d 4ed3 443d c9e6 d63c
000000f0: 7f29 1b3e c7bd 753d 3156 163e 6688 863d
00000100: 98a6 9c3d 9efc 123e 76c9 933d a46b ce3d
00000110: 4de5 773d cc0b 733d 508f 7b3c 5984 d23c
00000120: 268c e13d 6b89 223d c86b 7d3d 7027 683d
00000130: 2f2f 083e 8a7b b63d 5d53 f83d 22ba c53b
00000140: 71df 3d3d 4c9c 8f3c a352 4d3d 6b87 413e
00000150: 113f 083e f037 853d 141e 043d 6e18 453b
00000160: 60f5 f23d 815b a23d f46d fb3d 1b58 733d
00000170: 89ca e63d 0106 ed3d a82d 933d 53f0 c73d
00000180: 8b89 1f3e b3cb 6f3d a090 a63d ea7c 883d
00000190: d09b 003e 1830 cc3c c855 1f3e 4ecc c53b
000001a0: a0f8 633d 3856 923d cfb5 6e3d 532c 853d
000001b0: 5ccd 293e 4901 f73c 5104 db3d 5841 d03d
000001c0: 99b6 613d 7f6d cf3d 2933 a63d 207b b43d
000001d0: d853 553d 3e6a 893d 3688 e03c 145e 103e
000001e0: 1ff5 723d bc69 033e 090d 083e 85f5 ec3d
000001f0: 2c00 6f3d 0e23 6a3c 0400 0000 25bd 6b3d

model.4.weight f4 [64, 128]
-0.034483183 -0.20791088 -0.13887736 0.10720799 0.085739665 0.014869766 0.10210494 -0.0894574
0.12833858 -0.02187484 0.02503888 -0.07830692 0.052030377 -0.08851266 -0.101134755 0.04157587
-0.044720992 -0.032506038 -0.032175716 -0.0027703035 0.10499489 -0.0504749 -0.03910117 0.098077305
0.1578909 -0.040836718 0.033978757 0.055475406 -0.018504703 -0.007806844 0.15698314 -0.0017092279
-0.054849207 0.001849095 -0.1636324 -0.0006368503 0.17959602 -0.11109745 0.04677044 0.050379924
0.0272674 0.11010033 0.134562 0.114468895 -0.16272898 0.0193497 0.08467607 0.09937559
0.05198829 -0.06657804 -0.08901247 0.02558584 0.14390256 0.036875967 0.10061721 -0.005808113
0.064462334 -0.08629888 0.18107747 -0.021346647 -0.053575497 0.18627766 -0.14038031 0.10613723
0.0097608 -0.09368581 0.0013299146 0.025366498 0.019758515 0.05525338 0.16497196 0.042681172
0.037781496 0.05865151 0.123680316 0.091400385 0.20372994 -0.054278567 0.023127196 0.047262326
0.10877397 -0.13378647 0.0088294465 -0.05535597 0.04273562 -0.015599763 0.14590289 0.10664815
-0.065000854 0.10054253 -0.06250617 0.05681013 0.015229047 0.052653003 0.030678598 0.022592532
0.093190946 -0.01936305 0.05870847 -0.06345328 -0.020612981 -0.037493695 -0.03408062 -0.11576099
0.055285137 0.048686747 0.13371287 0.063087724 0.074143805 0.0542124 0.0156776 0.0705762
-0.14301588 0.090534694 0.18720013 0.15656197 0.0605571 0.06578112 0.014289554 0.022583725
-0.06475451 0.14720288 0.07739347 0.058157608 0.026548604 -0.100460514 0.22968408 -0.11084583
-0.0738475 -0.075748295 -0.1015518 0.10689242 0.06710655 -0.058322445 0.16197337 -0.13817692
0.049576957 -0.035961196 0.25162446 -0.017739138 0.08062126 0.01343548 -0.096082315 0.099555746
-0.0113485 -0.07714925 0.03990738 0.07975353 -0.016453173 -0.009356422 0.042429946 0.05155746
0.1794339 -0.11302014 0.0642023 0.068252854 -0.037094604 -0.035569683 0.104914844 0.05493545
-0.12601817 -0.035463262 -0.13410953 0.030106448 0.20364688 -0.099754825 0.028005557 0.0767561
0.10094003 0.049147595 0.07955491 0.118058786 -0.1514872 -0.028438222 0.07259024 0.012894907
-0.053983066 -0.12724303 -0.023449223 0.026353251 0.034703445 -0.012558285 0.09702419 0.032151457
0.08441058 0.007877573 0.009793842 -0.05679166 -0.081683114 0.14125438 -0.09077503 0.07876425
0.02165243 -0.122177325 -0.09901148 -0.002869447 0.044124346 -0.055165883 0.0842764 0.025262699
-0.080397956 0.13023646 0.061553694 0.030930081 0.16189906 0.013188499 0.034434177 0.11485838
-0.008091112 -0.10500976 0.18504079 -0.0049683177 0.0063069207 -0.036189493 0.059833236 0.10534413
-0.14195709 0.00402987 0.12077146 0.12237433 -0.047242474 -0.105943136 -0.09631099 0.07488854
0.06380492 0.06094365 -0.04671291 -0.052583985 0.040479723 -0.07757408 0.04030776 -0.14542943
0.13820133 0.12779576 0.12838404 0.110754974 0.14227512 0.017654104 -0.009398831 0.040990684
-0.07705356 0.13821724 0.11279395 0.21003078 0.034523655 0.045373823 0.048222903 0.041254207
-0.04641747 0.021070898 0.0759702 0.067397945 0.04702474 -0.04330798 0.24791268 -0.07026267
00000000: 3d3e 0dbd 97e6 54be de35 0ebe dd8f db3d
00000010: 4798 af3d 52a0 733c 651c d13d 7135 b7bd
00000020: 306b 033e dd32 b3bc 561e cd3c 615f a0bd
00000030: ce1d 553d 2046 b5bd bd1f cfbd 764b 2a3d
00000040: 5c2d 37bd 0d25 05bd afca 03bd fb8d 35bb
00000050: 9007 d73d c5be 4ebd 8c28 20bd c1dc c83d
00000060: 27ae 213e 6744 27bd 4f2d 0b3d 2e3a 633d
00000070: 2d97 97bc 8ed0 ffbb 30c0 203e 2c08 e0ba
00000080: 90a9 60bd 555d f23a 408f 27be 4df2 26ba
00000090: 05e8 373e 0f87 e3bd 5c92 3f3d 2e5b 4e3d
000000a0: e25f df3c 487c e13d 9fca 093e ab6e ea3d
000000b0: 6da2 26be 4383 9e3c a66a ad3d 6e85 cb3d
000000c0: acf1 543d 115a 88bd 2b4c b6bd 6599 d13c
000000d0: 315b 133e 410b 173d 6510 ce3d fc51 bebb
000000e0: d404 843d 78bd b0bd 5f6c 393e 2adf aebc
000000f0: fb71 5bbd 92bf 3e3e dbbf 0fbe 7a5e d93d
00000100: c3eb 1f3c 59de bfbd 8750 ae3a 67cd cf3c
00000110: 9cdc a13c 5e51 623d 69ee 283e 74d2 2e3d
00000120: c5c0 1a3d 913c 703d 1b4c fd3d 2030 bb3d
00000130: 959e 503e 3453 5ebd 3f75 bd3c 2496 413d
00000140: e3c4 de3d 52ff 08be 62a9 103c f1bc 62bd
00000150: 8c0b 2f3d 2696 7fbc 9167 153e 586a da3d
00000160: 2b1f 85bd 3ee9 cd3d 3c03 80bd bdb1 683d
00000170: 4183 793c adaa 573d af51 fb3c f913 b93c
00000180: e5da be3d 429f 9ebc 4b78 703d cbf3 81bd
00000190: 8edc a8bc fd92 19bd 1f98 0bbd 1914 edbd
000001a0: ab72 623d c16b 473d 07ec 083e 2334 813d
000001b0: b5d8 973d d20d 5e3d 4f6e 803c 418a 903d
000001c0: c172 12be 416a b93d 64b1 3f3e c851 203e
000001d0: b90a 783d 40b8 863d bc1e 6a3c 8101 b93c
000001e0: 039e 84bd 5abc 163e 7880 9e3d ac36 6e3d
000001f0: 757c d93c 3ebe cdbd 4e32 6b3e 2303 e3bd
00000200: 5c3d 97bd ec21 9bbd 64fa cfbd 6aea da3d
00000210: 296f 893d 84e3 6ebd 59dc 253e 407e 0dbe
00000220: 3511 4b3d 0c4c 13bd ecd4 803e ab51 91bc
00000230: c21c a53d 7d20 5c3c cec6 c4bd e2e3 cb3d
00000240: 0fef 39bc 6d00 9ebd ec75 233d d255 a33d
00000250: cec8 86bc ae4b 19bc 06cb 2d3d ea2d 533d
00000260: 85bd 373e 1a77 e7bd 7f7c 833d 27c8 8b3d
00000270: 83f0 17bd 84b1 11bd 98dd d63d ff03 613d
00000280: e80a 01be ed41 11bd 0254 09be cca1 f63c
00000290: cf88 503e 424c ccbd e96b e53c 4d32 9d3d
000002a0: a5b9 ce3d fd4e 493d afed a23d cec8 f13d
000002b0: 761f 1bbe 46f7 e8bc 31aa 943d 2945 533c
000002c0: 591d 5dbd ff4b 02be 9618 c0bc c6e2 d73c
000002d0: 3325 0e3d 44c1 4dbc 9eb4 c63d 3fb1 033d
000002e0: 74df ac3d f010 013c 5a76 203c 5f9e 68bd
000002f0: 7a49 a7bd fda4 103e 42e8 b9bd 274f a13d
00000300: 7060 b13c 1b38 fabd 88c6 cabd 550d 3cbb
00000310: bbbb 343d 9ff5 61bd 1b99 ac3d b8f3 ce3c
00000320: afa7 a4bd b55c 053e ba1f 7c3d 1561 fd3c
00000330: dec8 253e 9314 583c da0a 0d3d df3a eb3d
00000340: 9590 04bc 5b0f d7bd 557b 3d3e 45cd a2bb
00000350: 49aa ce3b 6f3b 14bd b213 753d aabe d73d
00000360: 335d 11be 000d 843b 0757 f73d 659f fa3d
00000370: 5381 41bd b7f8 d8bd b23e c5bd 2a5f 993d
00000380: 27ac 823d 0ca0 793d 0956 3fbd 4e62 57bd
00000390: 11ce 253d 29df 9ebd c019 253d 74eb 14be
000003a0: a684 0d3e e4dc 023e 1b77 033e 81d3 e23d
000003b0: 92b0 113e 579f 903c 8efd 19bc d9e5 273d
000003c0: 42ce 9dbd d288 0d3e 8400 e73d 4f12 573e
000003d0: ad68 0d3d e7d9 393d 6185 453d 2cfa 283d
000003e0: 3f20 3ebd e09c ac3c 4496 9b3d ef07 8a3d
000003f0: 049d 403d b563 31bd d2dc 7d3e e0e5 8fbd

model.4.bias f4 [64]
-0.39569047 -0.49303994 -0.31938505 -0.052745022 -0.3687876 0.0885066 -0.40329492 -0.09437456
-0.08180871 0.051265173 -0.11432593 -0.05127616 0.057937354 -0.31532985 -0.291127 -0.41004
0.0669199 0.090815134 0.051631372 0.042686243 -0.13229598 -0.04367733 -0.35598627 0.096455775
0.20900843 -0.27859637 -0.49167326 0.15248565 0.113722 -0.10104757 -0.03395964 -0.31565198
0.018786402 -0.07360828 -0.35256526 0.11399048 -0.30148682 -0.38056654 -0.33758858 0.07789506
-0.21446449 -0.075153016 0.06832439 -0.45242545 -0.44770488 -0.14045027 -0.068149894 -0.0293009
-0.3764006 0.054647308 -0.023750933 -0.334947 0.045411665 -0.12638706 -0.035104733 0.0071565094
0.030215384 -0.2737568 0.17535627 0.10398656 0.104167715 0.009484896 0.019070748 -0.03599768
00000000: f197 cabe bb6f fcbe 7086 a3be 2a0b 58bd
00000010: bad1 bcbe f342 b53d ac7c cebe 7347 c1bd
00000020: 538b a7bd 6efb 513d b723 eabd f306 52bd
00000030: b84f 6d3d ea72 a1be 990e 95be c3f0 d1be
00000040: 4d0d 893d 49fd b93d 6b7b 533d c5d7 2e3d
00000050: 9978 07be 00e7 32bd d543 b6be 9b8a c53d
00000060: 4e06 563e 2fa4 8ebe 99bc fbbe 3325 1c3e
00000070: 14e7 e83d 07f2 cebd 4319 0bbd 239d a1be
00000080: f1e5 993c f0bf 96bd 6f83 b4be d773 e93d
00000090: 7b5c 9abe 9ed9 c2be 69d8 acbe 7287 9f3d
000000a0: 949c 5bbe d3e9 99bd a8ed 8b3d 4fa4 e7be
000000b0: 9339 e5be 32d2 0fbe 2c92 8bbd 7108 f0bc
000000c0: 94b7 c0be dbd5 5f3d 5191 c2bc 2c7e abbe
000000d0: 9501 3a3d 9c6b 01be fbc9 0fbd 2781 ea3b
000000e0: 4186 f73c da29 8cbe 9890 333e e8f6 d43d
000000f0: e255 d53d 8a66 1b3c 423a 9c3c 4e72 13bd

model.6.weight f4 [64]
0.9539741 0.95195127 0.97773623 0.6122184 0.916153 0.70679605 0.8078182 0.7019471
0.66116786 0.6810408 0.579789 0.6016629 0.5655586 0.7581122 0.7439932 0.888742
0.641801 0.5746179 0.7281335 0.6796526 0.8659391 0.5402775 0.85340893 0.6599735
0.78256124 0.82611305 0.89954895 0.6197887 0.62827325 0.73488605 0.58865994 0.9147512
0.8180248 0.62896496 0.9579756 0.5760415 0.81944615 0.99337256 0.87537104 0.83400154
0.60455143 0.83415395 0.73381025 0.91612625 0.82125944 0.61178756 0.5858008 0.60387176
0.85324895 0.6926796 0.65227497 0.8898815 0.5812212 0.6414922 0.7012956 0.57298505
0.57699996 0.98296154 0.54792595 0.64378303 0.67345047 0.5341679 0.6473451 0.63444525
00000000: a637 743f 14b3 733f ec4c 7a3f 58ba 1c3f
00000010: 0189 6a3f 96f0 343f 2ccd 4e3f ceb2 333f
00000020: 4c42 293f b158 2e3f 0d6d 143f 9406 1a3f
00000030: 73c8 103f a413 423f 5776 3e3f 9984 633f
00000040: 124d 243f 291a 133f f566 3a3f b6fd 2d3f
00000050: 2fae 5d3f a04f 0a3f 0279 5a3f 06f4 283f
00000060: ef55 483f 257c 533f d748 663f 79aa 1e3f
00000070: 84d6 203f 7e21 3c3f 6bb2 163f 222d 6a3f
00000080: 136a 513f d903 213f e43d 753f 7577 133f
00000090: 39c7 513f aa4d 7e3f 5118 603f 2081 553f
000000a0: e2c3 1a3f 1d8b 553f fdda 3b3f 4087 6a3f
000000b0: 0f3e 523f 1c9e 1c3f 0bf7 153f 5797 1a3f
000000c0: 866e 5a3f 7353 313f 7efb 263f 46cf 633f
000000d0: eaca 143f d538 243f 1c88 333f 26af 123f
000000e0: 45b6 133f 5ea3 7b3f e044 0c3f f7ce 243f
000000f0: 4067 2c3f 3abf 083f 69b8 253f 016b 223f

model.6.bias f4 [64]
-0.42792287 -0.3970712 -0.39322925 -0.5531458 -0.3133087 0.650319 -0.3762088 0.55675167
-0.6085743 0.57534325 -0.1550938 -0.46861562 0.6997255 -0.5012755 -0.575197 -0.3606589
0.66093826 -0.52519745 0.62258476 -0.21613944 -0.43408898 -0.5615496 -0.3720746 -0.6394626
-0.57716215 -0.5997348 -0.40627226 -0.5943713 -0.5983007 0.5050109 -0.5776864 -0.39683002
0.6903469 -0.31347224 -0.45994842 -0.5711959 -0.5075351 -0.31805176 -0.4095024 0.5346086
0.64847374 0.21133228 -0.43083903 -0.4183503 -0.37241656 0.17310973 -0.46392572 -0.6160564
-0.33994374 0.63518924 0.6405703 -0.36389008 0.5073676 -0.609236 -0.6278104 0.66790205
-0.609967 -0.35491204 -0.61003107 -0.56469256 0.62999636 0.2597723 0.63246113 0.65103674
00000000: b518 dbbe eb4c cbbe 5855 c9be f79a 0dbf
00000010: ff69 a0be 4e7b 263f 719e c0be 4787 0e3f
00000020: 86cb 1bbf b249 133f e9d0 1ebe 63ee efbe
00000030: 3621 333f 9753 00bf 1c40 13bf 49a8 b8be
00000040: 4033 293f 5773 06bf b761 1f3f a853 5dbe
00000050: e940 debe b7c1 0fbf 9080 bebe d2b3 23bf
00000060: e6c0 13bf 3888 19bf eb02 d0be b828 18bf
00000070: 3c2a 19bf 6548 013f 42e3 13bf 4e2d cbbe
00000080: 93ba 303f 6f7f a0be 5c7e ebbe e539 12bf
00000090: d2ed 01bf aed7 a2be 4caa d1be 1cdc 083f
000000a0: 6002 263f 7d67 583e ef96 dcbe 0332 d6be
000000b0: 62ad bebe ad43 313e ac87 edbe dfb5 1dbf
000000c0: 1b0d aebe c39b 223f 6afc 233f cd4f babe
000000d0: d8e2 013f e4f6 1bbf 2fb8 20bf a1fb 2a3f
000000e0: cc26 1cbf 08b7 b5be ff2a 1cbf b18f 10bf
000000f0: 7147 213f e000 853e f9e8 213f 58aa 263f

model.6.running_mean f4 [64]
0.0026686033 8.165563e-05 0.00075095095 1.478847 0.022178682 1.070025 0.00028333222 1.0415242
0.8338739 0.73892915 0.30025503 1.3999646 1.1864879 0.0016096579 0.0028796277 3.522181e-07
1.3280327 0.6775902 1.1874913 1.2094038 0.031034717 0.5726261 0.001340926 1.1894459
2.8477614 0.005037006 0.0033762003 1.3878076 2.3294692 1.5089695 0.90716475 0.0055703386
0.9461529 0.28275684 0.011746446 1.1538433 0.008530667 0.0045472337 0.0012266117 0.40396065
0.23700486 0.12499995 1.3203708 1.7536364e-05 0.001230157 1.1059203 0.8341237 0.81353015
0.0071535143 1.2149255 0.75464 0.0035122465 2.0978281 0.43698665 1.1399921 0.34274328
1.662529 0.053557552 1.8416766 1.1704085 1.0427749 0.82753855 1.5512149 0.3575521
00000000: bce3 2e3b 883e ab38 77db 443a dc4a bd3f
00000010: 11b0 b53c 94f6 883f 358c 9439 aa50 853f
00000020: c378 553f 762a 3d3f 07bb 993e 0a32 b33f
00000030: d6de 973f 28fb d23a 23b8 3c3b 7d18 bd34
00000040: fafc a93f 8d76 2d3f b7ff 973f becd 9a3f
00000050: 853c fe3c a097 123f 03c2 af3a c33f 983f
00000060: b941 3640 780d a53b 3e43 5d3b aea3 b13f
00000070: 0616 1540 ea25 c13f f33b 683f 6387 b63b
00000080: 1437 723f 81c5 903e 2a74 403c 23b1 933f
00000090: 36c4 0b3c f600 953b 42c6 a03a eed3 ce3e
000000a0: 67b1 723e f9ff ff3d e901 a93f 0e1b 9337
000000b0: 383d a13a cc8e 8d3f 2189 553f 8343 503f
000000c0: 0768 ea3b ae82 9b3f 1630 413f b82d 663b
000000d0: d142 0640 b7bc df3e 43eb 913f 0c7c af3e
000000e0: c0cd d43f 2a5f 5b3d 0fbc eb3f f2cf 953f
000000f0: a679 853f 91d9 533f 368e c63f 1211 b73e

model.6.running_var f4 [64]
0.004064326 3.8137186e-05 0.00026443557 3.2131295 0.049673714 2.8693478 0.0001349602 2.108641
2.9258099 2.3175142 0.6088412 3.5405104 2.0970669 0.0015251902 0.0035677792 4.1692138e-07
3.6591468 1.9202533 2.7274697 1.2480397 0.06639902 1.3681021 0.0008802189 2.875856
4.258866 0.010985087 0.0070590214 2.6140532 4.31749 3.4281216 2.878589 0.008325741
1.6831974 0.34823766 0.026440956 2.4916208 0.025047967 0.006972586 0.00069758215 1.0091885
0.4518591 0.31773677 2.1587765 1.3932584e-05 0.0007952965 1.7163069 1.6076145 2.5573056
0.009305146 3.1881099 2.548286 0.005968606 4.2579722 1.675818 3.54227 1.3310373
4.999787 0.159081 4.672663 2.9668188 2.5545015 1.9896214 3.8940334 1.2676842
00000000: 0a2e 853b 7ef5 1f38 f1a3 8a39 eaa3 4d40
00000010: aa76 4b3d 65a3 3740 1a84 0d39 f9f3 0640
00000020: 7840 3b40 2752 1440 04dd 1b3f b997 6240
00000030: 5836 0640 e4e8 c73a 67d1 693b 3dd5 df34
00000040: 762f 6a40 dcca f53f dd8e 2e40 c4bf 9f3f
00000050: 36fc 873d f81d af3f 7ebe 663a 060e 3840
00000060: a148 8840 cbfa 333c 5d4f e73b a64c 2740
00000070: e128 8a40 5866 5b40 cd3a 3840 b068 083c
00000080: 0373 d73f 354c b23e b49a d83c b776 1f40
00000090: 6531 cd3c 4a7a e43b f2dd 363a 172d 813f
000000a0: 135a e73e 65ae a23e 6529 0a40 febf 6937
000000b0: 727b 503a f2af db3f 50c6 cd3f e5aa 2340
000000c0: 9c74 183c fe09 4c40 1e17 2340 4c94 c33b
000000d0: 4f41 8840 3481 d63f 8db4 6240 6e5f aa3f
000000e0: 41fe 9f40 21e6 223e 7586 9540 5ce0 3d40
000000f0: f47c 2340 eaab fe3f d837 7940 7a43 a23f

model.8.weight f4 [32, 64]
0.15122843 0.09019659 0.031954136 -0.085784234 0.02381087 0.012355308 0.044276096 -0.068946525
-0.064319745 -0.09900289 0.083754644 0.018778171 0.009247972 0.053155176 0.080026604 0.14306287
-0.019952921 -0.09570427 -0.12733665 -0.04785225 0.13829167 0.03828957 -0.041020844 -0.028730467
0.21866487 0.03788821 0.13838379 -0.018233137 0.13520512 0.032217357 -0.08306795 -0.017723147
-0.14946264 0.015929785 0.1376793 0.09696153 0.027532607 0.05278665 0.124694034 -0.10045954
-0.03710659 0.076642655 -0.02337542 -0.006340048 -0.028894877 0.06935539 0.061105058 -0.02731572
0.08863274 -0.014244963 -0.0073924502 0.0329745 -0.025388522 0.008103798 -0.017764261 -0.12872349
0.05238354 0.09587023 0.0108496295 0.05583012 -0.049161274 -0.01718198 0.043708146 0.06200397
-0.06639407 -0.061758917 -0.07781447 -0.015769595 -0.05161231 0.03776921 -0.058731847 0.012910889
-0.033515282 0.020649 -0.012795968 -0.017816694 0.021237226 -0.081113875 -0.06695483 -0.077959135
0.027031317 -0.01644346 0.014054366 0.0013717344 -0.03653956 -0.02866113 -0.09397449 -0.027975535
-0.016586205 -0.04806095 -0.09083487 -0.017858187 -0.017968507 0.0113203805 -0.021925539 -0.058850598
0.021135295 -0.0050709066 -0.057276018 -0.024574775 -0.040488627 -0.06279878 -0.13227552 0.006929481
-0.002455635 0.016393777 -0.012688768 -0.06417846 -0.10084309 -0.00065072335 -0.029067673 -0.02861799
-0.08792111 0.040131915 0.018463757 -0.03918754 0.0208412 -0.04480076 -0.027093973 0.05921623
-0.0343193 -0.07729962 -0.019128563 -0.010917164 0.02206113 0.0058335895 0.021552073 0.042524576
0.10726401 0.07839793 0.07882342 -0.023591304 -0.034358904 -0.04680582 0.045580484 -0.0747678
0.03286947 -0.06109377 0.034315616 -0.07270507 -0.021625595 0.09239016 0.12567815 0.12170136
-0.13312072 -0.042979028 -0.13822778 0.028135492 0.06745126 -0.07825693 0.060382415 -0.06284073
0.12693599 0.07289678 0.13492133 -0.015598407 0.0529156 0.013962384 0.05807718 0.091012895
9.281704e-05 0.043351535 0.13694026 -0.059332483 0.05182949 0.11326206 0.05010977 -0.026906963
-0.017849961 -0.017184358 0.0861922 -0.009850265 0.008374827 -0.04164554 0.060934782 0.041818704
0.038347673 -0.05382891 -0.0038020918 0.00742977 0.030104147 0.026025757 -0.017322142 -0.04468644
-0.08162505 0.02848025 0.0148797715 -0.039943572 -0.020725219 0.051683933 -0.05995603 -0.008273273
-0.14596476 -0.15938787 -0.13750434 -0.026114166 -0.117400445 0.06203816 -0.08306161 0.02730695
-0.054297443 0.033373002 -0.016781546 -0.027853496 0.03708375 -0.14270465 -0.11686273 -0.16500841
0.043490157 -0.019696718 0.02599712 -4.3695152e-05 -0.087017074 -0.049075816 -0.14653018 -0.05028485
-0.03537525 -0.1031497 -0.14296468 -0.03598151 -0.03014221 0.017437633 -0.04336507 -0.14576608
0.03897781 -0.008674543 -0.11571546 -0.042272896 -0.10401775 -0.04790236 -0.1944216 0.016159825
0.011752563 0.011407468 -0.020988386 -0.1316795 -0.15725854 0.00088309246 -0.047288015 -0.051319115
-0.16480978 0.07431591 0.036882594 -0.11383532 0.040522918 -0.07389373 -0.050651297 0.10364522
-0.05948222 -0.12281751 -0.033975277 -0.019300329 0.03158377 0.0132118175 0.041817516 0.07146401
00000000: a0db 1a3e fdb8 b83d 57e2 023d a5af afbd
00000010: 030f c33c eb6d 4a3c da5a 353d d633 8dbd
00000020: 12ba 83bd 07c2 cabd 8e87 ab3d aed4 993c
00000030: ce84 173c 3eb9 593d fde4 a33d 137f 123e
00000040: 4f74 a3bc 9a00 c4bd 8a64 02be b900 44bd
00000050: 559c 0d3e 86d5 1c3d 7905 28bd 285c ebbc
00000060: afe9 5f3e ab30 1b3d 7bb4 0d3e a95d 95bc
00000070: 3673 0a3e 59f6 033d 881f aabd 2230 91bc
00000080: bc0c 19be 2e7f 823c cdfb 0c3e c493 c63d
00000090: 108c e13c d036 583d 965f ff3d bbbd cdbd
000000a0: 14fd 17bd d3f6 9c3d cf7d bfbc 2dc0 cfbb
000000b0: f3b4 ecbc 330a 8e3d 4c49 7a3d 38c5 dfbc
000000c0: 1585 b53d b563 69bc 5e3c f2bb 4510 073d
000000d0: 97fb cfbc cbc5 043c 5b86 91bc 17d0 03be
000000e0: 1f90 563d 9c57 c43d a5c2 313c 20ae 643d
000000f0: 555d 49bd 39c1 8cbc 5007 333d e0f7 7d3d
00000100: 9df9 87bd ebf6 7cbd 315d 9fbd 3d2f 81bc
00000110: 6e67 53bd e3b3 1a3d ce90 70bd 3288 533c
00000120: 5247 09bd 1728 a93c 2ea6 51bc 51f4 91bc
00000130: b1f9 ad3c 081f a6bd 9d1f 89bd 0aa9 9fbd
00000140: c870 dd3c 6fb4 86bc 4944 663c c5cb b33a
00000150: 81aa 15bd bfca eabc b375 c0bd f32c e5bc
00000160: cbdf 87bc 8fdb 44bd a207 babd 554b 92bc
00000170: b132 93bc 1e79 393c 309d b3bc 530d 71bd
00000180: ed23 ad3c d929 a6bb 429a 6abd 0a51 c9bc
00000190: 67d7 25bd a69c 80bd 3c73 07be b310 e33b
000001a0: b8ee 20bb 3e4c 863c 8de4 4fbc ff6f 83bd
000001b0: d286 cebd 4e95 2aba 541f eebc 4670 eabc
000001c0: fc0f b4bd 5d61 243d 4e41 973c 1d83 20bd
000001d0: 2abb aa3c 0081 37bd 2ef4 ddbc b88c 723d
000001e0: 6592 0cbd 434f 9ebd 81b3 9cbc e8dd 32bc
000001f0: 8bb9 b43c b227 bf3b f98d b03c 402e 2e3d
00000200: 3cad db3d 188f a03d 2c6e a13d 8d42 c1bc
00000210: ecbb 0cbd 76b7 3fbd 9ab2 3a3d dc1f 99bd
00000220: 23a2 063d 763d 7abd 888e 0c3d 65e6 94bd
00000230: 2928 b1bc 0d37 bd3d c6b1 003e 903e f93d
00000240: cc50 08be c70a 30bd 958b 0dbe 677c e63c
00000250: e323 8a3d 2b45 a0bd 8d53 773d a4b2 80bd
00000260: 82fb 013e e84a 953d d128 0a3e 7690 7fbc
00000270: 07be 583d 7cc2 643c 56e2 6d3d f864 ba3d
00000280: c5a6 c238 6191 313d 113a 0c3e 9e06 73bd
00000290: 294b 543d f0f5 e73d e73f 4d3d fe6b dcbc
000002a0: 153a 92bc 36c6 8cbc 8985 b03d 0263 21bc
000002b0: 9236 093c 8494 2abd c096 793d 174a 2b3d
000002c0: 7312 1d3d b47b 5cbd 842c 79bb 6e75 f33b
000002d0: f99c f63c f833 d53c 2ae7 8dbc 2109 37bd
000002e0: 092b a7bd 6a4f e93c 49ca 733c df9b 23bd
000002f0: efc7 a9bc 88b2 533d 7494 75bd 9f8c 07bc
00000300: c977 15be 9336 23be f0cd 0cbe 60ed d5bc
00000310: a56f f0bd ba1b 7e3d 351c aabd d3b2 df3c
00000320: ff66 5ebd 21b2 083d 7479 89bc 042d e4bc
00000330: 21e5 173d 2b21 12be ba55 efbd f7f7 28be
00000340: bc22 323d 035b a1bc eaf7 d43c 5045 37b8
00000350: 0236 b2bd b903 49bd 020c 16be 7df7 4dbd
00000360: a3e5 10bd 2640 d3bd 5565 12be 5961 13bd
00000370: ccec f6bc 5ed9 8e3c 929f 31bd b443 15be
00000380: 32a7 1f3d ac1f 0ebc 3afc ecbd 5826 2dbd
00000390: 4207 d5bd 4435 44bd 7516 47be 9c61 843c
000003a0: d28d 403c 63e6 3a3c d6ef abbc fed6 06be
000003b0: 6208 21be 557f 673a 14b1 41bd fe33 52bd
000003c0: e5c3 28be f132 983d 3412 173d 7e22 e9bd
000003d0: 5cfb 253d 9955 97bd bc77 4fbd f243 d43d
000003e0: a1a3 73bd bf87 fbbd a929 0bbd b91b 9ebc
000003f0: fc5d 013d 6176 583c d848 2b3d b95b 923d

model.8.bias f4 [32]
-0.23420012 0.9077634 -0.09509744 0.6949921 -0.21404849 0.8884295 0.86814547 0.9047718
-0.092774644 -0.13371642 0.7972359 -0.042075954 0.7420811 0.7767271 -0.3353081 0.78742784
-0.09973697 -0.15057404 0.79207855 -0.29699972 -0.22849235 -0.15014577 0.9070946 0.7934236
-0.30014193 0.86817455 0.8255015 0.9684681 0.93657476 0.7772557 -0.18770534 -0.2122225
00000000: 28d2 6fbe 2f63 683f 72c2 c2bd 01eb 313f
00000010: 872f 5bbe 1e70 633f c83e 5e3f 209f 673f
00000020: a200 bebd f5ec 08be a717 4c3f d657 2cbd
00000030: 07f9 3d3f 96d7 463f 81ad abbe df94 493f
00000040: e642 ccbd 1530 1abe a9c5 4a3f 5910 98be
00000050: e6f9 69be d0bf 19be 5a37 683f cf1d 4b3f
00000060: 34ac 99be b040 5e3f 1154 533f 87ed 773f
00000070: 5dc3 6f3f 3bfa 463f d435 40be db50 59be

model.10.weight f4 [32]
1.878519 1.96896 1.8711857 1.9877211 1.8581915 2.0007205 1.9685541 2.0600805
1.890606 1.8971558 2.0057619 1.8513439 2.0169482 2.0083642 1.8898935 2.0361295
1.8663241 1.8849279 1.9777701 1.8670514 1.8610235 1.9449173 2.0491486 1.9955623
1.8994098 2.013624 2.0160542 1.9999651 1.9993806 1.9897662 1.9170712 1.8638524
00000000: 5073 f03f e206 fc3f 0383 ef3f a56d fe3f
00000010: 38d9 ed3f ce0b 0040 95f9 fb3f 5cd8 0340
00000020: 61ff f13f 00d6 f23f 675e 0040 d6f8 ec3f
00000030: ae15 0140 0a89 0040 08e8 f13f f24f 0240
00000040: b5e3 ee3f 5145 f13f 9227 fd3f 8afb ee3f
00000050: 0536 ee3f 0df3 f83f 4025 0340 966e ff3f
00000060: dc1f f33f 37df 0040 0807 0140 dbfe ff3f
00000070: b4eb ff3f a9b0 fe3f 9762 f53f b792 ee3f

model.10.bias f4 [32]
0.8926728 -0.8693046 0.8744846 -0.8730045 0.8637923 -0.9381718 -0.87003237 -0.9697001
0.89642096 0.9409709 -0.8963488 0.8532623 -0.9052336 -0.8930494 0.8999941 -0.9364579
0.855213 0.8791079 -0.9021109 0.8661449 0.8877771 0.9416221 -0.96990854 -0.8800639
0.91824305 -0.91474617 -0.8943081 -0.91741395 -0.8860526 -0.8718667 0.91365576 0.87087095
00000000: 3486 643f bf8a 5ebf 39de 5f3f 397d 5fbf
00000010: 7e21 5d3f 072c 70bf 71ba 5ebf 443e 78bf
00000020: d87b 653f 78e3 703f 1d77 65bf 666f 5a3f
00000030: 64bd 67bf e39e 64bf 0366 663f b4bb 6fbf
00000040: 3def 5a3f 370d 613f bdf0 66bf acbb 5d3f
00000050: 5c45 633f 250e 713f ed4b 78bf de4b 61bf
00000060: fa11 6b3f ce2c 6abf 60f1 64bf a4db 6abf
00000070: 58d4 62bf a832 5fbf 58e5 693f 66f1 5e3f

model.10.running_mean f4 [32]
0.02540431 2.068312 0.022223767 2.8171885 0.032301985 2.261588 2.1285682 2.5496686
0.061094135 0.03971608 2.8532016 0.014100013 3.2861476 3.1340513 0.018996777 3.11401
0.057524953 0.013703071 2.6561637 0.033154543 0.014704954 0.021729888 2.602961 2.893024
0.053712502 2.5081205 2.5726318 1.910718 2.5141823 3.0052407 0.02298821 0.06768322
00000000: b31c d03c 395f 0440 9e0e b63c d14c 3440
00000010: 164f 043d dcbd 1040 763a 0840 c52d 2340
00000020: d83d 7a3d 54ad 223d db9a 3640 be03 673c
00000030: 3e50 5240 4c94 4840 219f 9b3c f14b 4740
00000040: 499f 6b3d d882 603c 96fe 2940 0fcd 073d
00000050: 0ced 703c e102 b23c ea96 2640 4e27 3940
00000060: a401 5c3d 0c85 2040 00a6 2440 6892 f43f
00000070: 5de8 2040 dd55 4040 c551 bc3c 809d 8a3d

model.10.running_var f4 [32]
0.07975491 0.061018288 0.0940637 0.14632726 0.12432504 0.07778994 0.06787039 0.1042486
0.35000417 0.19848998 0.14429241 0.041243665 0.20220895 0.18016899 0.07185755 0.17684443
0.32116884 0.04312436 0.12101964 0.15921548 0.052431922 0.08598582 0.110295504 0.14826027
0.29051468 0.10235689 0.11059467 0.04871076 0.100322425 0.16443631 0.091234915 0.44389808
00000000: 8b56 a33d 50ee 793d 78a4 c03d d0d6 153e
00000010: 209e fe3d 5550 9f3d a2ff 8a3d 4a80 d53d
00000020: bf33 b33e f540 4b3e 64c1 133e 1eef 283d
00000030: dd0f 4f3e 387e 383e 0d2a 933d b516 353e
00000040: 3e70 a43e 2ba3 303d 25d9 f73d 6209 233e
00000050: dbc2 563d 5519 b03d 9ce2 e13d 8ad1 173e
00000060: 57be 943e 7da0 d13d 757f e23d ef84 473d
00000070: d875 cd3d fe61 283e 5fd9 ba3d 9c46 e33e

model.11.weight f4 [5, 32]
0.0042284317 0.039921287 0.0019482505 -0.030529665 0.00550172 -0.023938641 0.006893383 -0.050652858
0.01860441 -0.008676443 0.03093696 -0.012306658 0.02508988 -0.059441123 -0.012299251 -0.014507425
0.021116572 0.011758873 0.023182211 0.01765958 -0.008939702 0.015696015 0.0073984438 -0.034772694
0.044304848 0.09970643 0.030651482 0.039249334 -0.012660424 -0.059138022 -0.032473117 -0.01436803
0.004472935 0.041663412 0.0013170359 -0.03079939 0.0054090824 -0.023784135 0.0016736619 -0.05028947
0.018861705 -0.008816711 0.03167659 -0.012622244 0.022169085 -0.06192733 -0.012165386 -0.013361495
0.02106272 0.011761302 0.021680735 0.017000536 -0.008856587 0.016130563 0.014359725 -0.03665802
0.044373002 0.100751154 0.030869849 0.039712656 -0.011189085 -0.05926115 -0.031842943 -0.014062809
-0.008405054 -0.081126794 -0.006021821 0.017189214 0.0280502 -0.14028683 0.047857244 0.001658118
-0.019284563 -0.0037596228 0.05805318 0.01515946 0.04743127 -0.08374919 0.004923871 0.10468203
-0.04501991 0.00010312739 -0.02171185 -0.016577799 0.0013186656 0.00036303658 -0.0003756726 0.0061671296
-0.012559389 0.026645204 -0.042172197 -0.023888856 0.016253112 0.04873064 -0.013477687 -0.013250331
-0.008116528 -0.08725852 -0.005951564 0.015695564 0.025938315 -0.13158621 0.042178057 -9.024375e-05
-0.018313762 -0.0033879776 0.06515587 0.015221742 0.053461246 -0.0848784 0.006238431 0.10524032
-0.046644427 -0.0015055906 -0.022341995 -0.01784912 0.0020557062 -0.0012940132 0.010702095 -0.0015096667
-0.013342237 0.0040117907 -0.041769564 -0.025826849 0.029531669 0.050650816 -0.009453268 -0.012904926
0.8757542 -1.0724044 0.916195 -1.0946267 0.92450374 -0.9499377 -1.0533879 -0.92465657
0.8677191 0.8170677 -1.0260851 0.9578099 -1.0005392 -1.0272775 0.86583465 -0.95927
0.9629329 0.9073437 -1.0098642 0.92729 0.87004554 0.82001346 -0.9173613 -1.0488786
0.84735215 -0.9731684 -1.0340148 -0.9884094 -1.0331852 -1.0715303 0.84538215 0.9102176
00000000: a88e 8a3b 8184 233d 705c ff3a 5919 fabc
00000010: c647 b43b f81a c4bc e3e1 e13b 5f79 4fbd
00000020: 4768 983c a427 0ebc 826f fd3c dda1 49bc
00000030: 4b89 cd3c 8978 73bd cc82 49bc 8db0 6dbc
00000040: a9fc ac3c 4aa8 403c 9fe8 bd3c d3aa 903c
00000050: d477 12bc ee94 803c a56e f23b d06d 0ebd
00000060: 0079 353d e332 cc3d d118 fb3c e9c3 203d
00000070: ab6d 4fbc b63a 72bd 8802 05bd e367 6bbc
00000080: b391 923b 41a7 2a3d 64a0 ac3a 014f fcbc
00000090: ac3e b13b f2d6 c2bc c65e db3a 55fc 4dbd
000000a0: dd83 9a3c f773 10bc 50bf 013d 87cd 4ebc
000000b0: f19b b53c 83a7 7dbd 5451 47bc 2cea 5abc
000000c0: ba8b ac3c 7ab2 403c cc9b b13c b544 8b3c
000000d0: 381b 11bc 3e24 843c 0d45 6b3c b826 16bd
000000e0: 77c0 353d 9f56 ce3d c4e2 fc3c bda9 223d
000000f0: 6d52 37bc d2bb 72bd bf6d 02bd b267 66bc
00000100: 5ab5 09bc ce25 a6bd b252 c5bb 65d0 8c3c
00000110: 88c9 e53c 5aa7 0fbe f505 443d 3555 d93a
00000120: a9fa 9dbc 0164 76bb 2cc9 6d3d 625f 783c
00000130: 4b47 423d b284 abbd 6c58 a13b 8863 d63d
00000140: cc66 38bd 1946 d838 0ddd b1bc 2ace 87bc
00000150: 13d7 ac3a f255 be39 ecf5 c4b9 a215 ca3b
00000160: e5c5 4dbc 0b47 da3c c1bc 2cbd 90b2 c3bc
00000170: 3f25 853c c899 473d 84d1 5cbc eb17 59bc
00000180: 30fb 04bc 98b4 b2bd 5605 c3bb fc93 803c
00000190: 977c d43c 89be 06be e6c2 2c3d 3f41 bdb8
000001a0: be06 96bc d508 5ebb 7170 853d 9d64 793c
000001b0: 2efa 5a3d bad4 adbd c16b cc3b 3d88 d73d
000001c0: 3a0e 3fbd 3d57 c5ba 8f06 b7bc 5138 92bc
000001d0: 07b9 063b e19b a9ba d757 2f3c 02e0 c5ba
000001e0: 6699 5abc 5775 833b 9016 2bbd d492 d3bc
000001f0: 66ec f13c 3b77 4f3d e1e1 1abc 2f6f 53bc
00000200: 6d31 603f 8c44 89bf c18b 6a3f ba1c 8cbf
00000210: 47ac 6c3f 1e2f 73bf 6ad5 86bf 4bb6 6cbf
00000220: d722 5e3f 592b 513f c256 83bf 0833 753f
00000230: ab11 80bf d47d 83bf 57a7 5d3f b892 75bf
00000240: c582 763f ad47 683f 3b43 81bf e162 6d3f
00000250: 4ebb 5e3f 67ec 513f 31d8 6abf a741 86bf
00000260: 12ec 583f 9021 79bf 995a 84bf 6608 7dbf
00000270: 6a3f 84bf e827 89bf f76a 583f 0504 693f

model.11.bias f4 [5]
0.09089855 0.0912393 0.22346933 0.20788093 0.7633349
00000000: 0529 ba3d acdb ba3d 25d5 643e bdde 543e
00000010: ea69 433f
