backend/data/models/neural_v1.pt (torch, 183534 bytes, 48 tensors)

model.0.weight f4 [128, 17]
0	0xbe54983b	-0.20761196
1	0x3db176c2	0.086652294
2	0xbe725640	-0.23665714
3	0xbe011d5d	-0.12608857
4	0xbdf6ed68	-0.120570004
5	0x3dd77f1a	0.105222896
6	0xbdcec613	-0.100963734
7	0xbe2517d9	-0.16122378
8	0xbde6c980	-0.11268902
9	0x3e213cfc	0.1574592
10	0x3de3c796	0.11122052
11	0xbe87207f	-0.2639198
12	0xbe75fceb	-0.24022262
13	0xbe56f781	-0.20992853
14	0xbe1af7cd	-0.15133591
15	0xbe55c3e1	-0.20875503
16	0xbde7a1c5	-0.11310152
17	0x3d9178c1	0.0710311
18	0x3e182e98	0.14861524
19	0x3ac0548f	0.0014673638
20	0x3e8f2b08	0.27962518
21	0xbdc1b49b	-0.09458276
22	0xbe25ab6e	-0.16178676
23	0x3e37d35a	0.17951718
24	0xbd19eccb	-0.03757934
25	0x3e15124e	0.14557764
26	0xbe9c0386	-0.30471438
27	0x3e6b4c52	0.22978333
28	0x3e4dc6c4	0.20095354
29	0xbe7889e3	-0.2427135
30	0x3e9359c9	0.28779438
31	0xbe4043fb	-0.18775932
32	0x3e03be7f	0.12865637
33	0x3d08454a	0.033269204
34	0xbdc0facb	-0.09422835
35	0x3d71fdec	0.05908005
36	0x3dce4cb3	0.10073223
37	0xbc5e53e1	-0.013569803
38	0xbda85d79	-0.082209535
39	0xbd15771b	-0.03649054
40	0x3ec10430	0.37698507
41	0x3e125882	0.14291576
42	0x3ce6e44a	0.028185029
43	0xbe381d28	-0.17979872
44	0x3e5fd399	0.21858062
45	0x3e0b130d	0.13581486
46	0x3d165af9	0.036707852
47	0x3e4ddec8	0.20104516
48	0xbd306c3e	-0.043071978
49	0xbd449bf6	-0.0480003
50	0x3eebf9e7	0.46089098
51	0xbdbc6125	-0.09198216
52	0x3e4df8e6	0.20114478
53	0xbe69bb31	-0.22825314
54	0x3e894b8e	0.26815456
55	0xbc6eaeae	-0.014568014
56	0xbe78c4f8	-0.24293888
57	0x3da0418d	0.07825003
58	0xbd2e4e8a	-0.04255537
59	0x3e6b553b	0.22981732
60	0xbd5c4a62	-0.053781874
61	0xbe5a0ab6	-0.21293148
62	0x3e10bfce	0.14135668
63	0x3e62bb6e	0.22141811
64	0xbe0c83ed	-0.137222
65	0xbcffd630	-0.031230062
66	0xbe4c26ad	-0.19936629
67	0x3e16b9b3	0.14719276
68	0x3d1120a3	0.035431515
69	0xbd3deb07	-0.046366718
70	0x3e5007fc	0.20315546
71	0xbdf31581	-0.11869336
72	0xbe9f81d5	-0.3115374
73	0xbdc506b9	-0.09620423
74	0x3e149247	0.14508925
75	0x3da6aa6e	0.08137976
76	0xbe508e26	-0.20366725
77	0x3c94904d	0.018135214
78	0x3d065f15	0.03280552
79	0x3d0b4039	0.033996794
80	0x3df248e3	0.11830308
81	0xbdba2237	-0.09088557
82	0xbd72161d	-0.05910312
83	0xbe4e2e91	-0.20134951
84	0x3d9bf2d8	0.07614678
85	0x3d7afd0c	0.06127648
86	0xbe29e284	-0.16590315
87	0xbe601deb	-0.21886413
88	0x3e0f1822	0.1397405
89	0xbe863325	-0.26210895
90	0x3dfc67f8	0.12324518
91	0x3e86df4b	0.26342234
92	0xbd94779a	-0.07249375
93	0x3d08c5ca	0.03339175
94	0xbedf5f58	-0.4362743
95	0x3e49a52d	0.19691916
96	0xbe5437a0	-0.20724344
97	0x3e0bc0ce	0.13647768
98	0xbe41a31e	-0.1890988
99	0x3e34691d	0.17618223
100	0x3c85290e	0.016254928
101	0xbd7f6312	-0.06235034
102	0x3c1a9e18	0.009437107
103	0xbe1d49c3	-0.15360169
104	0x3e591ee9	0.21203198
105	0x3d80180d	0.06254587
106	0xbc9fbfd3	-0.019500649
107	0xbd97aa0b	-0.0740548
108	0x3d402a84	0.046915546
109	0x3da5aacc	0.080892175
110	0xbe8227c6	-0.2542097
111	0xbe4c01cc	-0.1992256
112	0x3e80fd01	0.25193027
113	0xbde6a24d	-0.11261425
114	0xbdb0d180	-0.08633709
115	0xbe424219	-0.18970527
116	0xbdf3dfc6	-0.11907916
117	0x3e8ec77b	0.27886567
118	0x3e4fc9b4	0.20291787
119	0xbe87a9be	-0.2649669
120	0xbdbabaa0	-0.09117627
121	0x3dc3eb95	0.09566418
122	0xbe49dbfa	-0.1971282
123	0x3e787fb7	0.2426747
124	0x3e45695f	0.19278477
125	0x3d995869	0.07487566
126	0xbd3ba1b7	-0.04580852
127	0x3e3f26be	0.18667123
128	0x3e1c9a02	0.15293124
129	0x3e1593b6	0.14607129
130	0x3ebaf88b	0.36517748
131	0x3e0541bc	0.13013357
132	0x3e17f806	0.14840707
133	0x3e4ac126	0.19800243
134	0xbe0d9e0d	-0.13829823
135	0x3e4b137a	0.19831648
136	0xbe952649	-0.29130772
137	0x3e319895	0.17343362
138	0xbdeaaeae	-0.11459099
139	0x3d60c412	0.054874487
140	0xbe953cfb	-0.29148087
141	0xbda2215d	-0.0791652
142	0xbd84b68b	-0.0648013
143	0x3df10e13	0.117702626
144	0x3c478c40	0.012179434
145	0xbd0ca473	-0.03433652
146	0xbd2e0b69	-0.04249135
147	0xbe06204e	-0.13098261
148	0x3e64d3d8	0.22346437
149	0x3e67c33b	0.22633068
150	0x3e960de9	0.29307488
151	0x3e80eb6e	0.2517962
152	0x3c2a3b10	0.010390058
153	0x3e449283	0.19196515
154	0xbd3e8d6c	-0.04652159
155	0x3e627112	0.22113445
156	0x3bec3698	0.0072086565
157	0x3c1b39c5	0.009474223
158	0x3e34d81a	0.17660561
159	0x3c2bfc1c	0.010497119
160	0xbe0f358a	-0.13985267
161	0x3d749495	0.05971201
162	0x3e0ef103	0.13959126
163	0x3e58d72f	0.21175836
164	0x3d197e08	0.03747371
165	0x3e98a360	0.29812145
166	0x3ccd321f	0.025048314
167	0x3e587723	0.21139197
168	0xbe54828e	-0.20752928
169	0x3cf115cd	0.02942934
170	0x3d0e7cb8	0.03478691
171	0xbe32ce83	-0.1746159
172	0xbd43a145	-0.04776122
173	0xbe3f479a	-0.18679658
174	0xbebaba49	-0.3647025
175	0x3d6a4684	0.057196155
176	0x3de1d6ac	0.110272735
177	0x3ceb2fc1	0.028709294
178	0xbe8a95d7	-0.27067444
179	0x3d801c14	0.062553555
180	0xbd979084	-0.07400611
181	0xbdad20b8	-0.08453506
182	0x3e3f4db5	0.18681987
183	0x3e18936f	0.14899991
184	0x3e3fe6f5	0.18740447
185	0x3dd1f513	0.10251822
186	0x3d9404f8	0.0722751
187	0xbc8d98f0	-0.01728484
188	0xbca94bbb	-0.020665994
189	0x3df02318	0.117254436
190	0x3e9524a5	0.2912952
191	0x3e06889c	0.1313805
192	0xbdbc267e	-0.09187029
193	0x3e3439fc	0.17600244
194	0xbe0cb26a	-0.13739935
195	0xbe67ec30	-0.22648692
196	0x3e12b207	0.14325725
197	0x3ddfbdac	0.10924849
198	0xbd0fc841	-0.035103086
199	0xbdd58e41	-0.104275234
200	0x3d181304	0.03712751
201	0x3e99d48d	0.30044976
202	0xbe5b8656	-0.21437964
203	0xbd49c619	-0.049261186
204	0xbdcbccdc	-0.09951183
205	0xbdcd6383	-0.10028746
206	0x3d86b10a	0.06576736
207	0x3e3d2871	0.18472458
208	0xbe112154	-0.1417287
209	0xbdb888f3	-0.09010496
210	0xbd940852	-0.072281495
211	0xbe0a884a	-0.13528553
212	0x3dc5cfd4	0.09658781
213	0xbea7704c	-0.32702863
214	0xbe2be4d0	-0.16786504
215	0xbe887c96	-0.26657552
216	0xbe9b1520	-0.30289555
217	0x3e42c9b4	0.19022256
218	0xbd6b62da	-0.05746732
219	0x3dd860b5	0.105653204
220	0xbd89c433	-0.06726875
221	0xbe286676	-0.16445336
222	0x3dcf2776	0.101149485
223	0xbd3fc2c0	-0.046816587
224	0xbdeed10a	-0.11660965
225	0x3dfcef76	0.12350361
226	0xbe58de59	-0.21178569
227	0x3e7da313	0.24769239
228	0x3c71c131	0.014755533
229	0x3e5465b8	0.20741928
230	0xbedc25bb	-0.42997536
231	0x3e3c61c4	0.1839667
232	0x3d84d2e8	0.0648554
233	0xbe83079a	-0.25591737
234	0xbe81094d	-0.25202408
235	0xbd8fa086	-0.07013039
236	0xbe57adfd	-0.21062465
237	0x3de932aa	0.113866165
238	0xbdd38762	-0.103285566
239	0xbe3b284d	-0.18277092
240	0x3e0f950e	0.14021704
241	0x3ec32df2	0.3812099
242	0xbd9bd0b7	-0.076081686
243	0x3da84661	0.08216549
244	0xbe9e84a1	-0.30960563
245	0xbe79ca19	-0.243935
246	0xbe590000	-0.21191406
247	0xbe9adb10	-0.30245256
248	0x3e33b269	0.17548527
249	0x3d589142	0.052872904
250	0x3cc68d53	0.02423731
251	0xbe631367	-0.2217537
252	0xbe18105a	-0.14849988
253	0xbe107664	-0.14107662
254	0xbd0ee511	-0.034886423
255	0xbe23baf4	-0.15989286

model.0.bias f4 [128]
0	0xbd97ff6d	-0.074217655
1	0x3e82aaf1	0.25521043
2	0xbdd33359	-0.10312528
3	0x3ddf0489	0.10889537
4	0x3e472520	0.19447756
5	0xbd4e5aca	-0.050379552
6	0x3e0c4726	0.13699016
7	0xbdb606ad	-0.08887992
8	0xbdc30f86	-0.09524445
9	0x3d2d8d3c	0.04237102
10	0xbe4471a4	-0.19183975
11	0x3c5a3e0a	0.013320455
12	0x3daccdfa	0.084377244
13	0x3e4fa462	0.20277551
14	0x3d91c1be	0.071170315
15	0xbe5bf733	-0.21481018
16	0xbdaec19b	-0.08533021
17	0xbe4ce2b2	-0.20008352
18	0x3dfdf295	0.123997845
19	0xbeb96444	-0.3620931
20	0xbdeb268c	-0.114819616
21	0xbe0d3da1	-0.13793041
22	0x3e97560c	0.29557836
23	0xbdf95f6f	-0.12176406
24	0x3d316e44	0.043318048
25	0x3e262dcd	0.16228409
26	0x3d4aa3f7	0.049472775
27	0xbe11a69b	-0.14223711
28	0x3e61a9e0	0.22037458
29	0xbe30a988	-0.17252171
30	0x3d40b82c	0.04705064
31	0xbded3960	-0.11583209
32	0xbe36b4e5	-0.17842443
33	0x3e1efd4f	0.15526317
34	0x3bc76e1f	0.0060861255
35	0xbe0af1a6	-0.13568744
36	0xbdfa5406	-0.122230574
37	0xbd73cef5	-0.05952354
38	0xbefa08d9	-0.48834875
39	0xbbbd5a4d	-0.005778587
40	0xbe50c77c	-0.20388597
41	0xbea528af	-0.32257602
42	0xbe001533	-0.12508087
43	0x3d85d78c	0.06535253
44	0xbe6c0728	-0.23049605
45	0x3d530bb0	0.051524818
46	0x3d49a288	0.049227268
47	0x3db20bf5	0.08693687
48	0xbd0f8801	-0.035041813
49	0x3e23be82	0.15990642
50	0xbe54a99e	-0.20767829
51	0x3e5cbb57	0.2155584
52	0x3e0928e0	0.13394499
53	0xbe08fb62	-0.13377145
54	0x3e36da86	0.17856798
55	0xbb6c86d3	-0.0036091104
56	0xbcee79fb	-0.0291109
57	0x3d350cbe	0.044201605
58	0xbc24b92f	-0.010053917
59	0xbe20c5a9	-0.15700401
60	0xbdb79cf7	-0.089654855
61	0x3e0b11fa	0.13581076
62	0x3d86b226	0.06576948
63	0x3e7f5853	0.24936037
64	0x3e2c33ee	0.16816685
65	0xbe4ae3e2	-0.19813493
66	0x3e296ff0	0.16546607
67	0x3e6f751d	0.23384519
68	0xbf066d9c	-0.52511
69	0xbe40dedf	-0.18835019
70	0xbc63b981	-0.013899208
71	0xbdfd278d	-0.12361059
72	0xbe26f928	-0.16305983
73	0x3e0a3a0d	0.13498707
74	0x3e196fd5	0.14984067
75	0x3e029e3b	0.12755673
76	0x3ddc3758	0.107527435
77	0xbe887ee0	-0.26659298
78	0xbdae2142	-0.08502437
79	0x3d3ffaf2	0.04687018
80	0xbd47b8ee	-0.048760347
81	0x3ecb4d5b	0.39707455
82	0xbea1e8e2	-0.31622988
83	0xbb4f8e4f	-0.0031670516
84	0xbdfedcbf	-0.12444448
85	0x3e80381b	0.25042805
86	0xbd8b008c	-0.06787214
87	0x3eb7d018	0.3590095
88	0xbe8f080b	-0.27935824
89	0x3ccb9da8	0.02485545
90	0xbf0fe8eb	-0.5621478
91	0xbe45b91a	-0.19308892
92	0xbee83344	-0.45351613
93	0xbe19ed5d	-0.15031953
94	0x3bf84b0f	0.007577307
95	0xbe318df7	-0.17339312
96	0x3c777572	0.015103685
97	0xbdec83b6	-0.11548559
98	0xbe4f6e9c	-0.20257038
99	0xbe8fb38f	-0.2806668
100	0xbddc6d06	-0.10762982
101	0xbe829093	-0.25500926
102	0x3dbaa091	0.09112657
103	0xbdc7eab7	-0.09761565
104	0xbd637e7e	-0.055540554
105	0x3e1c88fc	0.1528663
106	0xbe9980b8	-0.29981017
107	0xbe64d448	-0.22346604
108	0x3de2eaee	0.110799655
109	0xbe39fe51	-0.1816342
110	0x3d11b87f	0.03557634
111	0x3b4af748	0.0030970145
112	0xbe85ab28	-0.26107144
113	0xbed3228b	-0.41237292
114	0xbdb05bd3	-0.08611264
115	0x3e47e63d	0.19521423
116	0xbda7164c	-0.0815855
117	0x3df97409	0.12180335
118	0x3e11e803	0.14248662
119	0xbe1b4827	-0.15164243
120	0x3d4b0b6f	0.04957145
121	0xbe29f9dd	-0.16599222
122	0xbdeb2db3	-0.11483326
123	0x3df365c6	0.11884646
124	0xbef82676	-0.48466843
125	0xbe5f329a	-0.21796647
126	0xbf0536f4	-0.52036977
127	0x3e5e2411	0.21693446

model.2.weight f4 [128]
0	0x3f56e53a	0.8394352
1	0x3f41132a	0.7541987
2	0x3f69f4c2	0.91389096
3	0x3f2e7f37	0.68162864
4	0x3f49ec80	0.78876495
5	0x3f5e4e1a	0.86837924
6	0x3f72ef4d	0.94896394
7	0x3f67978c	0.9046562
8	0x3f75039d	0.9570864
9	0x3f81eb0a	1.0149853
10	0x3f80bf01	1.005829
11	0x3f562a1a	0.8365799
12	0x3f5ee9c8	0.8707547
13	0x3f4d8eb6	0.80295885
14	0x3f6d2fc7	0.9265103
15	0x3f64af77	0.8933024
16	0x3f619b98	0.8812804
17	0x3f86d2b7	1.0533055
18	0x3f6ac63b	0.91708726
19	0x3f6e0671	0.9297858
20	0x3f5ae3a7	0.8550362
21	0x3f4d69fd	0.8023985
22	0x3f786bf3	0.9703972
23	0x3f629587	0.8850941
24	0x3f5a0bbc	0.85174155
25	0x3f68dbc6	0.9096035
26	0x3f54b443	0.8308756
27	0x3f6c1c87	0.9223103
28	0x3f5ca7e5	0.86193687
29	0x3f4318fd	0.76210004
30	0x3f82e605	1.0226446
31	0x3f7e75d4	0.9939854
32	0x3f1e639d	0.6187075
33	0x3f56f08e	0.8396081
34	0x3f41f2b9	0.7576099
35	0x3f628bf6	0.88494813
36	0x3f6b6dfc	0.919647
37	0x3f192bfa	0.5983273
38	0x3f8d4195	1.1035639
39	0x3f44440f	0.7666635
40	0x3f4cd07c	0.8000562
41	0x3f542b42	0.82878506
42	0x3f5e05c4	0.8672755
43	0x3f69b191	0.9128657
44	0x3f8eeb0b	1.116548
45	0x3f60e5b9	0.8785053
46	0x3f4ca759	0.7994285
47	0x3f522cca	0.8209959
48	0x3f3b9bb1	0.7328444
49	0x3f56db7a	0.83928645
50	0x3f653b23	0.8954336
51	0x3f50a6c2	0.8150445
52	0x3f594d6e	0.84883773
53	0x3f446a1e	0.7672442
54	0x3f6dab1a	0.92839205
55	0x3f368de4	0.7131026
56	0x3f61a8ed	0.88148385
57	0x3f6d809f	0.92774385
58	0x3f3d8d63	0.74043864
59	0x3f5d299c	0.86391616
60	0x3f72937f	0.9475631
61	0x3f3339a4	0.7000983
62	0x3f5cf920	0.86317635
63	0x3f4dd6f1	0.804061
64	0x3f37a3ee	0.7173451
65	0x3f6799e6	0.90469205
66	0x3f6ca0fc	0.9243314
67	0x3f63ada0	0.88936806
68	0x3f70b894	0.94031644
69	0x3f52fad7	0.82414
70	0x3f56ab3d	0.8385504
71	0x3f55cade	0.83512676
72	0x3f62021c	0.8828447
73	0x3f73940e	0.9514779
74	0x3f5c3100	0.8601227
75	0x3f5c2ae3	0.8600294
76	0x3f7bebd6	0.9840673
77	0x3f5e4fe7	0.8684067
78	0x3f65aa6c	0.8971317
79	0x3f57ba6e	0.84268844
80	0x3f842226	1.0322921
81	0x3f36ee59	0.7145744
82	0x3f67dd34	0.90571904
83	0x3f2e0fd3	0.67992896
84	0x3f6e7f05	0.93162566
85	0x3f43ffcc	0.7656219
86	0x3f6c8faf	0.92406744
87	0x3f6f4e01	0.934784
88	0x3f291f96	0.6606382
89	0x3f774c9d	0.9660128
90	0x3f779cb2	0.96723473
91	0x3f6ba683	0.9205095
92	0x3f86f7d7	1.0544385
93	0x3f58daea	0.84709036
94	0x3f67e32a	0.90581
95	0x3f531d75	0.8246682
96	0x3f861298	1.0474424
97	0x3f5f5701	0.8724213
98	0x3f61ac01	0.8815308
99	0x3f432a92	0.7623683
100	0x3f3ab220	0.7292805
101	0x3f5a655a	0.853109
102	0x3f551851	0.8324023
103	0x3f51bb1d	0.8192614
104	0x3f537efa	0.82615626
105	0x3f63181e	0.88708675
106	0x3f797937	0.97450584
107	0x3f743a37	0.9540133
108	0x3f5c0eca	0.85960066
109	0x3f7399f6	0.951568
110	0x3f412e80	0.7546158
111	0x3f5c5200	0.8606262
112	0x3f698f08	0.91233873
113	0x3f80211b	1.0010103
114	0x3f70565b	0.9388177
115	0x3f687078	0.90796614
116	0x3f723f9c	0.9462831
117	0x3f69bfd4	0.9130833
118	0x3f6accb7	0.9171862
119	0x3f668f3b	0.900623
120	0x3f73906e	0.9514226
121	0x3f6a239c	0.91460586
122	0x3f482a59	0.7818962
123	0x3f3f74cd	0.747876
124	0x3f72d5a2	0.9485723
125	0x3f83b12e	1.0288446
126	0x3f86c630	1.0529232
127	0x3f5ce47e	0.8628615

model.2.bias f4 [128]
0	0xbeb5b4a9	-0.35489395
1	0x3ca44dc5	0.020056615
2	0xbf250ef6	-0.64475954
3	0x3ef1b5d0	0.47209024
4	0xbebef58a	-0.37296706
5	0xbefd433e	-0.49465364
6	0xbf05f413	-0.5232555
7	0x3ef8562a	0.48503238
8	0xbefcb27e	-0.4935493
9	0x3efa6cde	0.48911184
10	0xbf148181	-0.5801011
11	0x3f076d12	0.52900803
12	0x3ef981a4	0.4873172
13	0x3ec57c9a	0.38571626
14	0x3ee171ae	0.44032043
15	0x3ec855e2	0.39128023
16	0xbed3b67d	-0.41350165
17	0x3f09f91c	0.53895736
18	0xbe944557	-0.28959152
19	0x3f050a6a	0.51969016
20	0x3db8b00c	0.09017953
21	0xbed8abae	-0.4231848
22	0xbed75f14	-0.42064726
23	0x3ed33d21	0.41257575
24	0xbed7a3da	-0.42117196
25	0xbe3e9657	-0.18612038
26	0xbebc8d21	-0.36826423
27	0x3ee78df4	0.4522549
28	0x3e82a068	0.25513005
29	0x3ed63386	0.41836184
30	0xbef496c4	-0.47771275
31	0x3e265f64	0.16247326
32	0x3ec1f685	0.37883392
33	0xbf0641fb	-0.5244443
34	0xbd35440d	-0.04425435
35	0xbf0b206d	-0.5434635
36	0x3ee012df	0.43764398
37	0x3e454916	0.19266161
38	0xbf2eb897	-0.6825041
39	0xbe7a843d	-0.24464507
40	0xbe9d98b9	-0.3078058
41	0x3e70c5a4	0.23512894
42	0xbf1e4a8b	-0.61832494
43	0x3eee7918	0.46576762
44	0x3ec7dded	0.39036503
45	0x3f0c9f73	0.549308
46	0xbd8625b3	-0.06550159
47	0xbb1fbdc9	-0.0024374595
48	0x3e5884f0	0.21144462
49	0x3d9c56e7	0.07633763
50	0xbeabcb97	-0.33553764
51	0xbf20d951	-0.628316
52	0xbf1147f7	-0.56750435
53	0xbef00ed8	-0.46886325
54	0x3ec744a3	0.38919553
55	0x3ebd698b	0.36994585
56	0x3ed72591	0.42020848
57	0xbf28602d	-0.6577175
58	0xbe8ab5b9	-0.27091768
59	0xbebc0b0b	-0.36727175
60	0xbf2ee799	-0.6832214
61	0xbe5c60a5	-0.21521242
62	0x3f041508	0.5159459
63	0x3e3dda50	0.18540311
64	0x3e8163ba	0.25271398
65	0x3f0a1b04	0.5394747
66	0x3ef9dde8	0.48802114
67	0x3ebdc5c1	0.37064937
68	0xbee5ac2b	-0.44857916
69	0x3e1f6506	0.15565881
70	0x3ec36e20	0.38169956
71	0xbeb65830	-0.35614157
72	0x3ef00412	0.46878105
73	0xbe0c2cc3	-0.1368895
74	0xbeeecc28	-0.46640134
75	0xbed20232	-0.410173
76	0xbeebab57	-0.4602916
77	0xbf27a884	-0.6549151
78	0x3f0d6f48	0.55247927
79	0xbdd486a8	-0.10377246
80	0x3f0564ba	0.5210682
81	0x3e953034	0.2913834
82	0x3eb2f638	0.34953475
83	0xbf145c68	-0.579535
84	0x3eda93fc	0.42691028
85	0x3ed7e1cf	0.42164466
86	0xbeed796e	-0.46381706
87	0xbeb87fe6	-0.3603508
88	0x3ea10660	0.31450176
89	0x3edbc673	0.42924842
90	0xbf0945bc	-0.5362203
91	0xbf008523	-0.5020315
92	0xbf086dea	-0.53292716
93	0xbeb4d46b	-0.35318312
94	0x3ed26fae	0.4110083
95	0xbe983b31	-0.2973266
96	0x3ed2a97e	0.41144937
97	0xbf0f7650	-0.56039906
98	0xbf139346	-0.57646596
99	0x3e585178	0.21124828
100	0xbe4e8fb4	-0.20172006
101	0x3f20a243	0.6274759
102	0xbe0cac3a	-0.13737574
103	0x3f09f5df	0.53890795
104	0x3f078191	0.5293208
105	0x3ef2f5bd	0.47453108
106	0x3f011a85	0.5043109
107	0x3f113cff	0.567337
108	0xbe9486a4	-0.29008973
109	0xbf0183a7	-0.5059151
110	0xbf0b1f71	-0.5434485
111	0xbed4b4ff	-0.4154434
112	0x3f0d31e3	0.55154246
113	0xbf0171b0	-0.505641
114	0x3efbf202	0.49208075
115	0xbee61acc	-0.4494232
116	0x3ee3d30f	0.44496962
117	0x3edc5f9c	0.43041694
118	0xbea3119c	-0.31849372
119	0x3de60628	0.11231643
120	0xbdaef9a3	-0.08543708
121	0x3eda6c34	0.42660677
122	0x3d9e8ef9	0.077421136
123	0xbf05c68e	-0.52256095
124	0xbf03d3b7	-0.51494926
125	0xbf0baf6a	-0.54564536
126	0xbf09df24	-0.5385611
127	0x3efef7ba	0.49798375

model.2.running_mean f4 [128]
0	0x3d887c1c	0.06664297
1	0x3ece71be	0.40321153
2	0x3e89f087	0.2694132
3	0x3e5b725d	0.21430345
4	0x3e8c5aac	0.27412927
5	0x3e511af8	0.20420444
6	0x3ea8ddbc	0.3298167
7	0x3e7151ab	0.2356631
8	0x3e8b20b8	0.271734
9	0x3e822943	0.25422105
10	0x3e4ab546	0.19795713
11	0x3e497cfc	0.19676584
12	0x3e8348e0	0.25641537
13	0x3e98d5e0	0.29850674
14	0x3e649e8e	0.22326109
15	0x3d971889	0.073777266
16	0x3df24b3d	0.11830757
17	0x3e168291	0.14698245
18	0x3e684885	0.22683914
19	0x3cb0dbe3	0.021589225
20	0x3e502fc3	0.2033072
21	0x3e058c82	0.1304188
22	0x3eaacfde	0.33361715
23	0x3e16257d	0.14662738
24	0x3e58543c	0.21125883
25	0x3e7e4fb4	0.24835092
26	0x3e48c902	0.19607928
27	0x3e2aced7	0.16680466
28	0x3ea14e96	0.3150527
29	0x3e0de43a	0.13856593
30	0x3e3f2cab	0.18669383
31	0x3e16345c	0.14668411
32	0x3d8c1126	0.06839208
33	0x3e8503bf	0.2597942
34	0x3e38cfa4	0.18047959
35	0x3df9036a	0.12158854
36	0x3e75d2ba	0.24006167
37	0x3dc3d020	0.09561181
38	0x3b82c958	0.003991287
39	0x3e349bdc	0.1763758
40	0x3e099d27	0.13438855
41	0x3d4f029e	0.050539605
42	0x3e4c1a43	0.19931893
43	0x3e6b3ea4	0.22973114
44	0x3e075e0b	0.13219468
45	0x3e5d2db6	0.21599469
46	0x3e6aaafe	0.22916791
47	0x3e6843ea	0.22682157
48	0x3e06deb7	0.13170896
49	0x3e87219a	0.26392823
50	0x3d7210c1	0.05909801
51	0x3ea796f7	0.32732365
52	0x3e9320af	0.28735873
53	0x3e140301	0.14454271
54	0x3e9d6ca5	0.30746952
55	0x3e2ecd9c	0.17070621
56	0x3e469421	0.19392444
57	0x3e81975b	0.25310788
58	0x3e27398f	0.1633055
59	0x3e0cd4de	0.13753077
60	0x3e85eead	0.26158658
61	0x3e6a1dff	0.22863005
62	0x3e83db56	0.25753278
63	0x3e9f85c2	0.31156737
64	0x3e949df1	0.2902675
65	0x3de207c3	0.11036637
66	0x3eec8f9e	0.4620332
67	0x3ecb45c6	0.3970167
68	0x39ab7f92	0.0003271071
69	0x3d83f497	0.06443136
70	0x3e185c0b	0.14878862
71	0x3e04635d	0.12928529
72	0x3deaa26e	0.11456762
73	0x3e997b06	0.29976672
74	0x3e919448	0.28433442
75	0x3e9977fb	0.2997435
76	0x3eafd6ff	0.34343717
77	0x3d6dc454	0.05804856
78	0x3e3cdb12	0.18442944
79	0x3e945bc2	0.28976256
80	0x3e555aee	0.20835468
81	0x3edd0304	0.43166363
82	0x3d390985	0.045175094
83	0x3e42f2a9	0.1903788
84	0x3d94c6f8	0.07264513
85	0x3eacff38	0.33788466
86	0x3eb3d99b	0.35126957
87	0x3eb438ea	0.35199672
88	0x3d789d75	0.060697038
89	0x3e240e5b	0.16021101
90	0x3d148d53	0.03626759
91	0x3e264ba5	0.16239794
92	0x38aab41b	8.139779e-05
93	0x3d8e058d	0.069346525
94	0x3e56a643	0.20961861
95	0x3dda5262	0.106602445
96	0x3e4276af	0.18990587
97	0x3e4a84d9	0.1977724
98	0x3e190745	0.1494418
99	0x3dbe4207	0.092899375
100	0x3e27385d	0.16330095
101	0x3e00d9ce	0.12583086
102	0x3e8faab5	0.28059927
103	0x3e148495	0.14503701
104	0x3e2bbe1b	0.16771738
105	0x3e99bc3c	0.30026424
106	0x3e04d082	0.12970164
107	0x3dec4200	0.11536026
108	0x3eb3c29f	0.35109422
109	0x3e8986a2	0.2686053
110	0x3eae7aa7	0.3407795
111	0x3e96a4d5	0.29422632
112	0x3d73dbf0	0.05953592
113	0x00000004	6e-45
114	0x3e35d69e	0.17757651
115	0x3e97c608	0.29643273
116	0x3e29e673	0.16591816
117	0x3ea4ee4e	0.32213062
118	0x3e9252c1	0.2857876
119	0x3e0dfdf0	0.138664
120	0x3e910341	0.28322795
121	0x3e163a3e	0.14670655
122	0x3e0621dc	0.13098854
123	0x3e960aff	0.29305264
124	0x3b4b69fc	0.0031038513
125	0x3e46dc5e	0.19420001
126	0x00000004	6e-45
127	0x3eb2a00a	0.34887725

model.2.running_var f4 [128]
0	0x3c9f447a	0.019441832
1	0x3e1ab585	0.15108307
2	0x3e35748f	0.17720245
3	0x3d935445	0.071938075
4	0x3db0d74d	0.08634815
5	0x3ddf0612	0.1088983
6	0x3e359530	0.17732692
7	0x3dffd5e7	0.124919705
8	0x3e309e06	0.17247781
9	0x3ddf51fa	0.10904308
10	0x3dd15f31	0.102232344
11	0x3dc90286	0.098149344
12	0x3ddf115e	0.108919844
13	0x3e01ff47	0.12695037
14	0x3ddfce4a	0.109280184
15	0x3ce50af9	0.027959334
16	0x3d37f69b	0.044912916
17	0x3d727998	0.059197992
18	0x3db63ccd	0.088983156
19	0x3bb31246	0.005464825
20	0x3dcea4d2	0.10090031
21	0x3d3dda67	0.046350863
22	0x3ddb74c2	0.10715629
23	0x3d83bab4	0.06432095
24	0x3da2d668	0.07951051
25	0x3dc2da7b	0.09514328
26	0x3d9a104f	0.07522642
27	0x3d85e0fb	0.06537052
28	0x3e15b945	0.14621456
29	0x3d81c007	0.063354544
30	0x3d88574d	0.06657276
31	0x3d88c460	0.066780806
32	0x3ca5f7d0	0.020259768
33	0x3da82f92	0.08212198
34	0x3d826a51	0.063679345
35	0x3d469a6c	0.048487112
36	0x3e30d18a	0.17267433
37	0x3ceefd95	0.029173652
38	0x3a1a9749	0.0005897177
39	0x3d8962ce	0.067082986
40	0x3d62effb	0.055404644
41	0x3c69118c	0.014225375
42	0x3ddb492f	0.10707318
43	0x3dd9da7c	0.10637376
44	0x3d74f3d6	0.059802853
45	0x3dd9a502	0.10627176
46	0x3de44711	0.11146367
47	0x3dae35ea	0.08506377
48	0x3d2edec7	0.042692926
49	0x3e03ffbd	0.12890525
50	0x3c8528ae	0.01625475
51	0x3df333e2	0.1187513
52	0x3dbd9687	0.092572264
53	0x3d73eb51	0.059550587
54	0x3e259758	0.16171014
55	0x3d941be6	0.07231884
56	0x3da165d9	0.07880754
57	0x3de67565	0.1125286
58	0x3d571bf7	0.052516904
59	0x3d69293c	0.05692409
60	0x3e1796cd	0.1480362
61	0x3daf7664	0.08567503
62	0x3dead32b	0.11466058
63	0x3e21a32c	0.15784901
64	0x3e097cf7	0.13426577
65	0x3d323f29	0.043517265
66	0x3ea2a125	0.3176357
67	0x3e49ce09	0.19707502
68	0x37f4cb75	2.9181809e-05
69	0x3ca928c5	0.020649323
70	0x3d719bf5	0.058986623
71	0x3d4fdf7e	0.050750248
72	0x3d3f68d2	0.046730824
73	0x3e1cf928	0.1532942
74	0x3dd93840	0.10606432
75	0x3e23c85c	0.159944
76	0x3e55d523	0.20882086
77	0x3c913fe8	0.017730668
78	0x3db0ad9d	0.08626864
79	0x3e1ec587	0.15505038
80	0x3db2ea2e	0.087360725
81	0x3e0476d1	0.1293595
82	0x3c78db8e	0.015189065
83	0x3d9e384c	0.077255815
84	0x3ca7611d	0.02043205
85	0x3dd4bb06	0.103872344
86	0x3e9979fe	0.29975885
87	0x3d5180d0	0.051148236
88	0x3ca046d5	0.019565025
89	0x3d89fc1c	0.06737539
90	0x3c59f13e	0.0133021455
91	0x3daa0847	0.0830236
92	0x369c536b	4.6588734e-06
93	0x3c8fc8ad	0.017551744
94	0x3dd8997b	0.10576149
95	0x3d21d5be	0.03951048
96	0x3d993eb0	0.0748266
97	0x3dd1037c	0.10205743
98	0x3d9650ea	0.07339652
99	0x3d238a12	0.039926596
100	0x3dab5b80	0.083670616
101	0x3d732b32	0.059367366
102	0x3df78c49	0.12087304
103	0x3d67445d	0.05646168
104	0x3d887410	0.06662762
105	0x3e054727	0.13015424
106	0x3d8e34f7	0.06943696
107	0x3d4496a6	0.047995232
108	0x3e4647c0	0.19363308
109	0x3e4abe94	0.19799262
110	0x3e855fe1	0.26049712
111	0x3e1c060c	0.15236682
112	0x3ca07724	0.01958806
113	0x00000004	6e-45
114	0x3db6c24c	0.08923778
115	0x3dc2342e	0.09482609
116	0x3d972868	0.07380754
117	0x3e24d7e5	0.16097982
118	0x3debdc21	0.11516596
119	0x3d715fc5	0.058929224
120	0x3e1f7a08	0.15573895
121	0x3d773bf8	0.060359925
122	0x3d38fa39	0.045160506
123	0x3e0e6074	0.13903981
124	0x39fbc0ad	0.00048018005
125	0x3df84925	0.12123326
126	0x00000004	6e-45
127	0x3e24b0f6	0.1608313

model.4.weight f4 [64, 128]
0	0xbd8293cf	-0.063758485
1	0xbde6a971	-0.11262787
2	0xbac1ec1a	-0.0014795095
3	0xbe05ce6c	-0.13067025
4	0x3e00409c	0.12524647
5	0x3da9006f	0.08252036
6	0x3db7b834	0.08970681
7	0x3be707a4	0.0070504714
8	0x3cd958b3	0.026531553
9	0xbba0001c	-0.0048828255
10	0xbd99bf14	-0.075071484
11	0xbc88780f	-0.01665881
12	0xbe0a9fc6	-0.13537511
13	0xbcab4a26	-0.02090938
14	0xbdf1b495	-0.118020214
15	0x3c8a750b	0.016901514
16	0x3da2e415	0.079536594
17	0x3dbeabc4	0.093101054
18	0x3d25236c	0.040316984
19	0xbc6b8acb	-0.014376353
20	0xbe129e36	-0.14318165
21	0x3e302188	0.17200291
22	0x3e1309f6	0.14359269
23	0xbda4b0d2	-0.08041538
24	0x3d8b882e	0.068130836
25	0x3e0bbc23	0.13645987
26	0x3d90fc53	0.07079377
27	0xbd9f42db	-0.077764235
28	0x3e4112b3	0.1885479
29	0xbd9285c7	-0.07154422
30	0x3db77655	0.08958117
31	0x3e1573c2	0.1459494
32	0xbcf735a3	-0.030176943
33	0x3d48e926	0.049050473
34	0x3dba2860	0.09089732
35	0xbc1f3790	-0.009717837
36	0x3ceffb0d	0.029294515
37	0x3db301f3	0.08740606
38	0x3e4cd00f	0.20001243
39	0xbdbe6572	-0.09296693
40	0x3cfb7005	0.030693064
41	0xbe66ada8	-0.22527182
42	0x3de0e416	0.10981004
43	0xbd39065a	-0.045172073
44	0xbc05b03c	-0.008159693
45	0xbde6d9b2	-0.11271991
46	0xbdb00ddc	-0.085963935
47	0x3d9f132e	0.0776733
48	0x3d00e436	0.03146764
49	0x3d394b99	0.04523811
50	0xbdb85cf3	-0.09002104
51	0x3cdc0d07	0.02686168
52	0x3e46349e	0.1935601
53	0x3dafd5cf	0.08585703
54	0xbe34c354	-0.17652637
55	0xbdd25219	-0.10269565
56	0x3c96acd1	0.018392952
57	0x3e53233b	0.20618908
58	0xbde85b99	-0.11345596
59	0xbd082b13	-0.033244204
60	0x3e6394bf	0.22224711
61	0x3c62f626	0.013852632
62	0x3cbeb473	0.023279404
63	0xbdda34a0	-0.10654569
64	0xbcc11a69	-0.023572164
65	0x3b9f4b9b	0.004861308
66	0xbdf37208	-0.11886984
67	0xbda48f4a	-0.08035143
68	0x3c9aee2d	0.0189124
69	0xbdd60a4a	-0.10451181
70	0xbdb8d1a0	-0.09024358
71	0x3ded0255	0.115727104
72	0x3d3cd315	0.04609974
73	0x3dab094b	0.08351382
74	0xbd4c80ff	-0.049927708
75	0x3da3126e	0.079624996
76	0x3e1637c0	0.14669704
77	0x3e21052f	0.15724634
78	0xbe32f283	-0.17475323
79	0x3db7929f	0.08963513
80	0xbe827252	-0.25477844
81	0x3dcb76e4	0.09934786
82	0xbd399a11	-0.045312945
83	0x39541b36	0.00020228032
84	0xbe2025ba	-0.15639392
85	0xbd1b494a	-0.03791169
86	0x3c908c3e	0.017644998
87	0xbe0ccd2f	-0.13750146
88	0x3d8fe9a4	0.07026985
89	0x3d5ae6eb	0.053442877
90	0x3d942046	0.07232718
91	0xbca0aeb0	-0.019614547
92	0x3e5be973	0.21475773
93	0x3c0153bd	0.0078935
94	0xbe0ab423	-0.13545279
95	0x3b3ba3da	0.0028631599
96	0xbd710a20	-0.058847547
97	0x3e11877f	0.14211844
98	0x3d76d03b	0.060257178
99	0x3db6c821	0.0892489
100	0x3ca9148a	0.020639677
101	0xbe30c3ab	-0.17262141
102	0x3dd17422	0.10227229
103	0x3be118f9	0.006869432
104	0xbbe46e12	-0.006971129
105	0xbdc44594	-0.095835835
106	0xbe0b6a30	-0.13614726
107	0x3de1658d	0.110056974
108	0x3d92643e	0.07148026
109	0x3d83b889	0.06431682
110	0x3e1a38c9	0.15060724
111	0x3bab92a5	0.0052359872
112	0xbc7c1760	-0.015386432
113	0x3e03c34e	0.12867472
114	0xbe34e68b	-0.1766607
115	0x3de88f13	0.11355414
116	0xbd9b353b	-0.07578512
117	0x3dd79e49	0.105282374
118	0x3d532662	0.051550277
119	0xbe5f614d	-0.21814461
120	0x3e2daa5c	0.16959518
121	0xbe1e0050	-0.15429807
122	0x3cdfc525	0.027315686
123	0x3d8b4065	0.06799392
124	0x3dbbbd3f	0.09166955
125	0x3e77787a	0.24167052
126	0xbcacb34f	-0.021081595
127	0xbe80b7d2	-0.25140244
128	0x3d1089a8	0.03528753
129	0xbc57e231	-0.013176487
130	0x3d2d1c99	0.0422636
131	0xbd9a9aff	-0.075490944
132	0x3ddc9d5f	0.10772204
133	0x3cd08ee1	0.025458755
134	0x3bb19b07	0.005420092
135	0xbcb17d17	-0.021666093
136	0x3dce7e88	0.10082728
137	0xbde3247f	-0.110909455
138	0x3d7fdf4d	0.062468816
139	0xbe4d0060	-0.20019674
140	0xbd222be9	-0.039592657
141	0x3d623dcc	0.055234715
142	0xbdf2b7bd	-0.118514515
143	0xbdb6dc1f	-0.089287035
144	0x3b3212e7	0.0027171911
145	0xbd886a6d	-0.06660924
146	0x3d0d0a81	0.034433845
147	0xbd20a62e	-0.03922098
148	0x3d7017b5	0.05861636
149	0xbc8cd456	-0.017191093
150	0x3db78d4b	0.08962496
151	0xbe23a268	-0.15979922
152	0x3d0f7538	0.035023898
153	0xbd3d77d9	-0.046256874
154	0x3bf167bd	0.007367103
155	0xbe558682	-0.20852092
156	0xbd1e1a19	-0.038599107
157	0xbdc233c2	-0.09482528
158	0x3e11fe03	0.14257054
159	0xbd7cd611	-0.061727587
160	0x3c78eeab	0.015193622
161	0x3cde9e42	0.027175073
162	0x3d8b475b	0.06800719
163	0x3cd93d3c	0.026518457
164	0x3d74f8f5	0.059807736
165	0xbca31d30	-0.019911379
166	0x3e4526b9	0.19253053
167	0x3dce5a60	0.100758314
168	0x3d71358c	0.058888957
169	0xbbfebecc	-0.0077742096
170	0x3cf05524	0.029337473
171	0xbd3a5f40	-0.045500994
172	0xbd37c8a8	-0.044869095
173	0xbe16a05c	-0.1470961
174	0xbd094ecb	-0.03352241
175	0x3db36088	0.08758646
176	0xbceaa820	-0.028644621
177	0xbdab6795	-0.08369366
178	0xbd270246	-0.040773652
179	0x3e2379b7	0.159644
180	0x3e2e7806	0.17037973
181	0xbc86591b	-0.01639991
182	0xbe07e5dc	-0.13271278
183	0xbdc73133	-0.09726181
184	0xbcaac97d	-0.02084803
185	0x3da805ce	0.08204232
186	0x3c028269	0.0079656625
187	0xbd9eed25	-0.077600755
188	0x3e14e969	0.14542164
189	0xbd968ed3	-0.0735146
190	0x3c2dfccf	0.010619356
191	0xbd85d06b	-0.06533893
192	0xbc21ec52	-0.009883003
193	0x3c672875	0.014108767
194	0xbe72b69c	-0.23702472
195	0x3cb11876	0.02161811
196	0x3b294b7c	0.0025832346
197	0xbd62ffd8	-0.055419773
198	0xbd886bd4	-0.066611916
199	0x3d941c15	0.07231919
200	0xbc987a4a	-0.018613
201	0x3d928f57	0.07156246
202	0xbda932e7	-0.08261662
203	0x3e2b44e0	0.16725492
204	0x3d694a82	0.05695582
205	0x3d8babd9	0.06819887
206	0xbd26d446	-0.040729783
207	0x3daced9c	0.08443758
208	0xbd6b573a	-0.057456233
209	0x3d92d50f	0.07169544
210	0xbdf453fd	-0.11930082
211	0x3db5ae6e	0.088711604
212	0xbd9fda55	-0.078053154
213	0xbd93f7ad	-0.07224975
214	0x3def4eab	0.116849266
215	0x3cbf32f5	0.023339728
216	0x3c091052	0.0083657075
217	0xbe15eb0f	-0.14640449
218	0x3d27c0f9	0.040955517
219	0x3e171b07	0.14756404
220	0x3d69170e	0.056906752
221	0xbd0ef4b1	-0.034901325
222	0xbe17fd12	-0.14842632
223	0xbcbd7bfc	-0.02313041
224	0xbe0dd0b0	-0.13849139
225	0x3e0e504c	0.13897818
226	0x3de83321	0.11337877
227	0x3cf08f02	0.029365066
228	0x3d88b868	0.06675798
229	0xbe2aca12	-0.16678646
230	0x3cb2da6b	0.021832665
231	0xbcde2484	-0.027117021
232	0x3bc26c63	0.005933331
233	0xbe181777	-0.14852701
234	0xbd3fc0d0	-0.04681474
235	0xbe29d126	-0.1658369
236	0x3d3f3046	0.046676897
237	0x3d05e06d	0.032684732
238	0x3dc5f3f8	0.09665674
239	0x3cf78bc0	0.030218005
240	0xbe16ddfa	-0.14733115
241	0x3d9c90fd	0.07644842
242	0xbe3066cd	-0.17226715
243	0x3d387c77	0.045040574
244	0xbd68b64e	-0.056814484
245	0xbd0d8cc4	-0.034558073
246	0x3b884e3e	0.004159718
247	0xbe338916	-0.17532763
248	0x3b31b9aa	0.002711872
249	0x3d478152	0.048707314
250	0x3e007e5c	0.12548202
251	0x3dcf2624	0.101146966
252	0x3d7fe136	0.062470637
253	0x3dc14f31	0.09438933
254	0x3de8449d	0.11341212
255	0xbe0027ba	-0.12515154

model.4.bias f4 [64]
0	0xbe297e64	-0.1655212
1	0xbeb84c92	-0.3599592
2	0xbcfbaddb	-0.03072255
3	0xbd83017e	-0.06396769
4	0xbe2ce2c5	-0.1688338
5	0xbe69938a	-0.22810188
6	0x3cae4cba	0.02127682
7	0xbecc95e8	-0.3995812
8	0xbd228245	-0.039675016
9	0xbd0fd64d	-0.035116483
10	0xbed029be	-0.40656847
11	0xbee0621e	-0.43824857
12	0xbce3996f	-0.027783124
13	0xbec4db9e	-0.38448805
14	0xbc29b623	-0.010358366
15	0xbf05e28b	-0.522988
16	0xbd477338	-0.048693866
17	0x3dfa60e6	0.12225513
18	0xbd74daeb	-0.05977909
19	0xbdbedefc	-0.09319875
20	0x3e0d93a0	0.13825846
21	0xbe88d4ca	-0.26724845
22	0xbeb11cf5	-0.34592405
23	0xbe8858d4	-0.2663027
24	0xbd410112	-0.04712016
25	0xbd87c23f	-0.066288464
26	0xbe8dd7b8	-0.27703643
27	0xbdedab12	-0.11604895
28	0xbe3ca05b	-0.18420546
29	0xbedab27d	-0.427143
30	0xbd7d4381	-0.061831955
31	0xbe1482c7	-0.14503013
32	0xbd096034	-0.033539012
33	0x3e946bdf	0.2898855
34	0x3d8d865d	0.069103934
35	0xbe5bac2d	-0.21452399
36	0x3e1262c3	0.14295487
37	0xbec0a05e	-0.3762235
38	0xbd25a74a	-0.040442742
39	0xbe82107d	-0.25403205
40	0xbe9a465f	-0.30131814
41	0xbe6340ff	-0.22192763
42	0x3d0b6e05	0.03404047
43	0x3d29900e	0.041397147
44	0xbeabd027	-0.33557245
45	0xbeb9dadd	-0.36299792
46	0x3dce5c60	0.10076213
47	0xbec13572	-0.37736088
48	0xbe3d02c7	-0.1845809
49	0xbeb225b8	-0.34794402
50	0xbbf6f22b	-0.007536193
51	0x3da8780f	0.08226024
52	0xbe8b4060	-0.27197552
53	0xbe9e80c2	-0.3095761
54	0xbeb1cd57	-0.34726974
55	0xbea24363	-0.31692037
56	0xbdf429a6	-0.11922006
57	0xbea496da	-0.3214634
58	0x3d545968	0.051843077
59	0xbe8b2247	-0.2717459
60	0x3e15c3d9	0.14625491
61	0xbe89c3b7	-0.2690713
62	0xbe04ec03	-0.12980656
63	0xbeceee18	-0.40416026

model.6.weight f4 [64]
0	0x3f341e25	0.70358497
1	0x3f5794b5	0.84211284
2	0x3f413c84	0.75482965
3	0x3f328388	0.6973195
4	0x3efc29af	0.49250552
5	0x3f36d416	0.7141737
6	0x3f45d25e	0.7727412
7	0x3f2d77f5	0.67761165
8	0x3f01293d	0.5045355
9	0x3f244ffc	0.64184546
10	0x3f7a7e7a	0.9784924
11	0x3f7dee6e	0.9919194
12	0x3f5b9b21	0.8578358
13	0x3f1fc77c	0.62413764
14	0x3f139542	0.57649624
15	0x3f72b984	0.94814324
16	0x3f04e2af	0.5190839
17	0x3f08f05c	0.5349176
18	0x3ed30fc7	0.41222975
19	0x3f0bc34e	0.54594886
20	0x3ed39eae	0.41332
21	0x3f32996f	0.6976537
22	0x3f6e644a	0.9312178
23	0x3f2556a6	0.6458534
24	0x3f2dd482	0.67902386
25	0x3f2ad324	0.66728425
26	0x3f3a6f5b	0.72826165
27	0x3f2ea544	0.68220925
28	0x3f4c0c90	0.7970667
29	0x3f402e2c	0.7507045
30	0x3f37a93c	0.71742606
31	0x3f7c8769	0.9864412
32	0x3f396f0d	0.72435075
33	0x3f05ae20	0.5221882
34	0x3f2d8cce	0.67792976
35	0x3f27a510	0.6548624
36	0x3f031828	0.51208735
37	0x3f4344e0	0.7627697
38	0x3f2f3f5e	0.68456066
39	0x3f62f439	0.88653904
40	0x3f447665	0.76743156
41	0x3f202bf6	0.6256708
42	0x3f2aed96	0.6676878
43	0x3f151887	0.5824055
44	0x3f38c496	0.72174966
45	0x3f62e3bd	0.8862875
46	0x3f10a9d5	0.56509143
47	0x3f638731	0.8887816
48	0x3ef29a46	0.47383326
49	0x3f576d11	0.841508
50	0x3f092e75	0.5358651
51	0x3f0895ca	0.5335356
52	0x3f25e8cf	0.6480836
53	0x3f27d699	0.65561825
54	0x3f35720e	0.7087716
55	0x3f2d6fef	0.6774892
56	0x3f0bd837	0.5462679
57	0x3f4a7250	0.7908068
58	0x3efdb6d6	0.49553555
59	0x3f4474c6	0.7674068
60	0x3f03ddb8	0.5151019
61	0x3f70ac6c	0.94013095
62	0x3f6f63aa	0.9351145
63	0x3f7d763d	0.9900854

model.6.bias f4 [64]
0	0xbf1b69bd	-0.6070822
1	0xbe93def8	-0.2888105
2	0x3f19ee57	0.601293
3	0x3f2815c2	0.656582
4	0xbf30cfa6	-0.69066846
5	0xbf2ded5d	-0.6794031
6	0x3f0ab381	0.5418015
7	0xbe7dfccb	-0.24803464
8	0x3f431af1	0.76212984
9	0x3f23e8f8	0.6402736
10	0xbeca37be	-0.39495653
11	0xbea4ded3	-0.3220125
12	0xbec076b0	-0.3759055
13	0xbf0a148a	-0.5393759
14	0xbb471cc9	-0.0030382148
15	0xbe4519d2	-0.19248131
16	0xbf36a192	-0.71340287
17	0x3f11be2d	0.5693081
18	0xbf41fa98	-0.75773
19	0xbf034ab7	-0.5128588
20	0xbf26cfd7	-0.6516089
21	0xbef04e96	-0.46934956
22	0xbe02fa0f	-0.12790702
23	0x3f0764db	0.5288827
24	0x3ec7e59f	0.39042374
25	0x3ec9b144	0.39393055
26	0xbf1b700d	-0.6071785
27	0xbf19f041	-0.60132223
28	0x3da22839	0.07917828
29	0xbed2e4fd	-0.4119033
30	0x3eea1dc6	0.4572584
31	0x3ee73ac4	0.45162022
32	0x3f1fd75d	0.62437993
33	0x3f2953b3	0.6614334
34	0x3f237a7c	0.6385877
35	0xbf2b509f	-0.66919893
36	0x3f0934ea	0.53596365
37	0xbea0e668	-0.31425786
38	0x3f2b844e	0.66998756
39	0x3de7b2f0	0.113134265
40	0xbf091487	-0.5354695
41	0xbf27d1bc	-0.65554404
42	0xbf051475	-0.5198434
43	0x3f2b331e	0.66874874
44	0xbec1425d	-0.37745944
45	0xbea24953	-0.31696567
46	0x3f01e11d	0.5073412
47	0xbee3ad84	-0.4446832
48	0xbf0dc561	-0.553793
49	0xbed70ea9	-0.42003372
50	0x3f468f07	0.7756199
51	0x3f232d52	0.6374103
52	0xbf33a9dc	-0.7018106
53	0xbf020fcb	-0.5080535
54	0xbeeb82de	-0.4599828
55	0xbe9a5c0f	-0.3014836
56	0x3f192474	0.5982125
57	0xbe9b0373	-0.3027607
58	0x3f38d644	0.72201943
59	0x3d04017f	0.03222799
60	0x3f3a1bb5	0.7269853
61	0xbe03c845	-0.12869366
62	0x3f1b11d3	0.6057407
63	0xbe6bccb5	-0.23027308

model.6.running_mean f4 [64]
0	0x3de44f70	0.11147964
1	0x3cd52375	0.026017884
2	0x3f9175bc	1.1364055
3	0x3ffebec2	1.9901965
4	0x3ec87566	0.39152068
5	0x3cad7cd5	0.021177689
6	0x3f997e7c	1.1991725
7	0x3d794e7b	0.06086586
8	0x3fc8dddf	1.569271
9	0x3fc0fa42	1.5076373
10	0x3a483ac7	0.0007638153
11	0x3ba9fb40	0.005187422
12	0x3e3a2028	0.18176329
13	0x3e5d71c2	0.21625426
14	0x3fb0a94f	1.3801669
15	0x36abd6a7	5.121186e-06
16	0x3fa0e4c2	1.2569811
17	0x4018f614	2.3900194
18	0x3fe36453	1.7764992
19	0x3f07039a	0.5273987
20	0x3f97b44f	1.1851901
21	0x3ebd09cf	0.36921546
22	0x36c26907	5.7938773e-06
23	0x3b55969e	0.0032590996
24	0x3e0b2f5e	0.13592288
25	0x3fe6e03f	1.8037184
26	0x39f83db9	0.00047348233
27	0x3c4a1d31	0.012336061
28	0x3d144fa9	0.036208782
29	0x3e195e14	0.14977294
30	0x3fbbc0af	1.4668177
31	0x3f74327c	0.95389533
32	0x3f93bf56	1.1542766
33	0x402033e3	2.503167
34	0x3fc4cf84	1.5375829
35	0x3d510e42	0.051038988
36	0x3f905fc0	1.127922
37	0x1b2b88e4	1.418902e-22
38	0x3eaf57db	0.34246716
39	0x3ba547f3	0.0050439774
40	0x3d9522e0	0.072820425
41	0x39e7b449	0.00044194076
42	0x3fcf3ce6	1.619046
43	0x3f376c88	0.7164998
44	0x399f25dc	0.0003035505
45	0x398a4f32	0.00026380416
46	0x40084769	2.1293585
47	0x3d6be4c9	0.057591233
48	0x3f5b748f	0.8572473
49	0x3ddeb7e9	0.10874922
50	0x3fe0ed17	1.7572354
51	0x3f6488df	0.8927135
52	0x3cf99fba	0.030471671
53	0x3d235c8b	0.039883178
54	0x39ceb772	0.0003942806
55	0x3c81ee46	0.015860688
56	0x3e588ad0	0.21146703
57	0x3e4c3dd6	0.19945464
58	0x3fe25d5a	1.7684739
59	0x3c0bafc6	0.008525794
60	0x3fd63c8b	1.6737226
61	0x3c4163f1	0.011803613
62	0x3e7a692d	0.24454184
63	0x3c5e6de3	0.013576004

model.6.running_var f4 [64]
0	0x3e97d376	0.2965352
1	0x3d8f696b	0.07002529
2	0x4066f938	3.608961
3	0x40e42d24	7.1305103
4	0x3f6c508d	0.9231041
5	0x3d353c58	0.044247
6	0x405019f6	3.2515845
7	0x3e484d7d	0.1956081
8	0x40abd145	5.3692956
9	0x4025619d	2.5840828
10	0x39c54804	0.00037628424
11	0x3bed8085	0.0072479867
12	0x3ec9cda6	0.3941471
13	0x3e93117e	0.28724283
14	0x4080d0c0	4.025482
15	0x36010f21	1.9231304e-06
16	0x403fb16c	2.995204
17	0x40765c25	3.849374
18	0x40458d47	3.086748
19	0x3fac1933	1.344519
20	0x405ac3ea	3.4182076
21	0x3f446186	0.7671131
22	0x3576f59c	9.199955e-07
23	0x3b54cb9e	0.0032469998
24	0x3f12ccb4	0.573436
25	0x4068ab6c	3.6354628
26	0x39a52c2e	0.0003150417
27	0x3c9e15b5	0.01929746
28	0x3db8e28e	0.09027587
29	0x3e9211af	0.28529117
30	0x4031aa3a	2.7760148
31	0x400930b9	2.1435988
32	0x407219f3	3.7828338
33	0x406a2c2e	3.6589465
34	0x405d2f7b	3.456023
35	0x3da55ab7	0.08073943
36	0x4062f677	3.546293
37	0x19fa5db0	2.5887234e-23
38	0x3f8b2c00	1.0872803
39	0x3c04f5ad	0.008115214
40	0x3e7506b5	0.2392834
41	0x39b550f1	0.00034583316
42	0x40be2b19	5.942761
43	0x3fbf1bd3	1.4930366
44	0x3920a8e6	0.00015321709
45	0x386392aa	5.425761e-05
46	0x407e77b7	3.9760568
47	0x3e16e40d	0.14735432
48	0x4028ec0c	2.6394072
49	0x3ec515f4	0.3849331
50	0x40aa5f31	5.32412
51	0x4008ba57	2.1363733
52	0x3d585e3b	0.05282424
53	0x3dc432e6	0.095800206
54	0x3a13ca57	0.0005637756
55	0x3d1fffde	0.039062373
56	0x3e9c07c5	0.30474678
57	0x3ea3c539	0.31986406
58	0x40715cd0	3.7712898
59	0x3c9845cc	0.01858797
60	0x4081a2eb	4.0511374
61	0x3ccb5a69	0.024823384
62	0x3f10daaf	0.56583685
63	0x3c8fa6fe	0.017535683

model.8.weight f4 [32, 64]
0	0x3cc5ca12	0.024144206
1	0xbcc106ba	-0.023562778
2	0xb9503118	-0.00019854715
3	0xbc1ae451	-0.009453849
4	0x3a9b3109	0.0011840175
5	0xbd871b02	-0.06596948
6	0xbb2c018a	-0.0026246035
7	0xbb8d4cc4	-0.0043121297
8	0x3ba1b7ec	0.0049352553
9	0xb973bd88	-0.00023244892
10	0xbc9f5da7	-0.019453837
11	0xbd254be7	-0.04035559
12	0xbd334132	-0.043763347
13	0x3ada39ce	0.0016649307
14	0x3c1323b8	0.008980684
15	0xbd895c70	-0.06707084
16	0xbbf0b9da	-0.007346374
17	0xbb610c8e	-0.0034339759
18	0x3c805c13	0.015668904
19	0xbcad13e2	-0.021127645
20	0x3b258262	0.0025254716
21	0x3915a9d8	0.00014273019
22	0x3ae594b9	0.0017515636
23	0xb974b7a7	-0.00023338069
24	0xbced1d44	-0.028944619
25	0x39cb9932	0.00038833317
26	0x3b6af1ee	0.0035849768
27	0x3cb8cc01	0.022558214
28	0xbd8f0529	-0.06983406
29	0x3b92a050	0.004474677
30	0xbc0be500	-0.008538485
31	0xbbb4f38d	-0.0055221976
32	0xbabb402f	-0.0014286096
33	0xbb8fddae	-0.00439044
34	0xbc1e43da	-0.009659732
35	0x3c4341ae	0.011917515
36	0x3c4d5ae7	0.01253388
37	0x3c47fb49	0.012205907
38	0x3bb772da	0.005598408
39	0xbd4b54ae	-0.049641304
40	0x3c378431	0.0112009505
41	0xbc5fbea9	-0.013656297
42	0xbbc64d8c	-0.006051725
43	0xbbd766ec	-0.0065735485
44	0xbbb00a84	-0.0053723473
45	0x3c9687b9	0.018375264
46	0x3b7c95b1	0.0038541371
47	0x3cb36431	0.02189836
48	0xbbf13bee	-0.0073618805
49	0xbd704d1c	-0.058667287
50	0xbb46d5ad	-0.0030339763
51	0x3bb786f4	0.0056008045
52	0xbd2fff10	-0.042967856
53	0x3d3f5c34	0.04671879
54	0xbca07ef3	-0.019591784
55	0xbd959966	-0.07304649
56	0x3bbd4fda	0.0057773413
57	0x3aabe36a	0.0013114039
58	0x3b9868ed	0.00465118
59	0xbe09c1da	-0.13452855
60	0xbc10ff3a	-0.008849913
61	0x3ca4c05a	0.020111252
62	0xbb6c71a7	-0.0036078484
63	0x3b824f6f	0.0039767544
64	0x3e069db1	0.13146092
65	0x3d96a3b8	0.073554456
66	0xbe07e44f	-0.13270687
67	0xbdd4be67	-0.10387879
68	0x3e62df3e	0.22155473
69	0x3e771a97	0.24131237
70	0xbe57254d	-0.21010323
71	0xbd34c861	-0.04413641
72	0xbd9090f5	-0.07058898
73	0xbe096c7f	-0.13420294
74	0x3dc84354	0.09778467
75	0x3ddb247f	0.107003205
76	0x3de08db8	0.10964531
77	0x3dc00017	0.09375017
78	0xbd5addef	-0.05343431
79	0x3e2a02cf	0.16602634
80	0xbc779b9e	-0.015112786
81	0xbca6905a	-0.020332504
82	0x3e1ade82	0.15123942
83	0x3c815df4	0.01579187
84	0x3d95a733	0.07307281
85	0x3dbb3ac5	0.09142069
86	0x3c2e5fe8	0.010642983
87	0x3c0c1f41	0.008552373
88	0x3dba666b	0.09101566
89	0xbe164225	-0.1467367
90	0x3e0dbded	0.13841982
91	0xbdab21c1	-0.083560474
92	0x3dd262fd	0.10272787
93	0x3d357940	0.044305086
94	0xbdced3ed	-0.100990154
95	0xbd6de0f5	-0.058075864
96	0xbe1e2f79	-0.15447797
97	0xbe0af66f	-0.1357057
98	0xbd950208	-0.07275778
99	0x3d84f6e5	0.06492404
100	0xbd83fc1b	-0.0644457
101	0x3e199a78	0.15000331
102	0xbdae75cf	-0.08518564
103	0xbbdd2801	-0.0067491536
104	0x3dabdbe9	0.08391554
105	0x3d9480f8	0.07251161
106	0x3dc17bb9	0.09447426
107	0xbdcb4bbc	-0.099265546
108	0x39032c2b	0.00012509587
109	0xbbaf5f6b	-0.005351951
110	0xbe1d295a	-0.15347806
111	0xbe08e8ff	-0.13370131
112	0x3cb6a743	0.022296553
113	0x3cc3481a	0.023838092
114	0xbd51b2e4	-0.051195994
115	0xbccb85c8	-0.024844065
116	0x3c3f03f4	0.011658657
117	0x3e1b3ee4	0.1516071
118	0x3dd06024	0.10174587
119	0x3d6833a8	0.05668989
120	0xbd34db66	-0.044154547
121	0x3d4c8a8e	0.049936824
122	0xbe678edd	-0.22613092
123	0x3ca9844a	0.020692963
124	0xbe308419	-0.17237891
125	0x3d199dc7	0.037503984
126	0xbe237bcf	-0.15965198
127	0x3dbcb0df	0.09213423
128	0xbd82a418	-0.06378955
129	0xbce9ceaf	-0.028540937
130	0x3b409e2f	0.002939116
131	0xbb4b17e4	-0.0030989582
132	0xbae0f258	-0.0017162068
133	0xbd1765b4	-0.036962226
134	0xbb74d6f6	-0.0037359572
135	0x3d1550db	0.036454063
136	0x3bcc5952	0.0062362337
137	0x3c16a804	0.0091953315
138	0xbc3b4ac4	-0.0114314
139	0xbd62d779	-0.055381272
140	0xbcaf135e	-0.02137154
141	0x3b711809	0.0036788008
142	0x3b9ae5eb	0.0047271154
143	0xbd898027	-0.06713896
144	0xbbec657d	-0.007214247
145	0x3b6868c0	0.0035462826
146	0x3b90f049	0.0044231755
147	0xba9ba784	-0.0011875485
148	0xbc30776b	-0.010770659
149	0xb98f9786	-0.0002738798
150	0xbc51058a	-0.012757668
151	0x3c1b996e	0.00949703
152	0x3d111370	0.035418928
153	0x3ba57d15	0.0050503113
154	0x3b506f8c	0.0031804768
155	0x3da4312f	0.080171935
156	0xbdc4d61e	-0.09611152
157	0x3b3dc74a	0.0028957897
158	0xbbe7d69c	-0.007075144
159	0xbb6fbd74	-0.0036581429
160	0xb9032f5e	-0.00012510779
161	0xbba27e65	-0.004958915
162	0xbb580429	-0.0032961464
163	0xbc8497b3	-0.016185617
164	0x3c0c86f2	0.008577095
165	0xb9fa0b8c	-0.0004769232
166	0x3c11dee2	0.008903237
167	0xbce63250	-0.028100163
168	0x3c6359de	0.0138764065
169	0xbc795022	-0.015216859
170	0xbc580a13	-0.013185996
171	0xbbde4b2a	-0.0067838626
172	0xbbf88c25	-0.007585066
173	0xbb688cde	-0.0035484354
174	0x3b83a9f2	0.004018062
175	0x3d2bc2c0	0.041933775
176	0xbc09cfd0	-0.008411363
177	0xbd995459	-0.07486791
178	0xbb53e3f9	-0.0032331927
179	0xbbc11dd1	-0.005893447
180	0xbc004352	-0.00782855
181	0x3c6cf68b	0.014463077
182	0x3b2187a7	0.0024647505
183	0xbd6c8308	-0.05774215
184	0x3c051f40	0.008125126
185	0xbb629b8d	-0.0034577579
186	0x3b7f334b	0.0038940485
187	0xbe03a5a9	-0.12856163
188	0xbb1e0626	-0.0024112551
189	0xbbd94b13	-0.006631264
190	0x3a86d2ac	0.0010286174
191	0xbadd837d	-0.0016900148
192	0xbce297cc	-0.027660273
193	0x3c4f56d0	0.012654975
194	0x3aac3058	0.0013136966
195	0x3c07ec4d	0.008296085
196	0xbb72da90	-0.0037056543
197	0xbd1e98a2	-0.03871978
198	0xba765a86	-0.00093976443
199	0xbd4afea0	-0.049559236
200	0x3b411858	0.0029463973
201	0x3bb8c30b	0.0056384853
202	0x3bb63e5e	0.005561634
203	0xbd3caa36	-0.046060763
204	0x3b02a646	0.0019935532
205	0x3be226d2	0.0069016004
206	0xbc286391	-0.010277645
207	0xbd7f5d16	-0.062344633
208	0x3bb25e57	0.005443375
209	0x3bce0db5	0.006288255
210	0x38bd4422	9.024913e-05
211	0xbd1eb923	-0.03875078
212	0xba76c8bb	-0.00094140664
213	0x3b8825fe	0.0041549196
214	0x3bb47839	0.0055074957
215	0x3a5f14da	0.0008509882
216	0x3c76a7b7	0.015054635
217	0x3ad1152d	0.0015951745
218	0xbcd99c31	-0.026563736
219	0xbd98c447	-0.07459312
220	0xbdd613b5	-0.104529776
221	0x3c28bd1c	0.010298993
222	0x3ba1717a	0.0049268575
223	0x38875d34	6.454662e-05
224	0x3a75fbc1	0.00093835226
225	0x3bb0381d	0.005377783
226	0x3be75ba6	0.007060486
227	0xbc0bb621	-0.00852731
228	0x3b19788e	0.0023417803
229	0xbc78b4b5	-0.015179803
230	0xba57b80f	-0.0008229026
231	0xbdcfe763	-0.101515554
232	0x3d403a17	0.0469304
233	0xbbfcc987	-0.0077144536
234	0x3b2623cb	0.0025350924
235	0xbab670ef	-0.0013919155
236	0xbc963f91	-0.018340858
237	0xbcab95ab	-0.02094539
238	0xbbcd8488	-0.0062719025
239	0x3c70d767	0.014699793
240	0x3b9f66f3	0.0048645674
241	0x3d6277f7	0.05529019
242	0xbbbf411c	-0.005836619
243	0x3af46367	0.0018645347
244	0x3c86522e	0.016396608
245	0xbcea20df	-0.028580127
246	0xbc2379d9	-0.009977781
247	0x3cb3f28d	0.021966243
248	0x3771821c	1.4395013e-05
249	0x3ac41702	0.001496047
250	0xbac83090	-0.0015273262
251	0xbe06bb84	-0.13157469
252	0x3c39215b	0.0112994565
253	0xbcb6c5ba	-0.02231108
254	0x3b43c722	0.002987333
255	0x3a91f023	0.0011134188

model.8.bias f4 [32]
0	0x3fd1d282	1.6392367
1	0xbe80ff98	-0.25195003
2	0x3fc7ce3d	1.5609814
3	0x3fd31d08	1.6493235
4	0xbe84a32c	-0.2590574
5	0xbea6249d	-0.3244981
6	0xbe8d336b	-0.2757829
7	0x3fcfcec3	1.6234974
8	0xbec66d08	-0.3875506
9	0x3fd7452b	1.6817983
10	0xbee4d67d	-0.44694892
11	0xbea52dd8	-0.32261539
12	0x3fc7a2e7	1.5596589
13	0xbea2cf8e	-0.31798977
14	0x3fd4a5e4	1.6613126
15	0x3fcead3c	1.6146617
16	0xbe78b121	-0.2428632
17	0x3fca9d9f	1.5829352
18	0xbe3b0cb7	-0.18266569
19	0x3fd16d36	1.6361454
20	0xbe6e8104	-0.23291403
21	0xbed79647	-0.4210684
22	0xbe76be65	-0.24096067
23	0xbddc3ef1	-0.107541926
24	0x3fce47e0	1.6115685
25	0xbed63ff0	-0.41845655
26	0xbeb54eab	-0.3541158
27	0x3fd2cd88	1.6468973
28	0xbed8ec50	-0.42367792
29	0x3fd66e1b	1.6752352
30	0xbe4b6e2e	-0.19866249
31	0x3fdd501b	1.7290071

model.10.weight f4 [32]
0	0x404ec02a	3.2304788
1	0x404b4de7	3.1766298
2	0x404b7793	3.1791732
3	0x40501234	3.251111
4	0x4043290f	3.049381
5	0x404b8b8b	3.180392
6	0x405352cb	3.3019283
7	0x404d98c6	3.2124496
8	0x404e2a9a	3.2213502
9	0x404f1569	3.2356818
10	0x404a89f7	3.1646707
11	0x4051b49e	3.276649
12	0x404b0a78	3.172514
13	0x404e5363	3.2238395
14	0x404e2fbb	3.2216632
15	0x404d8461	3.2112048
16	0x40528a2f	3.289684
17	0x404bf512	3.186833
18	0x404e6656	3.224996
19	0x404f13d9	3.2355864
20	0x40547d74	3.320157
21	0x40492c4b	3.1433284
22	0x404d6b9e	3.2096934
23	0x404a06f6	3.1566749
24	0x404d8774	3.2113924
25	0x404930a2	3.1435933
26	0x404f38ff	3.2378538
27	0x404b1816	3.173345
28	0x40547920	3.319893
29	0x40528d6a	3.2898812
30	0x40444b53	3.0670974
31	0x4050b434	3.2609987

model.10.bias f4 [32]
0	0xbef63a70	-0.4809146
1	0x3edaa690	0.42705202
2	0xbee477fa	-0.44622785
3	0xbf07b801	-0.5301514
4	0x3ef996bb	0.4874781
5	0x3ee80d09	0.45322445
6	0x3ef80118	0.48438334
7	0xbee86c52	-0.45395142
8	0x3ef6b4ac	0.48184717
9	0xbef213e1	-0.4728079
10	0x3ed711db	0.4200581
11	0x3efeef02	0.49791723
12	0xbee21342	-0.44155318
13	0x3ee99823	0.45623884
14	0xbeecb5be	-0.46232408
15	0xbeeebb4a	-0.46627265
16	0x3efa5b0d	0.4889759
17	0xbef13487	-0.47110388
18	0x3eecaf35	0.46227422
19	0xbefa53e1	-0.4889212
20	0x3f017e55	0.5058339
21	0x3ee1a481	0.4407082
22	0x3edb2490	0.42801332
23	0x3edf05dc	0.43559158
24	0xbef399c4	-0.4757825
25	0x3ef9fc5c	0.48825347
26	0x3eedfdea	0.46482784
27	0xbef838c0	-0.48480797
28	0x3ef80661	0.48442367
29	0xbf0edc8d	-0.55805284
30	0x3ed00ab2	0.4063316
31	0xbf0e06ab	-0.55478925

model.10.running_mean f4 [32]
0	0x3fdaacda	1.7084
1	0x3cb8cfba	0.02255999
2	0x3fd98de6	1.6996429
3	0x3fe47604	1.7848516
4	0x3cacdd2e	0.02110156
5	0x3b2ee525	0.0026686874
6	0x3c534383	0.012894514
7	0x3fd6136f	1.6724681
8	0x3d0462c7	0.032320764
9	0x3fdcd23e	1.7251661
10	0x3be3c548	0.006951008
11	0x3c9882f9	0.01861714
12	0x3fdfa00e	1.747072
13	0x3cb11c82	0.021620039
14	0x3fe205da	1.7658036
15	0x3fd69100	1.6763
16	0x3caab42e	0.02083787
17	0x3fc8d1ef	1.5689067
18	0x3d0beb14	0.034159735
19	0x3fe47347	1.784768
20	0x3c6f91a9	0.01462213
21	0x3d3626a2	0.044470437
22	0x3cbe5274	0.023232676
23	0x3dbf6085	0.093445815
24	0x3fdb12eb	1.7115148
25	0x3d71d600	0.059041977
26	0x3cc4998a	0.023998994
27	0x3fda116f	1.703657
28	0x3c2628a1	0.010141523
29	0x3fdbbe32	1.7167418
30	0x3dbb425d	0.09143517
31	0x3fe45c65	1.7840697

model.10.running_var f4 [32]
0	0x3d159bb1	0.036525432
1	0x3d85cd0b	0.065332495
2	0x3d07e406	0.033176444
3	0x3cf334db	0.02968829
4	0x3d650c40	0.055919886
5	0x3b556068	0.0032558683
6	0x3d4b7553	0.049672436
7	0x3ce9f6bf	0.02856004
8	0x3e0445a4	0.12917191
9	0x3d0b9e6c	0.03408663
10	0x3c8d32dd	0.017236168
11	0x3d8fb884	0.070176154
12	0x3cf5a75a	0.029987026
13	0x3dbeb53e	0.09311913
14	0x3d1146ba	0.03546784
15	0x3d095090	0.033524096
16	0x3da85c1b	0.08220693
17	0x3cc78c67	0.024358941
18	0x3e003472	0.12520006
19	0x3ce84af5	0.028356055
20	0x3d7e2807	0.06204989
21	0x3e5eccf9	0.21757878
22	0x3dc1d2c2	0.09464027
23	0x3ef4dc67	0.47824404
24	0x3ce7e236	0.028306108
25	0x3e8ea7f6	0.2786252
26	0x3dd48085	0.10376076
27	0x3d199ddf	0.037504073
28	0x3d0d671d	0.034522165
29	0x3cddc71a	0.027072478
30	0x3efd5811	0.49481252
31	0x3d0da384	0.03457977
