backend/data/models/neural_v1.pt (torch, 189486 bytes, 48 tensors)

model.0.weight f4 [128, 17]
-0.18714163 0.052590437 0.11294818 -0.07793838 0.13236636 0.07944063 0.10627543 -0.04941245
0.08409389 -0.20597182 0.012844533 0.1375751 0.03604407 -0.035624947 0.03272133 0.040590405
-0.006854827 -0.14970244 0.016017225 0.10506189 0.014054333 0.052354608 -0.00034232295 0.20611966
0.1481705 -0.045971394 0.14580572 -0.12555638 -0.12833439 -0.033254616 0.0788256 0.014350166
-0.19419263 0.10900679 -0.124961324 -0.07109099 -0.023156675 0.0006402248 -0.08435754 0.042433325
-0.03141246 -0.03314203 0.050609097 -0.08247728 -0.015806444 0.021719059 0.04278036 0.107267596
-0.04544745 -0.17058255 0.01843689 -0.0025209566 -0.1069617 0.047964368 -0.047683593 0.03351696
0.04910816 0.017266672 -0.12332899 0.046888027 -0.02066213 -0.0042203004 -0.085592106 -0.027036333
0.071884446 -0.050397847 -0.13698801 0.054750692 -0.18605779 0.09542175 0.0331935 -0.03285494
0.20885488 -0.15614331 -0.2851253 -0.13563651 -0.123299636 0.16558906 -0.103328384 0.13250133
-0.014977416 0.11267841 0.0790657 0.20200764 0.19975802 0.26098204 0.10423865 -0.124396674
-0.018237324 0.033430096 0.07334493 -0.16409706 -0.09949887 -0.15500937 -0.10865896 0.10099737
0.014211008 -0.022266755 0.075402826 -0.034802414 0.14691266 -0.20289648 -0.11982095 -0.07990729
0.021500014 0.07630962 -0.05909286 -0.1568318 0.006558784 0.10095566 -0.1050808 -0.0070113298
0.060357656 -0.0041922727 -0.002196467 0.17560048 0.0042528557 0.063882455 -0.031039266 0.018709566
0.04463034 0.24795325 -0.12728444 0.04443139 -0.11382601 0.13241355 -0.05391275 -0.06995396
0.04945525 0.20146903 0.057264384 -0.049353827 0.19251907 -0.045094278 0.14568181 -0.03709589
0.036866777 0.040012795 0.13404365 -0.07174648 -0.029171582 -0.100133635 0.16145514 0.15237208
-0.17170675 0.104828484 0.046716787 -0.12425486 -0.1155481 -0.001691048 -0.054840755 0.08855558
0.047441803 -0.06746745 0.123573996 0.026652232 0.06814857 -0.03579142 -0.15602447 -0.207447
0.07340459 -0.011507779 -0.0037594375 0.00445489 0.09981707 -0.0045315386 0.07377812 0.029854476
-0.12583287 -0.22173986 -0.17309831 -0.0042251577 -0.096515805 0.022530707 0.058851734 0.0013198198
0.02899743 -0.059504997 -0.11860915 -0.037051234 -0.006474475 -0.120361984 -0.08297853 0.18756285
-0.07239954 -0.03652649 0.019282082 0.015406355 -0.079183236 -0.006855176 -0.1360032 0.12873341
-0.11408462 -0.1975711 0.12971431 -0.045572154 -0.15568396 -0.081235565 -0.09566854 -0.021700365
0.009803767 0.00039576288 0.058856286 0.18895684 0.19639933 0.10720749 -0.052275658 0.061845317
0.24055235 -0.006483597 -0.26488066 0.050976112 -0.112461776 0.13318294 -0.029955467 -0.16724178
0.033446323 0.13708045 -0.0108197965 0.15835074 0.13281555 0.15254539 0.22571193 0.016809052
0.07907616 0.14076805 -0.13397026 -0.02103877 0.10626473 0.0855196 0.16968168 -0.029941043
-0.04680407 -0.0022804914 0.017426686 -0.016672859 0.048179965 0.062149886 -0.0143084545 0.14436021
0.1381943 0.025969205 -0.2558076 0.060801324 0.20281887 0.066906914 -0.015287256 0.0023024378
-0.05067554 -0.10876571 0.007435823 0.11492424 0.010482904 0.104020596 0.061078697 -0.068567924
00000000: 0ea2 3fbe 1269 573d 6051 e73d 289e 9fbd
00000010: 0c8b 073e c5b1 a23d efa6 d93d b664 4abd
00000020: 6b39 ac3d 47ea 52be e071 523c 7de0 0c3e
00000030: f2a2 133d 77eb 11bd cd06 063d 2042 263d
00000040: 759e e0bb 994b 19be 8e36 833c b02a d73d
00000050: 2544 663c c971 563d cf79 b3b9 0811 533e
00000060: 02ba 173e 804c 3cbd 184e 153e da91 00be
00000070: 176a 03be fe35 08bd 516f a13d f51c 6b3c
00000080: 6fda 46be f43e df3d b9eb ffbd 2798 91bd
00000090: 11b3 bdbc c2d4 273a a5c3 acbd 91ce 2d3d
000000a0: 5aaa 00bd f0bf 07bd 7c4b 4f3d d9e9 a8bd
000000b0: 847c 81bc 2bec b13c 753a 2f3d 1daf db3d
000000c0: 1b27 3abd 31ad 2ebe f608 973c a236 25bb
000000d0: bc0e dbbd 4976 443d df4f 43bd 1449 093d
000000e0: a325 493d d672 8d3c e993 fcbd a90d 403d
000000f0: a143 a9bc 724a 8abb ea4a afbd 4d7b ddbc
00000100: 2738 933d f96d 4ebd 9646 0cbe 4342 603d
00000110: ef85 3ebe 7a6c c33d e8f5 073d e792 06bd
00000120: 0ede 553e 08e4 1fbe f1fb 91be 4ce4 0abe
00000130: 8584 fcbd 2e90 293e d59d d3bd 6eae 073e
00000140: d663 75bc f0c3 e63d 33ed a13d 17db 4e3e
00000150: 5e8d 4c3e 709f 853e 137b d53d afc3 febd
00000160: 7166 95bc ffed 083d de35 963d 0f09 28be
00000170: 10c6 cbbd c7ba 1ebe 9788 debd b6d7 ce3d
00000180: 4ad5 683c c568 b6bc cc6c 9a3d fa8c 0ebd
00000190: 4670 163e 18c4 4fbe b064 f5bd 6fa6 a3bd
000001a0: cc20 b03c 3848 9c3d 5b0b 72bd 8498 20be
000001b0: 11eb d63b d7c1 ce3d 9a34 d7bd 4cbf e5bb
000001c0: 9739 773d 555f 89bb 9af2 0fbb 9dd0 333e
000001d0: 8a5b 8b3b ced4 823d 0f46 febc ce44 993c
000001e0: 4ece 363d 75e7 7d3e da56 02be b0fd 353d
000001f0: 9c1d e9bd 6b97 073e 9ed3 5cbd 0644 8fbd
00000200: 9791 4a3d e64d 4e3e 0f8e 6a3d 3d27 4abd
00000210: b823 453e c7b4 38bd 9d2d 153e dcf1 17bd
00000220: 9e01 173d 75e4 233d bd42 093e d2ef 92bd
00000230: 3ef9 eebc dd12 cdbd 7f54 253e 6d07 1c3e
00000240: e5d3 2fbe 51b0 d63d 1a5a 3f3d 5579 febd
00000250: 7ba4 ecbd 28a6 ddba b3a0 60bd a15c b53d
00000260: 5652 423d 602c 8abd 5d14 fd3d c855 da3c
00000270: 7a91 8b3d 069a 12bd e1c4 1fbe fd6c 54be
00000280: 2555 963d 208b 3cbc e560 76bb 53fa 913b
00000290: e46c cc3d 4d7d 94bb fc18 973d 6091 f43c
000002a0: 55da 00be c60f 63be af40 31be 3173 8abb
000002b0: 14aa c5bd 5192 b83c 840e 713d cefd ac3a
000002c0: 058c ed3c 83bb 73bd 5be9 f2bd 09c3 17bd
000002d0: d527 d4bb 5880 f6bd a6f0 a9bd 7a10 403e
000002e0: 3646 94bd cd9c 15bd 75f5 9d3c f06a 7c3c
000002f0: d22a a2bd 62a1 e0bb 6c44 0bbe b1d2 033e
00000300: 32a5 e9bd 1450 4abe d4d3 043e dea9 3abd
00000310: 9e6b 1fbe d55e a6bd deed c3bd f7c4 b1bc
00000320: fb9f 203c 657e cf39 4a13 713d e77d 413e
00000330: e81c 493e 9a8f db3d 001f 56bd 8451 7d3d
00000340: 5b53 763e 5b74 d4bb 709e 87be 54cc 503d
00000350: 5c52 e6bd 1c61 083e 2b65 f5bc 6e41 2bbe
00000360: 03ff 083d d15e 0c3e 8445 31bc b226 223e
00000370: cd00 083e dc34 1c3e 0721 673e 23b3 893c
00000380: aff2 a13d 8025 103e 802f 09be 8059 acbc
00000390: 53a1 d93d e624 af3d 09c1 2d3e eb46 f5bc
000003a0: a0b5 3fbd 4c74 15bb 69c2 8e3c 8595 88bc
000003b0: 5b58 453d e190 7e3d 026e 6abc 2ad3 133e
000003c0: ce82 0d3e 5fbd d43c 37f9 82be cf0a 793d
000003d0: c0af 4f3e 7e06 893d 6677 7abc 7fe4 163b
000003e0: 2891 4fbd 8ec0 debd 34a8 f33b 665d eb3d
000003f0: 7cc0 2b3c c008 d53d a82d 7a3d 576d 8cbd

model.0.bias f4 [128]
-0.2286483 -0.14763485 0.0032591491 -0.02398369 -0.0684102 0.09631197 0.10344368 -0.32348981
0.1044451 -0.29406828 0.05265382 -0.22540554 -0.09344599 -0.3400685 -0.00612225 0.048144184
-0.2684536 -0.25891373 -0.4067924 -0.33282322 -0.257775 -0.36498636 0.0042086453 -0.12860048
0.112700105 -0.06610448 -0.02018928 -0.20567456 -0.09016472 -0.09930451 -0.26510087 0.12881082
-0.2973512 0.2252329 -0.03928043 -0.050919943 0.23176439 0.08410684 -0.057448354 -0.35024607
-0.29727846 -0.09101056 0.16827245 -0.116732165 -0.050680876 -0.035554536 0.15207721 -0.004588933
0.18194869 -0.06906225 0.15184116 0.07765594 0.19847594 -0.24516304 -0.40898553 -0.04559641
-0.15002148 0.024663292 -0.16584468 -0.15281256 -0.07197204 -0.32543772 -0.12321751 -0.46744484
-0.12712172 -0.26994923 -0.21409409 0.23262343 0.24505666 0.022385174 0.15964936 -0.4221476
-0.42240578 -0.005102739 -0.009681721 -0.18691972 0.20156504 0.016477223 0.03638898 0.11229888
0.10652859 -0.28713453 -0.40669942 0.06647418 -0.17837524 0.1755076 0.12340431 0.062437132
0.17938551 -0.26566797 0.02838262 0.14461839 -0.18042046 -0.11309907 -0.17799746 0.07899019
-0.038466487 -0.16172473 -0.31097266 -0.06581575 -0.28576878 0.06475841 -0.43123275 0.028569136
0.22146462 0.14674418 -0.22572033 -0.10144073 0.12046615 0.12220706 -0.0745828 0.0022031397
-0.13920216 -0.13628456 0.052257895 -0.103885576 0.19053347 -0.051416866 -0.12193139 -0.1648049
0.1489528 -0.48949707 -0.2307727 0.06736265 -0.21309277 -0.21497507 0.117823794 0.047052056
00000000: c822 6abe 972d 17be 7397 553b 7279 c4bc
00000010: a61a 8cbd 363f c53d 48da d33d 75a0 a5be
00000020: 50e7 d53d 1e90 96be 88ab 573d b6d0 66be
00000030: 9c60 bfbd 751d aebe 289d c8bb d632 453d
00000040: c072 89be 5790 84be 1847 d0be ce67 aabe
00000050: 16fb 83be 7edf babe ade8 893b d8af 03be
00000060: 50cf e63d c961 87bd fd63 a5bc 5a9c 52be
00000070: 48a8 b8bd 2a60 cbbd 4dbb 87be fce6 033e
00000080: 6b3e 98be 74a3 663e 84e4 20bd 6e91 50bd
00000090: a553 6d3e 3540 ac3d f74e 6bbd 7453 b3be
000000a0: e234 98be bf63 babd 9d4f 2c3e 4611 efbd
000000b0: c096 4fbd a2a1 11bd 21ba 1b3e c35e 96bb
000000c0: c250 3a3e 8270 8dbd 407c 1b3e 140a 9f3d
000000d0: 473d 4b3e 050c 7bbe 8d66 d1be 4dc3 3abd
000000e0: 3b9f 19be ac0a ca3c 30d3 29be e57a 1cbe
000000f0: 1466 93bd c69f a6be 7659 fcbd ee54 efbe
00000100: 322c 02be c936 8abe 7b3b 5bbe d634 6e3e
00000110: 22f0 7a3e 1d61 b73c 1f7b 233e bb23 d8be
00000120: 9245 d8be e134 a7bb 15a0 1ebc e267 3fbe
00000130: 1167 4e3e 3efb 863c 9c0c 153d f5fc e53d
00000140: a92b da3d 4c03 93be e83a d0be 9d23 883d
00000150: 00a8 36be 44b8 333e 66bb fc3d 14be 7f3d
00000160: d6b0 373e a205 88be ab82 e83c d816 143e
00000170: 24c0 38be 7ca0 e7bd f744 36be 9cc5 a13d
00000180: 098f 1dbd 2b9b 25be cf37 9fbe 68ca 86bd
00000190: 4950 92be 0fa0 843d 8aca dcbe d209 ea3c
000001a0: 9fc7 623e 1b44 163e 3b23 67be 28c0 cfbd
000001b0: f5b6 f63d b247 fa3d debe 98bd 8d62 103b
000001c0: 038b 0ebe 2e8e 0bbe 600c 563d f6c1 d4bd
000001d0: 351b 433e 7e9a 52bd 2ab7 f9bd 9ec2 28be
000001e0: 1587 183e 5c9f fabe ae4f 6cbe 6ef5 893d
000001f0: fe34 5abe 6d22 5cbe 9a4d f13d a8b9 403d

model.2.weight f4 [128]
0.4623434 0.45288655 0.36405173 0.4073146 0.5081597 0.5073156 0.38950962 0.6061523
0.42244723 0.50668913 0.41906428 0.41473788 0.41869128 0.45665738 0.3941058 0.42529544
0.44976193 0.45680293 0.5438713 0.51419824 0.48005986 0.6394824 0.38097063 0.40816423
0.39094752 0.43178132 0.36167026 0.40141335 0.49808398 0.37263232 0.44586295 0.3811656
0.5917843 0.4174244 0.49062854 0.36024982 0.4133102 0.6202689 0.48737812 0.48098612
0.47799876 0.38863018 0.44075185 0.4053528 0.3950413 0.35009465 0.4398397 0.41834185
0.43836954 0.49592283 0.38041666 0.4045923 0.4556083 0.42310148 0.49384484 0.37933156
0.389759 0.45488426 0.47470173 0.43529376 0.3765599 0.5123751 0.5072314 0.7063884
0.42181322 0.54331017 0.48868358 0.43980068 0.39107904 0.422295 0.4498623 0.57983994
0.65418196 0.43448308 0.41977212 0.5222676 0.4262273 0.42762634 0.4398105 0.41551873
0.41790658 0.5032405 0.6387394 0.41160333 0.461565 0.38027558 0.41241968 0.3978118
0.45402992 0.50012535 0.3391368 0.37386215 0.46150157 0.35625398 0.5019014 0.4074589
0.41592255 0.43102488 0.46663755 0.41291445 0.45698524 0.42648873 0.5970533 0.43904033
0.39027599 0.40014458 0.41658694 0.43353176 0.50970703 0.3995305 0.48022363 0.42699265
0.3776837 0.5226166 0.47338885 0.44283953 0.42079842 0.46327204 0.44187245 0.3889115
0.39284068 0.60908866 0.46482912 0.43894517 0.51430917 0.43374115 0.3720566 0.36533406
00000000: 46b8 ec3e bfe0 e73e fd64 ba3e 8a8b d03e
00000010: c116 023f 6fdf 013f ce6d c73e cc2c 1b3f
00000020: 014b d83e 61b6 013f 988f d63e 8658 d43e
00000030: b45e d63e ffce e93e 3cc8 c93e 53c0 d93e
00000040: 3247 e63e 13e2 e93e 263b 0b3f 7fa2 033f
00000050: 68ca f53e 1eb5 233f 950e c33e e7fa d03e
00000060: 462a c83e 7112 dd3e d82c b93e 0d86 cd3e
00000070: dd04 ff3e aac9 be3e 2648 e43e 2328 c33e
00000080: 2d7f 173f a7b8 d53e aa33 fb3e aa72 b83e
00000090: 659d d33e f1c9 1e3f a089 f93e d043 f63e
000000a0: 41bc f43e 89fa c63e 3aaa e13e 678a cf3e
000000b0: da42 ca3e 9b3f b33e ab32 e13e e730 d63e
000000c0: f971 e03e 99e9 fd3e f9c5 c23e b926 cf3e
000000d0: 7e45 e93e c2a0 d83e 3bd9 fc3e bf37 c23e
000000e0: 7e8e c73e 97e6 e83e 1b0c f33e d3de de3e
000000f0: 76cc c03e 042b 033f ebd9 013f dfd5 343f
00000100: e7f7 d73e 6016 0b3f bc34 fa3e 8e2d e13e
00000110: 833b c83e 0d37 d83e 5a54 e63e 6470 143f
00000120: 7878 273f 9174 de3e 5fec d63e 54b3 053f
00000130: 773a da3e d7f1 da3e d82e e13e dfbe d43e
00000140: daf7 d53e 5fd4 003f 6d84 233f acbd d23e
00000150: 3f52 ec3e 7bb3 c23e ac28 d33e fdad cb3e
00000160: 9c76 e83e 3708 003f 57a3 ad3e dc6a bf3e
00000170: ef49 ec3e ec66 b63e 9c7c 003f 749e d03e
00000180: cdf3 d43e 4baf dc3e 1eeb ee3e 8669 d33e
00000190: f8f9 e93e bb5c da3e 7cd8 183f e5c9 e03e
000001a0: 41d2 c73e c0df cc3e e24a d53e e0f7 dd3e
000001b0: 297c 023f 438f cc3e dfdf f53e c89e da3e
000001c0: c25f c13e 34ca 053f 0660 f23e ddbb e23e
000001d0: e472 d73e fe31 ed3e 1b3d e23e 681f c73e
000001e0: 6a22 c93e 3ced 1b3f 15fe ed3e 6cbd e03e
000001f0: c4a9 033f 5213 de3e 347e be3e 110d bb3e

model.2.bias f4 [128]
-0.06768973 0.0033831028 0.10116882 0.02267819 0.008647942 0.10836231 -0.038145464 0.031206433
0.038111143 0.01623588 0.10049154 0.06176204 -0.13409735 -0.08964717 -0.014331782 0.036110207
-0.019073745 0.0042637433 -0.008477714 -0.06571977 -0.17784786 0.019242655 -0.15237044 -0.005484574
0.16902946 -0.06021211 0.054022398 -0.030365698 -0.097438484 -0.1015259 0.013742284 -0.050432347
-0.10496486 -0.00054820714 0.082576856 0.065463014 -0.07827657 0.30317864 -0.021603376 -0.066714525
0.00066588214 -0.0020897633 -0.08437122 0.047413826 0.06424254 0.0891689 0.025633926 -0.004369516
-0.0015212911 0.062372293 0.09595414 -0.12219651 0.13999724 0.05870031 -0.09520104 0.006414429
0.087731846 0.08185197 0.0044883667 -0.10768975 -0.13427417 -0.06755567 0.029673219 -0.03258854
-0.044261247 0.0267464 0.05475201 0.026377812 0.11232344 0.0057420824 0.13786045 -0.01951332
0.03778269 0.11206862 -0.11300661 -0.009333814 -0.028325515 -0.14594033 -0.0046159155 0.13106135
0.13750935 0.028936919 0.0062595373 0.09889529 0.0492604 0.064734034 -0.07395619 0.08256227
0.027742522 0.06165081 -0.05067227 0.13629292 -0.03942046 0.03287978 -0.012555925 0.079769365
0.14975798 0.047951017 -0.024885107 0.07314094 -0.18323836 -0.061063584 0.03991245 0.13179171
0.035835262 0.07697286 -0.056134213 -0.14657049 0.18818037 0.0701224 -0.11181219 -0.11069005
0.013894496 0.10973633 0.030383691 0.07492452 0.082947075 0.059095148 0.0014785728 -0.018560508
0.049959548 -0.0027666704 0.05992331 -0.23139614 -0.19149514 0.041318707 0.08804488 0.05439952
00000000: eaa0 8abd 0cb7 5d3b 9931 cf3d 9dc7 b93c
00000010: 19b0 0d3c 0fed dd3d 6b3e 1cbd a2a4 ff3c
00000020: 6e1a 1c3d 1c01 853c 82ce cd3d 31fa 7c3d
00000030: d150 09be ef98 b7bd dacf 6abc 4ce8 133d
00000040: 8b40 9cbc dfb6 8b3b 1ce6 0abc 1698 86bd
00000050: c01d 36be c6a2 9d3c ff06 1cbe f1b7 b3bb
00000060: 0f16 2d3e f9a0 76bd 9746 5d3d 7cc1 f8bc
00000070: d48d c7bd d0ec cfbd 5127 613c 2692 4ebd
00000080: d1f7 d6bd 8fb5 0fba 0e1e a93d 7911 863d
00000090: 774f a0bd 3b3a 9b3e 90f9 b0bc a0a1 88bd
000000a0: 988e 2e3a 69f4 08bb d1ca acbd 0035 423d
000000b0: 9891 833d 2f9e b63d 3dfe d13c 282e 8fbb
000000c0: 0f66 c7ba 177a 7f3d 9b83 c43d 2a42 fabd
000000d0: 705b 0f3e bc6f 703d c3f8 c2bd 2130 d23b
000000e0: c1ac b33d 01a2 a73d 2613 933b 728c dcbd
000000f0: 2b7f 09be a15a 8abd 4015 f33c 907b 05bd
00000100: 484b 35bd 441b db3c a543 603d 4816 d83c
00000110: d509 e63d 1428 bc3b 4a2b 0d3e 66da 9fbc
00000120: 06c2 1a3d 3c84 e53d 0270 e7bd daec 18bc
00000130: e90a e8bc 6271 15be 1b41 97bb f234 063e
00000140: 40cf 0c3e 1e0d ed3c ce1c cd3b 9d89 ca3d
00000150: 46c5 493d 4793 843d 5876 97bd 6816 a93d
00000160: 4944 e33c 8f85 7c3d ba8d 4fbd 5f90 0b3e
00000170: 5977 21bd f3ac 063d 5eb7 4dbc 1f5e a33d
00000180: 285a 193e 4968 443d dadb cbbc ebca 953d
00000190: d6a2 3bbe cf1d 7abd 3d7b 233d 68f4 063e
000001a0: ffc7 123d f2a3 9d3d fdec 65bd 9316 16be
000001b0: 5bb2 403e 559c 8f3d cafd e4bd 77b1 e2bd
000001c0: bda5 633c 71bd e03d 38e7 f83c 0772 993d
000001d0: 28e0 a93d c10d 723d accc c13a 350c 98bc
000001e0: 62a2 4c3d 0751 35bb 2572 753d 1cf3 6cbe
000001f0: 4d17 44be ce3d 293d e050 b43d 08d2 5e3d

model.2.running_mean f4 [128]
0.01789983 0.0434403 0.09776825 0.09929143 0.0905148 0.13842471 0.19090044 0.012897167
0.18536687 0.005344385 0.13172051 0.029170264 0.050998777 0.008947622 0.14922346 0.120043136
0.009652478 0.008758871 0.00071083184 0.0016440144 0.013616385 0.0025078417 0.13543832 0.06028369
0.19004059 0.08370927 0.084885955 0.03663725 0.07515145 0.087380886 0.013556087 0.21875167
0.024863677 0.2786122 0.08324821 0.061131664 0.25618505 0.1434081 0.08192367 0.011625427
0.010829511 0.04059724 0.1958101 0.08186158 0.05360182 0.08946721 0.17347845 0.12983559
0.22296913 0.06584531 0.1972785 0.17068988 0.19843076 0.012192306 0.0010582638 0.05246009
0.041796923 0.117735095 0.028862389 0.06799494 0.11135659 0.008052703 0.05698175 0.00011706472
0.046567935 0.02623411 0.02743943 0.2583693 0.24169518 0.11842186 0.1867929 0.004462356
0.0010070304 0.103121996 0.11845368 0.034054138 0.24652404 0.10590592 0.1373988 0.16509965
0.16043293 0.01807965 0.0012040453 0.10926402 0.029689511 0.20200904 0.18559691 0.11813955
0.19980317 0.030636804 0.10911489 0.17885557 0.056369778 0.049122423 0.032944378 0.16906789
0.096364245 0.023003649 0.013002388 0.08245859 0.04371801 0.14525042 0.0035333664 0.108821005
0.20629503 0.17794216 0.023194691 0.08102479 0.13311416 0.17695439 0.086372025 0.10328438
0.04744199 0.04261767 0.15864731 0.07837806 0.2221897 0.09645195 0.03553738 0.035289884
0.1962145 0.0008092259 0.020696849 0.18673053 0.023718115 0.026480014 0.15952148 0.15046304
00000000: aaa2 923c 75ee 313d b83a c83d 4e59 cb3d
00000010: d35f b93d 35bf 0d3e 687b 433e a44e 533c
00000020: d0d0 3d3e f31f af3b bee1 063e 7af6 ee3c
00000030: 18e4 503d 0c99 123c 09ce 183e 2dd9 f53d
00000040: 6d25 1e3c 5e81 0f3c 1e57 3a3a f87b d73a
00000050: 4217 5f3c 9a5a 243b 58b0 0a3e 08ec 763d
00000060: 009a 423e c46f ab3d b0d8 ad3d f110 163d
00000070: 01e9 993d c0f4 b23d 5a1a 5e3c 7000 603e
00000080: e9ae cb3c 42a6 8e3e 0a7e aa3d 3265 7a3d
00000090: b02a 833e 93d9 123e 99c7 a73d 9378 3e3c
000000a0: 436e 313c 4b49 263d 7182 483e 0ba7 a73d
000000b0: 958d 5b3d 963a b73d 56a4 313e 9ff3 043e
000000c0: 0552 643e e8d9 863d 6003 4a3e 54c9 2e3e
000000d0: 6f31 4b3e 3dc2 473c 71b5 8a3a 64e0 563d
000000e0: 4033 2b3d 191f f13d d170 ec3c ee40 8b3d
000000f0: ed0e e43d 7cef 033c b265 693d a580 f538
00000100: 05be 3e3d ebe8 d63c a8c8 e03c fb48 843e
00000110: f17e 773e 2987 f23d a346 3f3e f538 923b
00000120: 55fe 833a a031 d33d d897 f23d 5a7c 0b3d
00000130: cc70 7c3e 34e5 d83d 45b2 0c3e e20f 293e
00000140: 8848 243e c61b 943c 0ed1 9d3a d1c5 df3d
00000150: 6b37 f33c 75db 4e3e 1e0d 3e3e 26f3 f13d
00000160: 3499 4c3e 09fa fa3c a177 df3d ea25 373e
00000170: ffe3 663d 9834 493d aff0 063d 2220 2d3e
00000180: 9e5a c53d 2672 bc3c f807 553c 0de0 a83d
00000190: a811 333d 87bc 143e 0d90 673b 8cdd de3d
000001a0: 013f 533e 7836 363e cb02 be3c 53f0 a53d
000001b0: 144f 083e 8833 353e d1e3 b03d c386 d33d
000001c0: 8852 423d de8f 2e3d 7174 223e ad84 a03d
000001d0: b285 633e 9a88 c53d a58f 113d 208c 103d
000001e0: 74ec 483e 3b22 543a 708c a93c 4a36 3f3e
000001f0: 7e4c c23c 9dec d83c 9959 233e fc12 1a3e

model.2.running_var f4 [128]
0.0028176245 0.008154637 0.020892438 0.019462816 0.01801422 0.02400665 0.044276506 0.0022057877
0.044989794 0.00064348115 0.03321431 0.004664119 0.0068748426 0.0011227566 0.04101609 0.02399718
0.0012179831 0.0006393692 5.5431265e-05 8.412658e-05 0.002048557 0.000171392 0.033118896 0.013127604
0.042684294 0.017558908 0.016581979 0.007030548 0.015843963 0.022991396 0.002316965 0.044319015
0.004776688 0.056052994 0.016260492 0.0128842145 0.04352352 0.03187359 0.018480696 0.0020166733
0.0012452238 0.005776707 0.035501353 0.017390873 0.00985811 0.018276138 0.031042706 0.030325565
0.037792176 0.012193734 0.034513112 0.039961506 0.023233056 0.0011040226 0.00012109655 0.009538665
0.008492566 0.021129578 0.0053978176 0.0155787375 0.02617545 0.0009921886 0.010716505 5.748648e-06
0.009628809 0.004194506 0.005983868 0.03190156 0.028074156 0.02248523 0.0348963 0.00053716503
7.2436276e-05 0.025719814 0.027198898 0.0063123945 0.05125249 0.015157888 0.029070683 0.034661945
0.0291389 0.0027646194 0.00011248115 0.019497817 0.00503142 0.038107354 0.046398845 0.025936386
0.03910759 0.005860752 0.025387647 0.037270986 0.014538819 0.007410798 0.0053498014 0.035150226
0.021409018 0.0038139268 0.0012459864 0.01811388 0.008546585 0.042479686 0.0004307988 0.025195243
0.022685606 0.034631774 0.0031636383 0.018396178 0.027772002 0.039685544 0.02088067 0.019958243
0.009600993 0.007784242 0.039536446 0.01705336 0.04424715 0.022423577 0.0067952876 0.005294759
0.038100466 4.5080193e-05 0.0041548596 0.04700902 0.003630206 0.004999375 0.03064807 0.035140313
00000000: e5a7 383b 079b 053c 9e26 ab3c 7c70 9f3c
00000010: 8f92 933c 98a9 c43c 485b 353d fa8e 103b
00000020: 3847 383d 4aaf 283a ba0b 083d 77d5 983b
00000030: 5c46 e13b 7629 933a 7d00 283d bc95 c43c
00000040: bba4 9f3a 579b 273a de7e 6838 1d6d b038
00000050: 1541 063b b1b7 3339 aea7 073d 2915 573c
00000060: bad5 2e3d b3d7 8f3c eed6 873c 8360 e63b
00000070: 33cb 813c 7458 bc3c 39d8 173b db87 353d
00000080: c385 9c3b d397 653d b934 853c 5018 533c
00000090: b845 323d e28d 023d d464 973c 2a2a 043b
000000a0: c736 a33a 884a bd3b de69 113d 4e77 8e3c
000000b0: e983 213c d7b7 953c 464d fe3c 526d f83c
000000c0: f8cb 1a3d 3ac8 473c 9f5d 0d3d adae 233d
000000d0: 4053 be3c dab4 903a 37f5 fd38 1048 1c3c
000000e0: 6724 0b3c f017 ad3c 2de0 b03b f63d 7f3c
000000f0: e66d d63c 530c 823a 4894 2f3c 83e4 c036
00000100: 27c2 1d3c 1172 893b 5314 c43b 36ab 023d
00000110: c6fb e53c f232 b83c 6cef 0e3d 89d0 0c3a
00000120: eee8 9738 5cb2 d23c 39d0 de3c 34d8 ce3b
00000130: 22ee 513d ca58 783c a425 ee3c aff9 0d3d
00000140: b4b4 ee3c 9e2e 353b dce3 eb38 e3b9 9f3c
00000150: 9cde a43b 7516 1c3d b70c 3e3d 8b78 d43c
00000160: 482f 203d 8d0b c03b c1f9 cf3c 76a9 183d
00000170: 3a34 6e3c 48d6 f23b 634d af3b aff9 0f3d
00000180: f761 af3c 13f3 793b 5e50 a33a 8f63 943c
00000190: fa06 0c3c 2eff 2d3d d6dc e139 4166 ce3c
000001a0: 2ad7 b93c 0cda 0d3d 0b55 4f3b 95b3 963c
000001b0: 1c82 e33c 4f8d 223d f00d ab3c 787f a33c
000001c0: 7c4d 1d3c f412 ff3b f8f0 213d 7db3 8b3c
000001d0: 803c 353d a6b1 b73c 01ab de3b a87f ad3b
000001e0: 3c0f 1c3d 7d14 3d38 7d25 883b 888c 403d
000001f0: c0e8 6d3b ccd1 a33b a911 fb3c 4aef 0f3d

model.4.weight f4 [64, 128]
0.033211816 0.04415429 -0.061295126 -0.03538988 0.01316232 0.013339933 -0.0582017 0.058496755
0.049727075 0.043212973 0.011633996 -0.009844284 0.040416818 -0.02989633 -0.0035821223 -0.018109018
-0.028049897 -0.041017216 0.018124145 0.049605332 0.020618081 -0.09995922 0.04824768 0.007346227
-0.020073967 0.024118617 -0.059873942 -0.013927338 -0.106183596 -0.044871304 -0.14433262 -0.0071865395
-0.007199695 0.04875352 0.013000012 -0.014735594 0.08604091 0.07648864 0.013527489 0.009498784
-0.012750299 0.011443923 -0.019075016 0.042122476 -0.0078021567 -0.057564005 0.10252055 -0.015799576
-0.011079389 0.037259057 -0.068614654 0.05875862 0.040351782 0.015834646 -0.016304376 0.01157881
0.015110643 -0.012738663 0.025833074 -0.03281847 -0.00323867 0.011448588 0.053055443 -0.05259985
0.027800368 0.029434588 0.01859744 -0.13216656 -0.036958154 -0.06741476 -0.021535944 -0.004483111
-0.041130688 0.03589367 -0.013660621 0.06525879 0.10489532 -0.022417137 -0.038366497 -0.024412299
-0.01795875 -0.03155078 0.057777867 0.010343969 0.003002944 -0.06599165 -0.047441248 0.0034972127
0.048712645 0.05908368 0.019792562 -0.03141827 -0.08779986 -0.028526805 -0.0025160192 0.06912494
-0.0068443627 0.0023359791 -0.028403362 -0.0075646183 0.016192293 -0.0013858571 0.041022778 0.08066741
0.03133653 0.01482108 0.056909356 -0.03843175 0.021007547 0.05067616 -0.013835462 -0.0027997354
-0.015360505 -0.056663956 -0.011683785 0.014897489 -0.07494517 0.03292734 0.04768457 -0.04838714
0.03628103 -0.03263084 0.02402868 0.0063501205 0.03600156 -0.008444157 -0.03801122 -0.03873062
0.03582423 0.036642812 -0.010553746 0.009896047 0.013075151 0.019726815 -0.032625414 0.037313536
-0.0463661 -0.15684973 0.016428646 0.013399288 -0.0110335555 0.004550597 -0.058237024 -0.061609052
-0.009132029 0.09396635 0.0011763333 0.0049377372 -0.0033052624 -0.008112736 0.0021215877 -0.010169491
0.042983044 0.06982183 -0.033710394 -0.045326367 -0.09343579 -0.068127684 0.008260632 -0.041626673
0.028558929 0.021558428 -0.0029045653 -0.033837423 0.035441276 0.04093727 0.0048824996 -0.032435738
0.018927477 -0.09473903 0.06765967 0.07062729 -0.004309478 0.029135296 0.06794796 0.00451982
-0.011309244 0.052713368 0.052262697 0.006088729 -0.11447725 0.016676625 -0.091152996 0.060032457
-0.049827013 0.0067934203 0.022799868 0.029852591 0.010817493 0.06193973 -0.0035108204 -0.035314392
0.016695358 -0.0097060995 -0.016426308 0.0023006399 -0.052245807 0.03916405 -0.02645985 -0.013245946
-0.012918865 -0.06836817 0.036857698 0.03726874 -0.003817537 0.07411922 -0.05118768 0.030952092
-0.068853796 0.05789636 -0.049605086 -0.082975514 0.013171736 0.010982138 -0.056258343 -0.042710625
-0.0018290377 0.010380049 -0.028780404 0.0393206 0.0225478 0.029814849 0.02153607 0.055852756
-0.031382333 -0.07625505 0.053620953 0.012462999 0.020445041 -0.05313284 0.018238734 0.041841753
0.026174637 -0.0049246773 -0.012729875 -0.06204125 0.010120125 0.019033488 0.051618356 0.005983556
0.00029546654 0.057284717 0.044035945 0.009543448 -0.05545468 0.034721006 -0.11103928 0.001864661
-0.061454732 0.0684245 -0.074573115 0.034614727 0.031030219 0.09172188 0.026909849 0.047457356
00000000: 1d09 083d 21db 343d 9910 7bbd fbf4 10bd
00000010: c5a6 573c bc8f 5a3c e864 6ebd 4b9a 6f3d
00000020: 9eae 4b3d 1600 313d 849c 3e3c eb49 21bc
00000030: 1b8c 253d 26e9 f4bc 0ac2 6abb 5d59 94bc
00000040: e6c8 e5bc ab01 28bd 1679 943c f62e 4b3d
00000050: 40e7 a83c 6bb7 ccbd 5c9f 453d 9eb8 f03b
00000060: 2972 a4bc 6894 c53c 613e 75bd 7d2f 64bc
00000070: c976 d9bd f9ca 37bd eecb 13be 107d ebbb
00000080: 6beb ebbb c5b1 473d 01fe 543c 906d 71bc
00000090: 3736 b03d 13a6 9c3d 67a2 5d3c caa0 1b3c
000000a0: a1e6 50bc 4b7f 3b3c 3543 9cbc 9e88 2c3d
000000b0: 3ca9 ffbb 3cc8 6bbd 4bf6 d13d 1d6e 81bc
000000c0: 5386 35bc f49c 183d d785 8cbd e1ac 703d
000000d0: e947 253d a9b7 813c c190 85bc 0db5 3d3c
000000e0: a192 773c d3b5 50bc e29f d33c a96c 06bd
000000f0: de3f 54bb dc92 3b3c aa50 593d f172 57bd
00000100: 99bd e33c ce20 f13c a959 983c ac56 07be
00000110: 6f61 17bd c010 8abd 266c b0bc 10e7 92bb
00000120: a778 28bd 3e05 133d ccd0 5fbc 67a6 853d
00000130: 5cd3 d63d 25a4 b7bc 3026 1dbd 4dfc c7bc
00000140: 3a1e 93bc 643b 01bd 7ca8 6c3d c079 293c
00000150: 0acd 443b a126 87bd c151 42bd 7e31 653b
00000160: e986 473d bb01 723d 0324 a23c 72b0 00bd
00000170: 6ad0 b3bd 0cb1 e9bc cce3 24bb 6091 8d3d
00000180: ad46 e0bb 3a17 193b 2bae e8bc 9ee0 f7bb
00000190: b3a5 843c a6a5 b5ba 8007 283d f434 a53d
000001a0: bc5a 003d 1dd4 723c c919 693d 9c6a 1dbd
000001b0: 0518 ac3c ce91 4f3d 22ae 62bc c47b 37bb
000001c0: a1aa 7bbc 7718 68bd 596d 3fbc 9914 743c
000001d0: da7c 99bd d2de 063d e550 433d 9831 46bd
000001e0: 6b9b 143d eaa7 05bd cbd7 c43c ac14 d03b
000001f0: 5f76 133d 5d59 0abc a7b1 1bbd 00a4 1ebd
00000200: 6ebc 123d c616 163d 9ee9 2cbc 0823 223c
00000210: 2839 563c 219a a13c 3aa2 05bd 14d6 183d
00000220: 61ea 3dbd 379d 20be 5e95 863c b088 5b3c
00000230: 16c6 34bc 2d1d 953b f289 6ebd c659 7cbd
00000240: 819e 15bc 6e71 c03d 322f 9a3a becc a13b
00000250: 1a9d 58bb 48eb 04bc 560a 0b3b f09d 26bc
00000260: fd0e 303d bffe 8e3d e913 0abd 24a8 39bd
00000270: 435b bfbd 8786 8bbd 9a57 073c bb80 2abd
00000280: 6af4 e93c 4d9b b03c 855a 3ebb 1c99 0abd
00000290: df2a 113d d7ad 273d 60fd 9f3b 56db 04bd
000002a0: cc0d 9b3c 8906 c2bd 2791 8a3d 0aa5 903d
000002b0: 8636 8dbb 25ad ee3c 4d28 8b3d 001b 943b
000002c0: 684a 39bc f9e9 573d 6911 563d f683 c73b
000002d0: 0c73 eabd 6b9d 883c 6cae babd 98e4 753d
000002e0: 6917 4cbd 579b de3b cac6 ba3c 6c8d f43c
000002f0: db3b 313c 84b4 7d3d cb15 66bb d3a5 10bd
00000300: b4c4 883c 5506 1fbc 7790 86bc 55c6 163b
00000310: b3ff 55bd 7c6a 203d 54c2 d8bc 8605 59bc
00000320: a6a9 53bc 9c04 8cbd 19f8 163d 1ba7 183d
00000330: a52f 7abb d1cb 973d 2caa 51bd 3e8f fd3c
00000340: 3803 8dbd bc24 6d3d b42e 4bbd 11ef a9bd
00000350: 44ce 573c 6dee 333c 266f 66bd 56f1 2ebd
00000360: 52bc efba 1511 2a3c e2c4 ebbc a30e 213d
00000370: 2ab6 b83c 453e f43c 6a6c b03c dcc5 643d
00000380: c38a 00bd 9c2b 9cbd a5a1 5b3d 9b31 4c3c
00000390: 5c7c a73c d2a1 59bd 6669 953c 4262 2b3d
000003a0: 316c d63c 305f a1bb f790 50bc f71e 7ebd
000003b0: e1ce 253c 1eec 9b3c c56d 533d b511 c43b
000003c0: d9e8 9a39 61a3 6a3d 095f 343d 1f5c 1c3c
000003d0: 7224 63bd 9d37 0e3d 9068 e3bd a467 f43a
000003e0: f5b7 7bbd 2522 8c3d cab9 98bd 2cc8 0d3d
000003f0: 1633 fe3c aed8 bb3d 0b72 dc3c a562 423d

model.4.bias f4 [64]
0.11653667 0.018591415 0.20974137 0.08817668 -0.08641336 0.23254272 0.22397119 0.18699436
0.06111392 0.037553895 0.16343921 -0.044072535 0.11028564 0.120950416 0.16201589 0.13204959
0.16461375 0.11049157 0.098267004 0.21495804 0.11051173 0.25658178 -0.12650096 -0.10874435
0.013089937 0.111644685 -0.005616571 -0.013885991 -0.33744094 0.15260476 0.028512519 0.18668881
0.1752277 -0.033979904 0.033646964 0.058391653 0.08790681 0.10654989 -0.027065009 -0.010610596
-0.02250285 -0.08840454 0.21961918 0.24620852 0.15592414 0.048453577 -0.03635369 0.097936444
0.1120117 0.063789524 0.017948898 0.20626538 -0.16954112 0.041686546 0.17346779 0.10817095
0.08431944 0.10799416 0.13148789 0.093714125 0.25593543 0.037852153 0.035184547 0.13337511
00000000: c7aa ee3d 064d 983c 71c6 563e fa95 b43d
00000010: 7df9 b0bd ae1f 6e3e b458 653e 737b 3f3e
00000020: 9752 7a3d 1dd2 193d 9c5c 273e 6785 34bd
00000030: 70dd e13d dab4 f73d 7ee7 253e 0238 073e
00000040: 8290 283e 6749 e23d 3640 c93d f61d 5c3e
00000050: f953 e23d b05e 833e 7889 01be 5cb5 debd
00000060: 2d77 563c f8a5 e43d 360b b8bb 1182 63bc
00000070: 0fc5 acbe 6c44 1c3e 1693 e93c 5a2b 3f3e
00000080: e46e 333e 832e 0bbd 66d1 093d 162c 6f3d
00000090: 7c08 b43d d436 da3d 70b7 ddbc 11d8 2dbc
000000a0: e657 b8bc 710d b5bd dae3 603e 161e 7c3e
000000b0: 94aa 1f3e 4277 463d 9be7 14bd e792 c83d
000000c0: 6466 e53d 15a4 823d 9109 933c 3b37 533e
000000d0: 309c 2dbe 83bf 2a3d 8aa1 313e bb88 dd3d
000000e0: acaf ac3d 0b2c dd3d c3a4 063e 31ed bf3d
000000f0: f809 833e dc0a 1b3d ac1d 103d 7c93 083e

model.6.weight f4 [64]
0.50236535 0.50713676 0.47555268 0.47071517 0.47764212 0.53721946 0.43649632 0.5170997
0.4964345 0.4701844 0.51251906 0.48616448 0.5000174 0.4637365 0.51022434 0.5868299
0.48467943 0.4226977 0.4637829 0.42253622 0.4836195 0.45062143 0.5596343 0.56866515
0.4659403 0.4814935 0.49204278 0.5661822 0.6316325 0.4610691 0.51909226 0.541438
0.46486095 0.55166674 0.486057 0.48520124 0.42866078 0.46155658 0.5274594 0.49648184
0.49483448 0.4987942 0.51461256 0.47875077 0.4967325 0.50056463 0.51896584 0.44074965
0.45211828 0.4840511 0.49805054 0.4694931 0.56800556 0.4338592 0.5016126 0.54712504
0.5021428 0.47978288 0.47582877 0.4745759 0.55480313 0.51323926 0.47978717 0.48341233
00000000: 049b 003f b7d3 013f a47b f33e 9401 f13e
00000010: 828d f43e 3787 093f 727c df3e a560 043f
00000020: aa2c fe3e 02bc f03e 7334 033f 8dea f83e
00000030: 2401 003f df6e ed3e 109e 023f 7c3a 163f
00000040: e727 f83e d56b d83e f474 ed3e ab56 d83e
00000050: fa9c f73e dab7 e63e 3244 0f3f 0a94 113f
00000060: ba8f ee3e 5186 f63e 08ed fb3e 51f1 103f
00000070: abb2 213f 4011 ec3e 3be3 043f ae9b 0a3f
00000080: 4102 ee3e 083a 0d3f 77dc f83e 4c6c f83e
00000090: 6d79 db3e 2551 ec3e 9407 073f de32 fe3e
000000a0: f25a fd3e f461 ff3e a6bd 033f d21e f53e
000000b0: b953 fe3e 0125 003f f2da 043f f0a9 e13e
000000c0: 0c7c e73e 8cd5 f73e 7b00 ff3e 6661 f03e
000000d0: d068 113f cb22 de3e af69 003f 6310 0c3f
000000e0: 6e8c 003f 1aa6 f53e d49f f33e 9dfb f23e
000000f0: 9407 0e3f a663 033f aaa6 f53e d281 f73e

model.6.bias f4 [64]
-0.09416802 -0.095928736 -0.10311749 0.1334995 0.17759529 0.0021286132 0.07017613 0.083248325
0.2097911 0.057653535 0.167806 0.047865424 0.01917153 -0.04698525 0.050082024 -0.011251407
-0.0523056 0.16002855 0.14963956 0.0998915 0.19466804 0.096382484 0.13534197 0.19762689
0.124132775 0.009591735 0.15003009 -0.08243113 0.17558566 -0.046295535 0.07139229 0.117323294
0.16896838 0.027279034 0.2066429 0.11442573 0.20213443 0.06841579 0.051209502 0.10722984
0.15689404 0.15400898 -0.034755003 -0.05663628 0.04186032 0.022376401 0.12719171 0.24191077
0.124807775 0.04183946 -0.12623268 0.060412414 0.1606773 0.14964023 -0.1394432 -0.047187172
0.032817826 0.02718606 0.109930664 0.09305243 -0.072958186 0.018210355 0.2344339 -0.08780344
00000000: 2adb c0bd 4976 c4bd 432f d3bd 18b4 083e
00000010: 8adb 353e 3480 0b3b 81b8 8f3d 197e aa3d
00000020: 7ad3 563e 1d26 6c3d 56d5 2b3e 890e 443d
00000030: 9d0d 9d3c 9b73 40bd cf22 4d3d d257 38bc
00000040: 663e 56bd 86de 233e 1d3b 193e ea93 cc3d
00000050: 0f57 473e 2e64 c53d 1697 0a3e b45e 4a3e
00000060: 5339 fe3d a726 1d3c 7da1 193e a7d1 a8bd
00000070: bacc 333e 63a0 3dbd 1f36 923d 3247 f03d
00000080: 0c06 2d3e 4878 df3c 329a 533e 0a58 ea3d
00000090: 54fc 4e3e 941d 8c3d 0ec1 513d 519b db3d
000000a0: d5a8 203e 88b4 1d3e 435b 0ebd 72fb 67bd
000000b0: ba75 2b3d b74e b73c 8b3e 023e 75b7 773e
000000c0: 389b ff3d db5f 2b3d 2443 01be 0273 773d
000000d0: 9788 243e 4a3b 193e 33ca 0ebe 5647 41bd
000000e0: fc6b 063d 4db5 de3c 5423 e13d 4692 be3d
000000f0: 1a6b 95bd e22d 953c 710f 703e 4ad2 b3bd

model.6.running_mean f4 [64]
0.34369686 0.19153863 0.30889788 0.23855782 0.107956745 0.33854765 0.35728368 0.28520012
0.26648498 0.1819274 0.38571137 0.13767503 0.21762462 0.31052464 0.46329492 0.26221055
0.25490177 0.2682879 0.34113523 0.32547176 0.37602913 0.5462829 0.120524496 0.12893316
0.18427174 0.23174953 0.18566479 0.20912778 0.09468441 0.25851378 0.24299523 0.36767322
0.24907707 0.124938495 0.22290744 0.15880065 0.3333975 0.3108941 0.18289506 0.1765632
0.12505789 0.14241211 0.35613468 0.36112598 0.2445069 0.23064871 0.20360951 0.2721951
0.25727573 0.22492722 0.23450044 0.4322802 0.13904148 0.2747442 0.2789194 0.30861777
0.20829698 0.23750657 0.2468468 0.20032619 0.42233443 0.21117544 0.35392138 0.29086274
00000000: 09f9 af3e b422 443e dd27 9e3e 8048 743e
00000010: 6d18 dd3d 1e56 ad3e e3ed b63e c005 923e
00000020: b870 883e 2d4b 3a3e f67b c53e affa 0c3e
00000030: fdd8 5e3e 16fd 9e3e fe34 ed3e 7640 863e
00000040: 7c82 823e 085d 893e 47a9 ae3e 3ca4 a63e
00000050: e486 c03e 32d9 0b3f 8cd5 f63d 0e07 043e
00000060: bbb1 3c3e c04f 6d3e e91e 3e3e 9825 563e
00000070: e6e9 c13d eb5b 843e bed3 783e aa3f bc3e
00000080: 0f0e 7f3e c1df ff3d d941 643e a39c 223e
00000090: 14b3 aa3e 832d 9f3e d848 3b3e fccc 343e
000000a0: 2d0f 003e 7bd4 113e 4957 b63e 81e5 b83e
000000b0: 0460 7a3e 2d2f 6c3e 037f 503e 285d 8b3e
000000c0: a5b9 833e 5253 663e e220 703e d553 dd3e
000000d0: e460 0e3e 46ab 8c3e 86ce 8e3e 2603 9e3e
000000e0: ce4b 553e ec34 733e 68c5 7c3e 4f22 4d3e
000000f0: 383c d83e 603e 583e 2f35 b53e f6eb 943e

model.6.running_var f4 [64]
0.19001392 0.09946753 0.16278712 0.11515587 0.05294764 0.10723155 0.097482875 0.084363796
0.16057079 0.10472704 0.14489394 0.07158841 0.076086946 0.14272475 0.19736792 0.082167424
0.08003478 0.14168397 0.14285076 0.057809032 0.17357399 0.14612663 0.062350243 0.12032153
0.08670806 0.07872886 0.1003174 0.10497523 0.0949856 0.1275073 0.12285999 0.094764255
0.17598669 0.0421488 0.10912119 0.074671976 0.11924192 0.1484197 0.15647987 0.10702941
0.06783606 0.07094822 0.13837603 0.13855128 0.18115164 0.11823848 0.0960098 0.12012239
0.079113685 0.06848512 0.114974484 0.11371367 0.13841474 0.117907666 0.096625105 0.16267386
0.09723548 0.11313668 0.1030439 0.074240826 0.20151298 0.06802467 0.1963222 0.1433221
00000000: 0293 423e a2b5 cb3d abb1 263e d7d6 eb3d
00000010: a0df 583d 379c db3d 1aa5 c73d edc6 ac3d
00000020: ab6c 243e 217b d63d 145f 143e f29c 923d
00000030: 79d3 9b3d 7026 123e d11a 4a3e 6547 a83d
00000040: 46e9 a33d 9a15 113e 7847 123e 2ac9 6c3d
00000050: 61bd 313e 38a2 153e f862 7f3d 226b f63d
00000060: ff93 b13d 993c a13d 3673 cd3d 41fd d63d
00000070: cf87 c23d 4691 023e 059e fb3d c313 c23d
00000080: db35 343e 38a4 2c3d ee7a df3d 9fed 983d
00000090: 1c35 f43d 55fb 173e 423c 203e 3c32 db3d
000000a0: a2ed 8a3d 4d4d 913d 72b2 0d3e 63e0 0d3e
000000b0: d17f 393e 0427 f23d c9a0 c43d ba02 f63d
000000c0: 5b06 a23d ed41 8c3d be77 eb3d b6e2 e83d
000000d0: 98bc 0d3e 9379 f13d 62e3 c53d fa93 263e
000000e0: 6523 c73d 34b4 e73d ae08 d33d 930b 983d
000000f0: 6b59 4e3e 8550 8b3d b008 493e 07c3 123e

model.8.weight f4 [32, 64]
-0.029295279 -0.035616025 -0.017873045 -0.061953068 0.057219766 -0.09335643 -0.044859007 -0.07422982
-0.016905008 -0.002394196 0.0060540335 0.068457015 -0.10827498 -0.01594254 0.1514366 0.02948092
-0.022390129 0.027804673 0.10706639 0.025210116 0.09179489 0.020668475 0.022460213 -0.10175875
0.042628232 0.044782255 0.09961288 0.013107326 -0.10268881 -0.001018608 -0.09739743 0.016066853
-0.069320545 0.04131866 -0.002730604 0.027039925 0.03028665 -0.063562304 -0.022873748 -0.027613344
-0.059795175 0.045894872 -0.023896292 -0.012188653 -0.07446979 -0.005768886 0.012292811 0.0043051364
0.008629919 0.003800917 -0.058568206 0.0032158308 -0.08918933 0.041957065 0.017008314 0.011580616
0.04110643 0.015659558 0.0970604 -0.06539933 -0.04767307 -0.033221215 0.05246068 -0.012280721
-0.003898244 -0.05925367 -0.116541125 -0.018603252 0.054195985 -0.051556036 0.09624086 0.057093572
-0.07429501 0.021750685 0.09367914 0.06099701 -0.10434626 0.019937579 0.054433856 0.03676109
-0.04546812 0.031651072 0.035921372 0.046950478 0.04095403 0.08635097 -0.02734987 -0.101380005
0.033153947 -0.015513395 0.03463736 0.062011607 -0.12690055 -0.11718587 -0.0021776366 0.011059368
-0.091295205 -0.07327795 -0.05076295 0.011230306 0.025278607 -0.016673293 -0.04434889 0.047847927
-0.08507062 -0.023418795 -0.03739194 -0.025321806 -0.11009381 0.033333704 0.012971018 0.04190789
-0.010325356 0.023738153 -0.02128473 0.09473748 -0.08932906 0.0116655845 -0.004710158 0.06780428
0.0399945 -0.025041755 0.039428696 0.008076375 -0.031759586 0.061628345 0.056243032 -0.020823246
-0.0017162818 0.1194308 -0.017356455 -0.04080021 -0.18759693 -0.09541107 0.06612562 0.03182357
0.029058449 0.008678037 0.049027827 -0.079014994 0.063902944 0.020202957 -0.030887352 -0.05660492
-0.03930146 -0.044754118 0.0018600512 -0.04943558 -0.005667468 0.02621219 -0.061784633 -0.032718398
0.0049061105 -0.09473567 -0.082072094 0.11698407 0.08195496 -0.08127633 0.018781804 -0.11794574
-0.02422961 -0.026344966 0.026920909 -0.046273883 -0.07597557 0.22614019 0.0398349 -0.042117592
-0.039146774 -0.05183254 0.022287386 0.09092206 0.008655295 -0.04095342 -0.0052662403 -0.11583891
-0.04714877 -0.14306179 0.042349577 0.044354036 0.0035420393 -0.108328976 0.12916714 0.031015169
-0.0946351 0.0778884 0.011497433 0.0033566856 0.038693577 0.0142768575 0.06541775 0.11549153
-0.092104286 -0.06222774 -0.09084369 0.020720456 -0.06691275 0.090613246 0.06709996 0.08611949
-0.020562459 0.051270757 -0.08711083 0.058072276 -0.17669697 -0.00844528 -0.07869061 -0.15416834
0.014495418 0.10603024 -0.035364565 -0.020036908 -0.08500851 -0.037230898 -0.010287481 0.005951465
0.13387594 -0.030122858 -0.08255154 -0.04260669 0.056658298 -0.11534698 -0.020075122 0.07160041
-0.026514033 -0.031152004 -0.035646822 0.0954672 0.047554754 -0.06455161 0.0014962483 0.036526825
0.04162627 0.026058855 0.0806837 0.027074432 0.042620312 -0.14044282 -0.017009573 0.039833803
-0.15134013 0.086010404 0.0045470507 0.024498323 -0.015362475 -0.056046557 -0.053433347 -0.04659798
0.116048284 -0.1492859 -0.09224684 -0.014507194 0.04616036 -0.14859802 -0.06541056 0.017259913
00000000: a7fc efbc 1ce2 11bd 7e6a 92bc 80c2 7dbd
00000010: 465f 6a3d a831 bfbd 14be 37bd ce05 98bd
00000020: 5f7c 8abc f2e7 1cbb ea60 c63b 3133 8c3d
00000030: 46bf ddbd ee99 82bc 3212 1b3e f881 f13c
00000040: 816b b7bc a0c6 e33c a045 db3d 7285 ce3c
00000050: f6fe bb3d ef50 a93c 7bfe b73c e466 d0bd
00000060: f19a 2e3d 996d 373d d601 cc3d 1cc0 563c
00000070: 834e d2bd d082 85ba 4e78 c7bd a29e 833c
00000080: eef7 8dbd c13d 293d eff3 32bb d582 dd3c
00000090: b51b f83c f42c 82bd ba61 bbbc 6135 e2bc
000000a0: c9eb 74bd 43fc 3b3d 28c2 c3bc ebb2 47bc
000000b0: 9e83 98bd ec08 bdbb c967 493c 1a12 8d3b
000000c0: 8164 0d3c ce18 793b 37e5 6fbd b0c0 523b
000000d0: e5a8 b6bd 2cdb 2b3d 0555 8b3c a0bc 3d3c
000000e0: 375f 283d 7948 803c 9ac7 c63d 15f0 85bd
000000f0: d644 43bd f812 08bd 03e1 563d 1435 49bc
00000100: ae79 7fbb fab3 72bd 1dad eebd d965 98bc
00000110: 9cfc 5d3d 6c2c 53bd ee19 c53d f3da 693d
00000120: fb27 98bd 7e2e b23c d9da bf3d 00d8 793d
00000130: 7eb3 d5bd 2254 a33c 09f6 5e3d cc92 163d
00000140: c83c 3abd 8ea4 013d 4a22 133d 254f 403d
00000150: 6abf 273d c7d8 b03d d60c e0bc 52a0 cfbd
00000160: 6fcc 073d e52b 7ebc e8df 0d3d e2ff 7d3d
00000170: 38f2 01be 25ff efbd aeb6 0ebb 5a32 353c
00000180: fbf8 babd c012 96bd d0ec 4fbd 51ff 373c
00000190: 1515 cf3c 6e96 88bc 2fa7 35bd 30fc 433d
000001a0: 8139 aebd c6d8 bfbc 4a28 19bd ad6f cfbc
000001b0: dd78 e1bd ec88 083d 6584 543c 9ca7 2b3d
000001c0: af2b 29bc 8476 c23c 505d aebc b905 c23d
000001d0: 27f2 b6bd 0221 3f3c ab57 9abb f8dc 8a3d
000001e0: 46d1 233d 5e24 cdbc fc7f 213d c652 043c
000001f0: 5716 02bd 016e 7c3d 185f 663d 8395 aabc
00000200: dcf4 e0ba 2398 f43d 202f 8ebc 1f1e 27bd
00000210: 6919 40be e166 c3bd de6c 873d 6f59 023d
00000220: fc0b ee3c 532e 0e3c 67d1 483d 9dd2 a1bd
00000230: 8cdf 823d ac80 a53c 7907 fdbc 90da 67bd
00000240: 91fa 20bd 1850 37bd f6cc f33a f67c 4abd
00000250: 2bb6 b9bb f2ba d63c e211 7dbd ba03 06bd
00000260: 70c3 a03b c604 c2bd 6a15 a8bd 5895 ef3d
00000270: 01d8 a73d 3474 a6bd 4cdc 993c 898d f1bd
00000280: 2d7d c6bc 66d1 d7bc 3d89 dc3c af89 3dbd
00000290: 1499 9bbd 4b91 673e ec29 233d 7f83 2cbd
000002a0: 5e58 20bd 5c4e 54bd 0994 b63c 5835 ba3d
000002b0: f0ce 0d3c c6be 27bd 6d90 acbb f33c edbd
000002c0: 121f 41bd ca7e 12be c076 2d3d 94ac 353d
000002d0: 8f21 683b 95db ddbd 6444 043e 8613 fe3c
000002e0: 0cd0 c1bd f483 9f3d bb5f 3c3c d7fb 5b3b
000002f0: 287d 1e3d 7be9 693c bef9 853d d386 ec3d
00000300: 2ca1 bcbd 84e2 7ebd 420c babd f2bd a93c
00000310: 8d09 89bd 7093 b93d b46b 893d 6a5f b03d
00000320: 9a72 a8bc 4901 523d 2a67 b2bd 32dd 6d3d
00000330: 0df0 34be 125e 0abc 8b28 a1bd 4ede 1dbe
00000340: 317e 6d3c 6226 d93d 6fda 10bd 7124 a4bc
00000350: f118 aebd 6d7f 18bd d38c 28bc 8204 c33b
00000360: c616 093e 36c4 f6bc c810 a9bd 5a84 2ebd
00000370: 8812 683d 0a3b ecbd 9574 a4bc 3ca3 923d
00000380: f533 d9bc 7d32 ffbc 6702 12bd 4f84 c33d
00000390: c6c8 423d a233 84bd c31d c43a 279d 153d
000003a0: 4f80 2a3d 6179 d53c 7f3d a53d 33cb dd3c
000003b0: a392 2e3d 3ed0 0fbe a957 8bbc c528 233d
000003c0: e8f8 1abe 3926 b03d 6dff 943b b5b0 c83c
000003d0: e4b2 7bbc 1391 65bd eddc 5abd 86dd 3ebd
000003e0: b9aa ed3d 67de 18be e9eb bcbd 95af 6dbc
000003f0: a512 3d3d 142a 18be f9f5 85bd a964 8d3c

model.8.bias f4 [32]
0.07185883 -0.06621274 0.40131077 0.00046591164 0.2689106 0.40151995 0.33437756 0.24643077
0.29195017 0.26421592 0.027498152 0.006584393 0.3048853 0.29893753 0.04736501 0.21956053
0.20502546 0.31171384 0.24170244 0.33429223 0.25537387 0.3383282 0.07172814 0.36630324
0.0680599 0.24609181 0.22019547 0.27309847 -0.39019588 0.32006532 0.15586647 0.20829765
00000000: b92a 933d 8c9a 87bd 9b78 cd3e 9a45 f439
00000010: a6ae 893e 0694 cd3e 8933 ab3e 5958 7c3e
00000020: 7e7a 953e 4f47 873e ce43 e13c e4c1 d73b
00000030: ed19 9c3e 570e 993e d001 423d 7ad4 603e
00000040: 32f2 513e f598 9f3e d880 773e 5a28 ab3e
00000050: 5dc0 823e 5b39 ad3e 34e6 923d 198c bb3e
00000060: fd62 8b3d 7eff 7b3e ec7a 613e 90d3 8b3e
00000070: c1c7 c7be 9adf a33e 769b 1f3e fb4b 553e

model.10.weight f4 [32]
0.6323782 0.628496 0.90843695 0.68749994 0.8764483 0.9239004 0.86172616 0.78422034
0.7307093 0.75959724 0.63920665 0.7895318 0.75078845 0.69286084 0.6972305 0.7776678
0.8916005 0.81206465 0.8033781 0.8960351 0.7307391 0.86224353 0.66743195 0.82700104
0.66012555 0.68191975 0.8121444 0.7885891 0.6619117 0.86718947 0.7178394 0.7921178
00000000: 8ae3 213f 1de5 203f 538f 683f ffff 2f3f
00000010: ea5e 603f bd84 6c3f 169a 5c3f aac2 483f
00000020: c40f 3b3f f774 423f 0ca3 233f c21e 4a3f
00000030: ac33 403f 545f 313f b37d 323f 3d15 473f
00000040: ee3f 643f 78e3 4f3f 30aa 4d3f 8e62 653f
00000050: b811 3b3f febb 5c3f d2dc 2a3f 57b6 533f
00000060: fdfd 283f 4b92 2e3f b2e8 4f3f fae0 493f
00000070: 0c73 293f 2100 5e3f 53c4 373f 3bc8 4a3f

model.10.bias f4 [32]
-0.098760165 0.037417706 0.04950084 0.041522525 0.05026098 0.07288783 0.024514284 0.08270132
0.08725623 0.06585224 0.06833539 0.09122955 -0.06983241 0.07177839 0.04581942 -0.07197429
0.081964225 -0.06512916 -0.05139187 -0.010421453 -0.068116575 -0.014170925 0.083292775 -0.060067113
-0.025182534 -0.079045214 -0.07650758 -0.026581755 0.039826795 0.07928101 -0.008135036 -0.066448
00000000: c542 cabd 4f43 193d 65c1 4a3d 8613 2a3d
00000010: 75de 4d3d 3746 953d 2ed2 c83c 4f5f a93d
00000020: 65b3 b23d 8add 863d 6df3 8b3d 8fd6 ba3d
00000030: 4b04 8fbd 8c00 933d 25ad 3b3d 4267 93bd
00000040: dcdc a73d 7062 85bd 4880 52bd bebe 2abc
00000050: b480 8bbd 2b2d 68bc 6795 aa3d ef08 76bd
00000060: 9a4b cebc 75e2 a1bd 02b0 9cbd fbc1 d9bc
00000070: 6c21 233d 155e a23d d048 05bc e415 88bd

model.10.running_mean f4 [32]
0.34779125 0.24139404 0.40457317 0.16811998 0.3325818 0.35997704 0.4897767 0.33168298
0.37871617 0.21544659 0.23863974 0.28965774 0.37781873 0.2431732 0.28548908 0.3423974
0.35985664 0.4310059 0.40246996 0.39374804 0.36125934 0.38187656 0.22100285 0.57134134
0.29637164 0.31749564 0.3907212 0.26851138 0.12481513 0.33909458 0.17534056 0.43587363
00000000: b211 b23e 0030 773e 3724 cf3e a527 2c3e
00000010: 2948 aa3e e94e b83e 03c4 fa3e 5ad2 a93e
00000020: 16e7 c13e 089e 5c3e fa5d 743e 054e 943e
00000030: 7571 c13e 6502 793e a02b 923e b64e af3e
00000040: 213f b83e ceac dc3e 8b10 ce3e 5899 c93e
00000050: fcf6 b83e 5385 c33e 924e 623e 6d43 123f
00000060: 06be 973e ca8e a23e 9c0c c83e 537a 893e
00000070: 139f ff3d ce9d ad3e 7a8c 333e d42a df3e

model.10.running_var f4 [32]
0.18757033 0.060900573 0.21635313 0.055986322 0.1633307 0.24131952 0.20508762 0.1972181
0.1615424 0.06506903 0.12377779 0.21415822 0.10094111 0.06287734 0.24092995 0.1622467
0.46439797 0.14247188 0.24685195 0.24159704 0.1369443 0.326318 0.1276326 0.21696569
0.127108 0.1254421 0.17106625 0.13596313 0.048236113 0.19136773 0.06256309 0.28154203
00000000: 7012 403e e172 793d ad8b 5d3e ea51 653d
00000010: 2a40 273e 771c 773e 7d02 523e 8bf3 493e
00000020: 5f6b 253e e942 853d 367f fd3d 4b4c 5b3e
00000030: 36ba ce3d d6c5 803d 57b6 763e 0024 263e
00000040: 92c5 ed3e 26e4 113e c2c6 7c3e 3765 773e
00000050: 203b 0c3e 2713 a73e 1fb2 023e 412c 5e3e
00000060: 9928 023e e573 003e fe2b 2f3e eb39 0b3e
00000070: 3b93 453d e7f5 433e 1421 803d 4726 903e

model.11.weight f4 [4, 32]
-0.073079735 -0.06483889 -0.052521028 0.059248764 -0.05340997 0.0008951906 -0.042426195 0.062336102
-0.066459574 0.068840034 0.07131302 0.10664535 -0.05072288 0.06080107 0.0037470853 -0.099503584
0.10575889 -0.14612256 -0.14327686 -0.06030128 -0.07321746 0.10362983 0.07382399 0.067213245
0.0007336997 0.022449775 -0.1358994 0.07862721 0.11716304 0.10953588 0.05192447 -0.0048600333
-0.118474625 -0.052899525 -0.053482037 0.05882149 -0.05266415 0.0020898904 -0.03912972 0.061491065
-0.07073824 0.06902548 0.07999773 0.10170691 -0.056533847 0.060358867 0.0014402656 -0.09582119
0.10792413 -0.14628163 -0.12379344 -0.06113977 -0.06946521 0.10359109 0.06818333 0.06547622
0.00040413995 0.025181336 -0.13079861 0.078746006 0.1202157 0.10991458 0.051614027 -0.002140431
0.08389322 0.08648447 0.15878598 -0.008638002 0.10799008 0.17311116 0.14921941 0.09330941
0.041921083 0.06180362 -0.031716865 0.01809035 -0.09349573 -0.029385973 0.09457163 -0.057541896
0.09003572 -0.0029592887 -0.07410933 0.16264348 -0.08064145 -0.09826575 -0.01602313 -0.106937446
-0.13866524 -0.091157325 -0.03375549 -0.035768025 0.003280721 -0.0008085099 -0.051899977 -0.1317729
-0.0775839 0.117058836 0.1060123 -0.014952105 0.1049993 0.1706318 0.15121314 0.100465715
0.111060366 0.05069446 -0.007661038 0.032858446 -0.10852498 -0.02278229 0.06245203 -0.03356608
0.086630434 -0.0038002525 0.0069815097 0.1554811 -0.07863114 -0.10348266 -0.0032755903 -0.12474624
-0.1017264 -0.106659584 -0.04440269 -0.06563206 0.01592484 -0.025335316 -0.046058927 -0.14629965
00000000: d4aa 95bd 41ca 84bd 4a20 57bd d5ae 723d
00000010: 6ac4 5abd 39ab 6a3a 17c7 2dbd 2454 7f3d
00000020: f51b 88bd 01fc 8c3d 900c 923d e168 da3d
00000030: cbc2 4fbd 8b0a 793d a991 753b 89c8 cbbd
00000040: 1e98 d83d 27a1 15be 2bb7 12be 7afe 76bd
00000050: 09f3 95bd e03b d43d 0831 973d 19a7 893d
00000060: c155 403a 97e8 b73c 3629 0bbe 4d07 a13d
00000070: 2df3 ef3d 5954 e03d c1ae 543d ea40 9fbb
00000080: d3a2 f2bd 2cad 58bd fb0f 5bbd cdee 703d
00000090: 5db6 57bd 8bf6 083b 7c46 20bd 0ede 7b3d
000000a0: 36df 90bd 3b5d 8d3d dad5 a33d b64b d03d
000000b0: 0990 67bd dc3a 773d 4bc7 bc3a e63d c4bd
000000c0: 5407 dd3d daca 15be 6a87 fdbd b26d 7abd
000000d0: c743 8ebd 9127 d43d b4a3 8b3d 6518 863d
000000e0: bfe2 d339 1749 ce3c 12f0 05be 9645 a13d
000000f0: a633 f63d e51a e13d 3b69 533d 7946 0cbb
00000100: 35d0 ab3d c51e b13d cb98 223e 6886 0dbc
00000110: e729 dd3d 0d44 313e f9cc 183e 0119 bf3d
00000120: 71b5 2b3d cb25 7d3d 8be9 01bd 3732 943c
00000130: b07a bfbd daba f0bc c5ae c13d 0db1 6bbd
00000140: a664 b83d a0f0 41bb a2c6 97bd 038c 263e
00000150: 5827 a5bd 8e3f c9bd f042 83bc 0502 dbbd
00000160: 43fe 0dbe b1b0 babd 3243 0abd 7e81 12bd
00000170: 5d01 573b 2ef2 53ba 1295 54bd 7aef 06be
00000180: 4fe4 9ebd 8bbc ef3d fa1c d93d acf9 74bc
00000190: df09 d73d 1aba 2e3e 9ed7 1a3e f8c0 cd3d
000001a0: 9e73 e33d fea4 4f3d 7209 fbbb 9496 063d
000001b0: 5842 debd eda1 babc b3cd 7f3d 967c 09bd
000001c0: 4c6b b13d a80d 79bb 26c5 e43b 7036 1f3e
000001d0: 5d09 a1bd b8ee d3bd 49ab 56bb f57a ffbd
000001e0: ee55 d0bd 5770 dabd 98df 35bd 1a6a 86bd
000001f0: cf74 823c 028c cfbc 49a8 3cbd 93cf 15be

model.11.bias f4 [4]
0.028963696 0.026195886 0.06899763 0.031071184
00000000: 4645 ed3c c198 d63c a14e 8d3d ff88 fe3c
